learning/model_flat/model_1.pth (torch, 11675 bytes, 5 tensors)

weight f4 [40, 10]
-0.7661406 -0.373062 0.21612006 0.6529698 -0.7660115 -0.6477921 0.43425632 0.29643112
0.0028842746 0.11373288 -0.2788017 0.055023402 0.33336398 -0.41422728 -0.27882203 -0.005540371
-0.32773423 -0.32805622 0.62751853 -0.026413172 0.094035566 -1.5171098 0.20051494 1.4518425
-0.89333594 -0.073077865 -0.45625052 0.008020108 -0.10738665 -0.03947001 -0.8218003 -0.47820032
0.21526133 -0.29898995 -1.2301 0.83453655 0.46276996 0.16095847 -0.07538087 0.0845927
0.3586666 -0.50819004 -0.6855827 0.15831667 0.037877716 0.3590669 -0.09607382 -0.16414742
-0.11576513 -0.03365713 0.55189764 0.46608317 -0.3702453 0.64818746 0.990916 -0.3097796
-0.025019648 -0.034293383 -0.026926491 -0.102832876 0.5041201 -0.3265781 -0.5020694 -0.7030579
-0.9071266 0.93086076 0.32849485 0.3528605 0.17746422 0.17795016 0.54756635 -1.0885938
-0.63350075 0.80631053 -0.23640826 0.7706074 0.27478796 0.32941666 0.22175938 0.17593853
-0.3238633 -0.33583155 -0.71836334 0.7011322 0.68110055 -0.29249522 -0.23617369 -0.25960281
-0.1875353 -0.2346413 0.077482514 0.034884445 0.16987847 -0.18832003 -0.20131513 0.10229246
0.07407298 0.029072518 0.112335555 -0.34607676 0.37187907 0.26451758 -0.09852292 -0.268596
-0.052603815 0.33020014 -0.3673772 -0.09852409 0.061092675 -0.0042336574 0.7685901 -0.16710275
0.6210362 0.36869296 0.15228231 -0.92808586 -0.33108908 0.023595683 -0.021673251 -0.16012979
0.091472894 -0.12437135 0.09759744 0.080058694 0.08054827 -0.37938038 0.1271712 0.094520345
0.3497612 -0.33516487 0.23541413 -0.41903213 0.24411134 -0.17343408 0.17041533 0.20937383
-0.41889283 0.26934004 0.47925055 -0.24443969 0.22162838 -0.016418967 0.15422595 0.25844887
0.30292678 -0.2377027 0.17321359 -0.24953894 0.19271894 0.18585296 -0.5294351 0.35057926
0.15023729 0.36990908 -0.55017126 -0.72578514 -0.23251937 -0.22711127 -0.22978994 -0.073840186
-0.34423393 -0.51298726 -0.37495217 -0.45968693 0.42886603 -0.027211487 0.052513294 -0.16425261
0.08415422 -0.26340887 0.027774747 -0.2736393 -0.57039493 -0.5417278 0.028571881 -0.25772056
0.5871169 0.30225232 0.28494045 0.28485626 -0.29060102 0.2420824 0.40845737 0.11349658
0.48277175 -0.2941619 0.45638028 -0.6108664 0.07787854 0.11399553 -0.23837966 0.73450655
-0.8862198 0.105074726 0.56995565 0.37794903 0.50703675 0.14111143 0.2266604 -0.040306967
0.41160807 0.336992 -0.6766582 -0.1882077 0.60132384 0.41180956 0.26339194 0.07620881
0.11263895 0.074434385 0.49945673 0.33375514 -0.07846318 0.3193539 0.026666308 -0.23977852
-0.3755901 -0.14207003 -0.27755395 -0.52894074 0.8514362 -0.89906126 -1.4741815 0.48490557
0.65710217 0.05162921 -0.12833688 -0.11445209 -0.00042356548 -0.01901657 -0.16733135 -0.39223358
0.35624793 0.8657324 0.5545519 0.33963227 -0.23062131 -0.042777434 -0.17431353 -0.10722999
0.110728994 -0.0042605805 -0.37997243 0.52215797 0.5027396 0.24142091 0.28029063 0.106200434
0.10216523 -0.094024315 0.13065162 -0.2959512 0.13897394 -0.07050405 0.52059793 -0.3950665
00000000: ca21 44bf fc01 bfbe 944e 5d3e 0729 273f
00000010: 5419 44bf b4d5 25bf d856 de3e d2c5 973e
00000020: 1906 3d3b c9ec e83d 19bf 8ebe 3860 613d
00000030: afae aa3e 9915 d4be c3c1 8ebe 008c b5bb
00000040: c8cc a7be fcf6 a7be 0ea5 203f 7060 d8bc
00000050: b895 c03d a730 c2bf ca53 4d3e fad5 b93f
00000060: aab1 64bf d9a9 95bd ab99 e9be c566 033c
00000070: 88ed dbbd 4eab 21bd 8161 52bf acd6 f4be
00000080: 776d 5c3e 3615 99be eb73 9dbf 30a4 553f
00000090: 2ff0 ec3e 4cd2 243e 4961 9abd f03e ad3d
000000a0: 26a3 b73e be18 02bf 5982 2fbf c41d 223e
000000b0: aa25 1b3d 9ed7 b73e 5ac2 c4bd 4316 28be
000000c0: 4516 edbd 0fdc 09bd 2a49 0d3f 74a2 ee3e
000000d0: cb90 bdbe 9def 253f acac 7d3f 6f9b 9ebe
000000e0: 01f6 ccbc 3877 0cbd f294 dcbc 0b9a d2bd
000000f0: 040e 013f 3f35 a7be 9f87 00bf 9afb 33bf
00000100: 7339 68bf e44c 6e3f 7a30 a83e 22aa b43e
00000110: 2eb9 353e 9138 363e 4f2d 0c3f 0b57 8bbf
00000120: 1b2d 22bf 5e6a 4e3f 0215 72be 8746 453f
00000130: 02b1 8c3e 4da9 a83e e414 633e 3b29 343e
00000140: 69d1 a5be 1df2 abbe a9e6 37bf 667d 333f
00000150: 9b5c 2e3f efc1 95be 84d7 71be a9ea 84be
00000160: 4109 40be cf45 70be 27af 9e3d fee2 0e3d
00000170: 9ff4 2d3e f7d6 40be 8e25 4ebe b67e d13d
00000180: 93b3 973d 7d29 ee3c 2f10 e63d f930 b1be
00000190: ef66 be3e d96e 873e 62c6 c9bd 6a85 89be
000001a0: 1977 57bd fe0f a93e dd18 bcbe 00c7 c9bd
000001b0: 503c 7a3d 7eba 8abb 52c2 443f fc1c 2bbe
000001c0: 3afc 1e3f 53c5 bc3e e5ef 1b3e 0997 6dbf
000001d0: 8284 a9be bc4b c13c 1a8c b1bc 10f9 23be
000001e0: 2456 bb3d 68b6 febd 2be1 c73d d0f5 a33d
000001f0: 7ef6 a43d 253e c2be 2b39 023e e293 c13d
00000200: e613 b33e bb9a abbe 6710 713e 618b d6be
00000210: 53f8 793e b498 31be 5b81 2e3e 1866 563e
00000220: 1f79 d6be f0e6 893e 5460 f53e 664e 7abe
00000230: 8df2 623e 1281 86bc 68ed 1d3e 6953 843e
00000240: 3819 9b3e 5668 73be e75e 313e 2387 7fbe
00000250: 1d58 453e 3d50 3e3e 0f89 07bf 207f b33e
00000260: ced7 193e b964 bd3e 06d8 0cbf 0ecd 39bf
00000270: 8f19 6ebe db8f 68be 0e4e 6bbe 8639 97bd
00000280: 6e3f b0be 2253 03bf bbf9 bfbe 165c ebbe
00000290: 5494 db3e a0ea debc 2e18 573d d631 28be
000002a0: 0c59 ac3d 87dd 86be de87 e33c 731a 8cbe
000002b0: 6705 12bf acae 0abf 940f ea3c f3f3 83be
000002c0: 4b4d 163f d1c0 9a3e b7e3 913e aed8 913e
000002d0: a8c9 94be 73e4 773e 5321 d13e e570 e83d
000002e0: dc2d f73e 639c 96be adaa e93e be61 1cbf
000002f0: c97e 9f3d 7d76 e93d cc19 74be 9f08 3c3f
00000300: 4ddf 62bf 6b31 d73d 9de8 113f 8982 c13e
00000310: 29cd 013f 847f 103e aa19 683e eb18 25bd
00000320: 4bbe d23e 378a ac3e 7939 2dbf 85b9 40be
00000330: 5cf0 193f b4d8 d23e 4fdb 863e 5d13 9c3d
00000340: 40af e63d 0e71 983d cbb8 ff3e f4e1 aa3e
00000350: 4eb1 a0bd 5b82 a33e 4d73 da3c 8088 75be
00000360: 584d c0be ce7a 11be 8d1b 8ebe a968 07bf
00000370: b9f7 593f e128 66bf fbb1 bcbf 8b45 f83e
00000380: d937 283f 2779 533d be6a 03be db65 eabd
00000390: ff11 deb9 a3c8 9bbc e958 2bbe d7d2 c8be
000003a0: 2166 b63e a3a0 5d3f 1df7 0d3f 48e4 ad3e
000003b0: fe27 6cbe 6437 2fbd 3f7f 32be 669b dbbd
000003c0: e2c5 e23d 579c 8bbb bf8b c2be 25ac 053f
000003d0: 8bb3 003f 0b37 773e 4182 8f3e 9d7f d93d
000003e0: 013c d13d d28f c0bd 8ac9 053e ea86 97be
000003f0: 2f4f 0e3e 6d64 90bd e845 053f 2846 cabe

bias f4 [40]
-0.297398 -0.3277093 -0.15643203 0.46672475 0.016974134 -0.95989406 -0.006647036 -0.1376866
0.7185578 -0.17635405 -0.23162974 0.80323267 -0.1920499 -0.025237717 0.121416375 0.07949114
0.4019855 -0.35879466 -0.3954211 0.28891802 -0.6002748 0.19353656 -0.4181465 0.43330956
0.27773058 0.025729416 0.13221851 -0.18305694 -0.23929599 0.10348111 -0.33762795 0.63718706
-0.77952653 -0.14800766 -0.3043506 -0.21021073 0.8178944 -0.2021037 0.1871213 -0.46331397
00000000: 8d44 98be 83c9 a7be b82f 20be 8cf6 ee3e
00000010: 570d 8b3c 9ebb 75bf 61cf d9bb b7fd 0cbe
00000020: 67f3 373f 2896 34be 5930 6dbe a8a0 4d3f
00000030: bba8 44be 54bf cebc 26a9 f83d 40cc a23d
00000040: 0bd1 cd3e efb3 b7be a274 cabe 10ed 933e
00000050: 9cab 19bf 732e 463e 4c17 d6be c0da dd3e
00000060: b432 8e3e 7fc6 d23c 4a64 073e 4773 3bbe
00000070: 020a 75be e7ed d33d 92dd acbe b11e 233f
00000080: 0d8f 47bf 528f 17be d8d3 9bbe 7b41 57be
00000090: 8761 513f 46f4 4ebe ba9c 3f3e 7d37 edbe

weight f4 [40, 40]
-0.057353225 0.071310036 -0.012133614 0.060049202 -0.07591839 -0.15232764 -0.11906419 -0.004040299
-0.06044525 0.110220194 0.12217917 -0.118686035 0.059179284 -0.07953212 -0.06393504 0.13153918
-0.03187382 0.03557291 -0.027777225 0.019700756 -0.09796197 0.098564856 -0.24210572 -0.030236343
0.038193285 0.03445748 0.070926055 0.0657198 0.014530259 0.044925287 -0.05426039 -0.10036496
0.012935738 0.021334326 -0.009062292 -0.18473777 0.09646626 -0.05712241 -0.1900131 -0.025461271
0.060770124 -0.032181896 -0.29862 -0.93499136 0.39678854 -0.50253814 0.5889104 -0.08020833
0.12630652 -0.005753856 0.11160887 -0.3061556 0.11663455 -0.21295756 0.078975424 -0.09614982
-0.15288702 -0.21548116 -0.061305374 0.7629392 -0.16264196 0.28851435 0.6261291 -0.09350603
0.20186041 -0.097836345 -0.21673745 0.52403176 0.5180715 0.04995957 -0.11910681 -0.21477345
-0.17669912 0.15429424 -0.08375772 0.1311483 0.36803472 0.11535308 -0.2896784 -0.6045071
-0.62553036 0.31798762 0.6259395 0.43401816 -0.19014977 0.36080465 -0.2930096 0.7406036
0.4172163 0.0488508 0.14756204 -0.41895875 0.067534186 0.35282654 -0.031442195 -0.1413657
0.29943654 0.40782198 0.29512614 -0.13033609 0.36444357 -0.4565826 -0.48990628 -0.008833048
0.14736311 0.44976515 0.5026466 -0.45490158 -0.46532387 0.15167268 0.52528673 0.34139276
0.6480465 0.012671734 0.4350429 0.07329716 0.13358608 0.07442736 0.28967836 0.23012497
0.014585517 -0.019363211 0.073771365 0.027847711 0.010658331 -0.06488001 0.02804585 0.17461051
-0.00745304 -0.050025318 -0.067035854 -0.022169726 0.10514399 -0.05941003 -0.026129397 -0.07129702
-0.20048074 -0.10654205 0.031775918 0.022611104 0.13915299 0.056140646 -0.09875202 0.015167668
-0.0021359627 0.1098782 -0.07659804 0.05143497 0.05306461 0.020935206 -0.030372808 0.040243264
0.069587275 0.09799539 -0.007815747 0.044219 -0.05251739 -0.024339104 -0.082200356 0.05030486
-0.40935355 0.24686186 0.52466494 0.20002893 -0.14671096 0.1985267 -0.32257557 0.64522666
0.44350016 0.08495798 0.24633159 0.12353682 -0.30901375 0.34425375 -0.15419954 -0.3044381
0.26322377 0.2919324 0.28486404 -0.20443903 0.2805509 -0.12912717 -0.5208619 -0.3761636
-0.2839087 0.25697714 0.22027689 -0.2762529 -0.49089643 0.07281246 0.41386923 0.661598
0.59419066 -0.014581394 0.4983058 0.31571308 -0.23033877 0.22745942 0.35125524 0.07367593
-0.06584438 0.13161755 0.12039991 0.049071282 -0.028445965 0.10135607 0.056364674 0.19787711
0.11236257 -0.029813327 -0.14972319 -0.0422427 -0.00926328 0.067916505 0.061684154 0.06894769
0.19348232 -0.020749113 -0.013249216 -0.0033804695 0.12592839 0.09315992 0.07890822 -0.07980433
-0.07186605 0.018235078 -0.04889076 0.17958097 0.041240755 0.040254124 -0.027098427 0.018821392
-0.01013782 0.06352844 0.026932953 0.13160639 -0.0044464036 -0.01279682 0.016697569 0.0062256143
0.024155067 -0.09605923 0.11770317 0.025908329 -0.04611472 0.108875126 0.01730731 0.060356803
0.035971247 0.102205545 -0.104554415 -0.11977485 0.16338131 0.060932245 -0.0627222 0.015414659
00000000: 37eb 6abd ff0a 923d 11cc 46bc 27f6 753d
00000010: 1a7b 9bbd c7fb 1bbe edd7 f3bd 7c64 84bb
00000020: 7095 77bd 20bb e13d 1339 fa3d aa11 f3bd
00000030: fa65 723d bce1 a2bd 60f0 82bd 35b2 063e
00000040: 1f8e 02bd e6b4 113d 108d e3bc 7b63 a13c
00000050: 49a0 c8bd 5fdc c93d 90ea 77be 35b2 f7bc
00000060: 9070 1c3d 4923 0d3d ae41 913d 1a98 863d
00000070: 5310 6e3c 9403 383d 2540 5ebd 258c cdbd
00000080: 6bf0 533c 53c5 ae3c 027a 14bc e62b 3dbe
00000090: 1a90 c53d 30f9 69bd cb92 42be 2894 d0bc
000000a0: 18ea 783d 2ad1 03bd b8e4 98be 985b 6fbf
000000b0: de27 cb3e 57a6 00bf d5c2 163f 4444 a4bd
000000c0: 7f56 013e d88a bcbb 3193 e43d 6dc0 9cbe
000000d0: 18de ee3d 8c11 5abe debd a13d 32ea c4bd
000000e0: 6a8e 1cbe 18a7 5cbe 581b 7bbd fc4f 433f
000000f0: 9d8b 26be 27b8 933e ff49 203f 1780 bfbd
00000100: 7fb4 4e3e 6c5e c8bd 6cf0 5dbe f226 063f
00000110: 55a0 043f 68a2 4c3d 45ee f3bd 92ed 5bbe
00000120: 9df0 34be 4fff 1d3e 2b89 abbd bd4b 063e
00000130: 0c6f bc3e 3c3e ec3d ba50 94be fac0 1abf
00000140: c222 20bf 46cf a23e 923d 203f a137 de3e
00000150: 9fb6 42be 63bb b83e 5b05 96be 3398 3d3f
00000160: 609d d53e c717 483d 811a 173e c381 d6be
00000170: 5d4f 8a3d aea5 b43e 88c9 00bd 2cc2 10be
00000180: bf4f 993e 0bce d03e c61a 973e d376 05be
00000190: 5998 ba3e 32c5 e9be ffd4 fabe 7db8 10bc
000001a0: 5be6 163e 9e47 e63e 73ad 003f dce8 e8be
000001b0: ee3e eebe 1550 1b3e 3179 063f 08cb ae3e
000001c0: 60e6 253f 1b9d 4f3c f1bd de3e d21c 963d
000001d0: caca 083e 5f6d 983d b950 943e e1a5 6b3e
000001e0: 18f8 6e3c 999f 9ebc 7115 973d e220 e43c
000001f0: 48a0 2e3c d0df 84bd 69c0 e53c 19cd 323e
00000200: a238 f4bb 59e7 4cbd 184a 89bd 499d b5bc
00000210: bb55 d73d ee57 73bd 510d d6bc 2c04 92bd
00000220: d34a 4dbe b832 dabd 7727 023d ec3a b93c
00000230: 1f7e 0e3e bcf3 653d 803e cabd d081 783c
00000240: 82fb 0bbb d207 e13d 6fdf 9cbd 7aad 523d
00000250: 475a 593d 4f80 ab3c 65d0 f8bc 1fd6 243d
00000260: c683 8e3d cfb1 c83d 9e0d 00bc fb1e 353d
00000270: 7a1c 57bd cd62 c7bc a958 a8bd 780c 4e3d
00000280: ca96 d1be 5bc9 7c3e 7150 063f 62d4 4c3e
00000290: 663b 16be 954a 4b3e a028 a5be 932d 253f
000002a0: 7412 e33e 73fe ad3d 593e 7c3e df00 fd3d
000002b0: 0d37 9ebe 0742 b03e 7ce6 1dbe 50df 9bbe
000002c0: 44c5 863e 2a78 953e b3d9 913e 7758 51be
000002d0: 5ea4 8f3e ea39 04be 3557 05bf 8498 c0be
000002e0: 7b5c 91be 8292 833e 4490 613e 0571 8dbe
000002f0: c756 fbbe b31e 953d abe6 d33e 7d5e 293f
00000300: e11c 183f cde6 6ebc f021 ff3e 25a5 a13e
00000310: eddd 6bbe 1feb 683e bad7 b33e 68e3 963d
00000320: 6bd9 86bd c0c6 063e 3a94 f63d f8fe 483d
00000330: 8307 e9bc c593 cf3d a5de 663d 4ca0 4a3e
00000340: 591e e63d 143b f4bc 0951 19be ae06 2dbd
00000350: 03c5 17bc cf17 8b3d 86a8 7c3d 7234 8d3d
00000360: 3b20 463e 0bfa a9bc 3d13 59bc de8a 5dbb
00000370: 5ff3 003e a1ca be3d a29a a13d 7470 a3bd
00000380: 822e 93bd bb61 953c ad41 48bd 13e4 373e
00000390: 11ec 283d 82e1 243d 85fd ddbc 522f 9a3c
000003a0: 1919 26bc 331b 823d 7fa2 dc3c d3c3 063e
000003b0: 23b3 91bb c1a9 51bc 57c9 883c 3d00 cc3b
000003c0: d9e0 c53c b4ba c4bd 5c0e f13d b43d d43c
000003d0: cae2 3cbd ecf9 de3d 0fc8 8d3c b238 773d
000003e0: 9656 133d 2451 d13d a020 d6bd 844c f5bd
000003f0: 6e4d 273e 1794 793d 7f74 80bd c48d 7c3c

bias f4 [40]
-0.16628587 0.4299581 -0.16584574 -0.18911736 0.27286416 -0.23516938 -0.020011075 -0.21917628
-0.1438841 -0.058928296 0.35633296 -0.13349341 -0.18521224 0.24172617 -0.16115311 0.16121824
0.12665585 -0.12009746 -0.10027572 -0.08305913 0.04816183 -0.16306102 0.25628167 -0.120285094
-0.14642678 -0.12506138 0.006178737 -0.12218486 -0.043178614 0.09185495 0.25456548 0.5251639
0.3484338 -0.025402362 -0.0971773 0.09710195 -0.09002291 0.11753471 -0.073785454 0.0006393323
00000000: d846 2abe 7823 dc3e 77d3 29be fba7 41be
00000010: dab4 8b3e 3ed0 70be 44ee a3bc bf6f 60be
00000020: 5a56 13be cc5e 71bd 4671 b63e 7fb2 08be
00000030: 47a8 3dbe 1187 773e 5205 25be 6516 253e
00000040: 12b2 013e a8f5 f5bd 5b5d cdbd e81a aabd
00000050: 5745 453d 78f9 26be 5a37 833e 0858 f6bd
00000060: e7f0 15be 1710 00be 0177 ca3b 0e3c fabd
00000070: 0fdc 30bd 731e bc3d 6856 823e 2471 063f
00000080: ea65 b23e 9d18 d0bc e404 c7bd 63dd c63d
00000090: ee5d b8bd 0ab6 f03d d41c 97bd dd98 273a

weight f4 [1, 40]
-0.18101707 2.0644643 -2.260406 -0.11777118 -2.043422 0.060056664 0.118371 0.15810977
0.40420273 0.19176136 1.1935639 0.1384755 -3.8328302 0.89039 0.10098972 1.1400367
-0.63069946 -0.14957507 0.07036391 -3.3723943 0.286622 0.42597342 1.583135 0.44326428
-0.0696331 0.05576232 0.18583578 -2.9599674 -0.09350287 1.2380785 -1.4263206 3.0671787
1.789088 -1.0793353 0.5219114 -0.3687584 -0.2975379 -0.7421591 0.47254503 -0.36192667
00000000: 8a5c 39be 2f20 0440 7eaa 10c0 0432 f1bd
00000010: 6dc7 02c0 fafd 753d 7f6c f23d 87e7 213e
00000020: a9f3 ce3e 175d 443e b4c6 983f 85cc 0d3e
00000030: 174d 75c0 99f0 633f b3d3 ce3d b9ec 913f
00000040: 8575 21bf 352a 19be f41a 903d 4fd5 57c0
00000050: 1ec0 923e 3019 da3e 2ba4 ca3f 89f3 e23e
00000060: cc9b 8ebd 0867 643d bc4b 3e3e 1b70 3dc0
00000070: 6f7e bfbd 5b79 9e3f ac91 b6bf a84c 4440
00000080: d600 e53f a927 8abf fc9b 053f e7cd bcbe
00000090: e356 98be 24fe 3dbf 6cf1 f13e 744e b9be
