learning/model2/dnn/model_5.pth (torch, 11415 bytes, 5 tensors)

weight f4 [40, 7]
000000 5a 8b 08 3f 1b 8b fb be ed 9d 1c bd 70 e5 8a 3e
       0.53337634 -0.49129567 -0.038236547 0.27128172
000010 ac e3 1c 3e 36 7b 34 be 31 21 e7 bd ab 1a a7 3c
       0.15321225 -0.17625126 -0.11285628 0.020398458
000020 fd 5a 86 3e 35 7f 45 be 2b a8 0d be 5a f9 b5 bd
       0.26241294 -0.19286807 -0.13833682 -0.08885451
000030 cd e2 42 be d3 c2 8c 3d ad a6 f9 3d b2 ac a3 3e
       -0.1903183 0.06873097 0.12189994 0.31967694
000040 5f 83 5e 3e 62 9b 39 3e 92 e9 7f 3e 1b d5 21 be
       0.21729802 0.1812568 0.24991444 -0.1580395
000050 26 2d 20 bd 8a 6c ab bc b3 ff 8c be a9 a7 e1 3e
       -0.039105557 -0.020925779 -0.27538833 0.44073227
000060 b2 bd 83 be f6 47 a9 3e f1 40 85 be f4 66 a1 3e
       -0.25730664 0.33062714 -0.2602611 0.3152386
000070 8c 83 ac 3b b9 cb c8 3b 42 d2 42 be 21 88 ec bc
       0.005264705 0.0061278013 -0.1902552 -0.028873505
000080 0d 3d c0 be eb e9 63 3e 75 99 1a be 17 74 89 be
       -0.37546578 0.22257201 -0.15097602 -0.26846382
000090 a2 14 cf 3e 9a af 84 3e 45 ea 48 be 1f 0c 8a 3e
       0.4044543 0.25915223 -0.19620617 0.26962373
0000a0 ec cb 89 3e d4 30 f3 bd f8 e1 1b be 1c 34 97 be
       0.26913393 -0.118745476 -0.15222919 -0.29531944
0000b0 e1 4a 48 3e 89 a5 20 3e b7 e9 27 be d6 71 bc be
       0.19559814 0.15688147 -0.16397749 -0.368056
0000c0 13 85 a4 3e cb 62 37 3f 3f f9 18 bf 2e 11 c7 3e
       0.32132778 0.7163512 -0.5975532 0.38880295
0000d0 ea 4d 89 3e c6 79 dd 3e 62 c8 ea 3d 3a 57 ed bc
       0.26817256 0.43256968 0.11464001 -0.028972257
0000e0 dd 2d f4 3e ab 1c 03 bf e4 5c 8a 3d 02 ee 34 be
       0.4769124 -0.5121562 0.06755999 -0.17668918
0000f0 58 16 f9 bd 3f 8b 01 3e ba a3 04 3e 06 c4 fe be
       -0.12162465 0.12650774 0.12953082 -0.4975893
000100 7e 3f 1c 3e 16 c1 10 3f b8 aa 85 3e fc 47 84 3e
       0.15258595 0.56544626 0.2610681 0.2583617
000110 55 32 ae 3b 3a 4b b1 3e ee cc c7 3e 0c 1d 60 bd
       0.0053160586 0.34627706 0.39023536 -0.0547152
000120 b3 bb 91 3d 09 96 12 be d9 e7 d1 bd 89 8b 03 be
       0.07115879 -0.14315046 -0.102492996 -0.12846197
000130 7d 9b a9 be 53 1b d0 be 53 f2 99 3e bf a5 fa 3e
       -0.3312644 -0.40645847 0.3006769 0.4895458
000140 00 a3 d7 3e b5 a1 91 3e 36 69 00 3e 15 d8 1a 3e
       0.42116547 0.28443685 0.12540135 0.15121491
000150 8d 64 d5 bb 9a 8e 2b be 48 54 ec 3d ba 70 3a 3e
       -0.0065122307 -0.16753617 0.11539513 0.18207064
000160 42 cf 55 bd 5d 36 40 be 47 cd 5a 3e d9 80 9f 3e
       -0.05219961 -0.18770738 0.2136737 0.3115299
000170 53 26 c1 be 63 58 85 3e b1 53 a1 be 73 f4 a5 be
       -0.37724552 0.26043996 -0.31509164 -0.32413062
000180 61 10 de 3c 42 64 09 3e 63 cd 1e be 7e b6 82 bd
       0.02710742 0.13417152 -0.15508036 -0.06382464
000190 d9 44 f8 bc 8b fb 8a be 99 74 73 3d 09 b0 4c be
       -0.030306267 -0.27145037 0.059437368 -0.19989027
0001a0 85 95 1d bd 9e 0f d2 3d 17 fa 25 3b a5 ea b2 3d
       -0.03847267 0.10256885 0.0025326067 0.08736161
0001b0 38 83 bb 3d 47 e0 25 3e 5c 11 76 3e b1 7f 81 3d
       0.09155887 0.16198836 0.2403006 0.06323183
0001c0 42 36 d8 be fc 94 bf 3e a7 72 eb 3e a3 64 70 3e
       -0.42228895 0.37418354 0.4598591 0.2347589
0001d0 61 fb 44 3e 12 44 6b 3c 04 62 40 3e 94 17 d5 3d
       0.19236518 0.014359491 0.1878739 0.10404888
0001e0 1d 91 29 3f 78 1d a3 3e ef 2e 8e 3e 5e 7b 0a 3e
       0.6623705 0.3185842 0.27770182 0.13523623
0001f0 17 56 4e be 67 55 92 be 35 8f 79 3e cb 87 aa be
       -0.20150028 -0.28580782 0.24371035 -0.33306727
000200 5b e8 e7 3d b2 8d 8f 3e b3 49 20 bd 86 26 2b 3e
       0.11323615 0.28037792 -0.039132785 0.16713914
000210 88 4c 8a 3e 13 29 13 3e 57 cc 59 3e e6 fe 0a be
       0.27011514 0.14371137 0.21269356 -0.13573799
000220 8e f6 01 be 00 a3 81 3d 64 12 cb bd 9f 41 0d be
       -0.1269171 0.06329918 -0.09915617 -0.13794564
000230 c8 15 b6 be f8 1f 5f 3c 53 5d ad be e9 cb 2b 3e
       -0.35563493 0.013618462 -0.33860263 0.16777004
000240 bd 99 06 bd f7 d7 1d be a6 85 83 3e 03 53 19 3f
       -0.03286146 -0.15414415 0.25687903 0.5989229
000250 fc 37 86 be 2d 10 dd be ea 5e 74 be 47 6e b7 bd
       -0.26214588 -0.43176404 -0.23864332 -0.089565806
000260 ea 91 7d 3d aa 33 e2 3d 60 63 be bd 46 ba a0 be
       0.061906733 0.110450104 -0.09296298 -0.31392115
000270 d9 b5 5a be 85 b8 85 be 65 8a c0 3e 20 4b 71 bd
       -0.21358432 -0.2611734 0.37605587 -0.058909535
000280 d0 bc 12 be 3d 2e 07 3f b9 8b bc be 21 7e 8d 3e
       -0.14329839 0.5280493 -0.3682535 0.2763529
000290 ff 52 45 3d 0f 67 ba bd 4a 3f 0e 3e 16 0a 78 bb
       0.048174854 -0.09101688 0.1389133 -0.0037847809
0002a0 79 1a 0d be ea ce 8a 3e 9d 75 49 be 2e 23 09 3c
       -0.1377963 0.27110988 -0.19673772 0.008370204
0002b0 bf 0c c9 be ab a5 3d 3e fa 53 0e 3e b7 59 30 3c
       -0.39267537 0.18520229 0.13899222 0.010763577
0002c0 9a 4a c9 bd 33 3a 69 3e 01 7c 6a bd 5f 93 44 be
       -0.09828682 0.22776107 -0.057247166 -0.19196843
0002d0 39 f0 07 bd c4 ca 0c 3d 7d 51 20 3f 3c 83 2c bf
       -0.03318808 0.03437306 0.6262434 -0.6738775
0002e0 f3 93 c8 be 4b a0 16 be 33 00 35 3e fa 9b 9b 3d
       -0.39175376 -0.14709584 0.17675857 0.075981095
0002f0 a5 9d 04 3c 3d 8d 88 3e 31 0f 90 3e 31 d0 17 be
       0.008094226 0.26670256 0.2813659 -0.14825512
000300 75 fd ba be 55 28 57 3e 60 12 e6 bd ed 15 85 3e
       -0.36521497 0.21011479 -0.112339735 0.2599329
000310 db bb 02 3f e3 f3 bc 3d 73 d8 35 be 40 86 34 be
       0.51067895 0.09226205 -0.1775835 -0.17629337
000320 1f e6 8a 3e cf 36 55 be 17 fc 8b 3e 0f d0 80 be
       0.27128693 -0.20821689 0.27340767 -0.25158736
000330 a2 22 06 3e 48 70 45 bd 2a 71 0d 3d 88 6f 21 be
       0.13099149 -0.048202783 0.03453175 -0.15765202
000340 e4 80 98 bd fa 77 28 3e 4f 08 8c bd 84 c6 98 be
       -0.07446459 0.16452017 -0.06837522 -0.29838955
000350 b4 f9 d4 3e 94 2d 7e bc 1e 8d 95 3e 3a 2e 02 be
       0.41596758 -0.015513796 0.29209226 -0.12712947
000360 69 56 ba 3d 56 69 80 be 46 9f af bd 88 e5 c1 3d
       0.09098513 -0.25080365 -0.08575301 0.09467608
000370 66 2d b7 be a6 68 05 be 46 54 5e 3e c4 78 49 3c
       -0.35776824 -0.13028201 0.21711835 0.012296859
000380 ac 19 95 3e 3a 73 e3 3d 55 4b 91 be 87 71 2e bd
       0.2912115 0.11105962 -0.28377786 -0.042588737
000390 bf f9 42 3d 39 84 af 3e 52 89 b9 3d 43 34 1f be
       0.047601458 0.34280565 0.09059395 -0.1554728
0003a0 42 29 3b 3e 82 38 28 be da e0 7d 3e 18 2d 44 bd
       0.18277457 -0.16427806 0.24792805 -0.047894567
0003b0 e0 bc 15 3e e6 4e 46 3e 9f 11 b1 3d 69 e7 f2 bd
       0.14622831 0.19366035 0.08645939 -0.11860544
0003c0 5b 66 c7 be 86 7f 89 3e f9 90 0a 3e cc c1 67 3e
       -0.3894528 0.26855105 0.13531865 0.22632521
0003d0 70 54 c7 bd 0d ca 70 3d 06 4f bd be 77 c9 a5 be
       -0.09732902 0.05878644 -0.36974353 -0.32380268
0003e0 74 cd ba 3e e9 30 4a be 78 a1 8d be d0 a8 98 3d
       0.36484873 -0.1974522 -0.27662253 0.074540734
0003f0 ae 7f c8 be 56 ec fa 3d 4a d6 da be 1c 5f 50 be
       -0.39159912 0.12252109 -0.42741615 -0.20348781

bias f4 [40]
000000 0f 3e a2 3e b0 89 00 be 5c 32 17 3e 81 22 db 3a
       0.31687972 -0.12552524 0.14765304 0.0016718657
000010 53 bc 10 3e 86 00 d6 3e 0e 1a 4d be 2b 9f ab 3d
       0.1413434 0.41797274 -0.2002947 0.08379968
000020 aa bc b2 3e ac 47 3d be 77 ba 79 3e 55 f1 6f be
       0.34909564 -0.18484372 0.24387537 -0.23431905
000030 95 a7 fc 3d ab ab c0 bd 10 45 dc 3c 6a cd 1d bd
       0.12336651 -0.09407743 0.0268884 -0.038525976
000040 14 e5 84 bd e5 d4 84 3d e5 65 80 be e2 7a b6 be
       -0.06489006 0.06485919 -0.2507774 -0.35640627
000050 1b c0 78 bc 19 4d c9 3e 7b 04 bb be 0d a8 94 3e
       -0.01518252 0.39316633 -0.36526856 0.29034463
000060 9e 83 f6 3d d4 c2 7a 3e ff 38 84 3e 87 54 b7 3e
       0.12036823 0.24488384 0.25824735 0.35806677
000070 15 31 cd 3e 29 ce 9d be b0 dd 74 be 27 bc 7f 3e
       0.4007651 -0.3082135 -0.23912692 0.24974118
000080 48 72 65 3e d5 34 bd 3e 06 50 d3 3e 45 48 a5 be
       0.22406876 0.3695437 0.4127199 -0.322817
000090 76 8d 02 3f 24 f8 bb be 97 a8 ae 3e c2 f0 cf 3e
       0.509971 -0.36712754 0.34113 0.4061337

weight f4 [40, 40]
000000 bc cb a5 bd 20 6c d4 bb d7 39 0e 3e f8 d9 5a 3d
       -0.080955 -0.006482616 0.13889252 0.053430527
000010 86 c9 dd 3d 00 51 f1 3a 93 2f 09 be 00 0c 45 bb
       0.10829453 0.0018410981 -0.13397054 -0.0030066967
000020 3a c8 cb 3d ea 5f db bd d7 38 b7 bd 71 03 9b bd
       0.099502996 -0.107116535 -0.08946388 -0.07569016
000030 f4 f0 06 be 48 0a cf bd f0 51 c5 bc cc 89 0e be
       -0.13177854 -0.10109383 -0.024086922 -0.13919753
000040 50 0a 16 bc 90 00 1c 3c 85 a1 04 3e 85 5b 04 be
       -0.009157732 0.0095216185 0.1295224 -0.12925537
000050 e8 48 cd bd a0 02 cf bc 30 d3 9b 3d 5d f0 f8 bd
       -0.100236714 -0.025269806 0.0760864 -0.12155221
000060 d0 0b c9 3c dc 08 72 3d 14 07 1f 3d c0 cc b2 bc
       0.024541765 0.05909048 0.03882511 -0.021826148
000070 99 ca a8 bd 30 4c e2 3c 97 66 1e 3e db e8 e5 bd
       -0.082417674 0.02762422 0.15468822 -0.11226054
000080 7d 6c d8 bd 96 f4 2e bd d0 65 61 3c 36 6c 04 be
       -0.105675675 -0.042713724 0.013757184 -0.12931904
000090 74 57 58 3d 65 1f 05 3e 00 0a 54 bd a0 91 f1 3b
       0.052817777 0.13000257 -0.05176735 0.007372096
0000a0 18 09 ef bc c1 e4 fe bb 67 cb a6 bd f2 3f 15 3e
       -0.02917914 -0.0077787344 -0.08144265 0.14575174
0000b0 6d e7 af bd b6 46 00 3e 65 4e 9d 3d d7 32 84 3d
       -0.08589063 0.12526974 0.07680968 0.064550094
0000c0 21 01 81 3c 36 5d 24 be 7b fd a9 bd 1a 8e 9a bd
       0.015747609 -0.16051182 -0.08300301 -0.07546635
0000d0 9a c9 f1 3d a1 1a a9 bd 99 12 ff bd cc 5a 26 bd
       0.118060306 -0.08257032 -0.12454719 -0.040613934
0000e0 67 58 bb 3d 06 4d 11 bd 14 da bc 3d 80 43 72 3b
       0.09147721 -0.035473846 0.092212826 0.0036966503
0000f0 11 c0 77 bd 7c 89 38 bd 00 e7 1d be 21 45 fa bd
       -0.060485903 -0.04505299 -0.15420151 -0.122202165
000100 f8 a6 1c 3e de 4d 10 be 6c 45 25 3d b6 92 22 bd
       0.15298069 -0.14092204 0.04034941 -0.039690696
000110 36 98 0a bd 42 1d a0 3d e7 c0 05 3e 48 9a 1f be
       -0.033836566 0.078180805 0.13061868 -0.15586197
000120 ac ca a5 3d ac 95 d0 bd a6 fe 8c bd 52 a9 2b bd
       0.08095297 -0.10184798 -0.06884508 -0.041909523
000130 5e a4 64 bd 38 2d 6f bd d4 fe 17 3d 4f 7a bc bd
       -0.055820815 -0.058392733 0.037108257 -0.09203016
000140 6a 48 b7 3d 4f 86 0c be b2 aa d4 3d fb 2e 95 3c
       0.08949359 -0.1372311 0.1038412 0.018210879
000150 65 bc b0 3d 63 a0 40 bd ae 3a 06 bc bf ae 76 be
       0.086296834 -0.047027957 -0.008192701 -0.24090098
000160 90 78 df 3d 02 a3 24 bd bf e9 99 bd 25 85 41 be
       0.10911667 -0.04019452 -0.07515287 -0.18898447
000170 3e 5b 19 3e f7 c7 0a 3b 19 d1 61 3d 81 b9 8e bc
       0.14976212 0.0021176317 0.05513105 -0.01742244
000180 e3 73 ab bd 21 11 a5 3d fe d0 a9 bd 80 32 cd bd
       -0.08371713 0.08059908 -0.08291815 -0.10019398
000190 07 9f 10 3d e5 49 48 3d 80 9d 9e 3b 65 d5 ab bc
       0.03530791 0.048898596 0.004840553 -0.020975778
0001a0 a3 99 c2 3c 32 2f 2b 3e 70 d8 54 be 78 ce 0c bd
       0.0237549 0.16717222 -0.2078569 -0.03437659
0001b0 85 24 29 3e 41 4a 8b 3c b5 7b bb 3c 11 8c f9 3d
       0.16517837 0.01700318 0.022886137 0.12184919
0001c0 86 de 5e 3d b2 86 04 bd 41 28 22 3e 90 7f c6 bc
       0.054411434 -0.032355018 0.15835668 -0.024230748
0001d0 4e 7d 82 3e a7 cb 8b 3d 5a 73 76 3d 89 44 13 bd
       0.25486225 0.06825953 0.0601686 -0.035954032
0001e0 f0 3c de bd 9a 0f a3 bd 34 91 d5 3a 35 e0 87 bd
       -0.10851467 -0.0796196 0.0016293884 -0.06634561
0001f0 82 83 33 be 83 c3 64 bd 1d 24 6e 3c e4 4c d0 3d
       -0.17530635 -0.055850517 0.014534977 0.10170916
000200 28 22 af 3d 9f 18 e0 3c a2 44 45 3c d1 34 16 bd
       0.08551437 0.02735549 0.012040289 -0.036671463
000210 6e a2 fe 3d ab a4 15 3e e1 a8 71 bd f9 9c 17 3d
       0.12433325 0.14613597 -0.058998946 0.037014935
000220 48 22 b5 3d 83 c0 fb 3d 93 8f 61 3d 0a 94 c4 3d
       0.08844429 0.12292578 0.055068564 0.09598549
000230 30 ff e6 bd 3b 24 0c 3e 00 21 bf bc e8 91 c1 3d
       -0.11279142 0.13685696 -0.023331165 0.094516575
000240 a5 d1 3d bd 64 05 e5 bd 25 4d 6a 3e 56 a9 64 bd
       -0.04634251 -0.11182669 0.22880991 -0.055825554
000250 73 59 60 3d 0a 74 7e 3d 02 f2 98 3c d9 93 de 3d
       0.054772805 0.062122382 0.018670086 0.108680435
000260 af 64 d4 bd dd a5 1d bd b8 bf f3 3d b7 84 74 bc
       -0.10370766 -0.038488258 0.11901802 -0.01492422
000270 cc 5f 1b bd 88 3f 12 3e c2 f9 d7 bd 31 34 06 3e
       -0.037933156 0.14282048 -0.105456844 0.13105847
000280 0c 7d 77 3d 76 f5 13 3e 1f 71 be 3d a0 bc 30 3e
       0.06042199 0.14449105 0.0929892 0.17259455
000290 8f 38 0e 3e 22 69 75 3d 0d c5 17 3e 0b 2f 94 bd
       0.13888763 0.059914716 0.14821263 -0.07235535
0002a0 26 28 fb ba 1e 2c 91 3d f9 3c 09 3e c6 24 94 bd
       -0.0019161745 0.07088493 0.13402165 -0.072335765
0002b0 8d 12 da 3d f5 da 45 bd e3 93 22 3e 0d 8b 13 be
       0.106480695 -0.048304517 0.15876727 -0.14408512
0002c0 01 54 df bd 70 9f 2f be e3 66 fd bc 21 df 34 bd
       -0.10904694 -0.17150664 -0.03093285 -0.044158105
0002d0 3d 1c 15 3d de ea aa bc a6 d4 83 3d 0f 64 30 3e
       0.036403883 -0.020863947 0.06437044 0.1722567
0002e0 46 c0 a4 bd 52 a9 d0 bc 2a a9 b3 bd df ac 81 3d
       -0.08044486 -0.025471363 -0.087725 0.06331801
0002f0 c4 57 d2 bd 93 24 f1 bd 0a 44 8b 3d a7 09 20 3e
       -0.10270646 -0.11774554 0.06800087 0.15628682
000300 6d 67 96 3d c8 01 3e 3d 8c 23 7b 3d 8c 3d 19 3d
       0.07343946 0.046388417 0.061313197 0.03741221
000310 ff c4 2f 3e a4 53 d3 bd 68 b2 3f bd e0 56 56 3d
       0.17164992 -0.103186876 -0.046801 0.052328944
000320 9e 00 23 be c9 05 d9 3d 7c 7f 0a be 5e e0 2c be
       -0.15918204 0.105968066 -0.13525194 -0.16882464
000330 03 88 19 3e 2f 64 05 bd 79 a1 78 bd bd 12 50 be
       0.1499329 -0.032566246 -0.060700867 -0.20319648
000340 51 aa e1 3d af d9 d5 bd 3c 24 87 bd 21 fd 1c bd
       0.110188134 -0.104419105 -0.06598708 -0.03832734
000350 12 98 f6 3d f9 4d 1e be 5f a4 18 be 07 9f e0 3d
       0.12040724 -0.15459432 -0.14906453 0.10967832
000360 3f 07 cf bd 96 e0 2a bd 61 e8 ac bd 0a 25 ee 3d
       -0.10108804 -0.041718088 -0.0844276 0.116281584
000370 ca f9 4a 3d 84 97 84 bd d9 f3 02 be f2 4a f0 bd
       0.049554624 -0.06474212 -0.12788333 -0.11733045
000380 a4 d8 1b 3d cb 6c 58 3d 42 0f e0 3d 0d d5 26 3e
       0.0380484 0.052838128 0.1094041 0.1629221
000390 38 e3 25 3d 78 a1 8d 3c 4d 7c 42 3c 20 3f 7e 3d
       0.040499896 0.017288908 0.011870456 0.06207192
0003a0 f5 dc b1 3d a3 60 16 3e 57 75 da 3d 19 12 76 3c
       0.08684722 0.14685301 0.10666912 0.015018963
0003b0 6d 09 35 3e 68 67 d0 bb 6f 01 54 3e d1 33 a7 3d
       0.17679377 -0.0063599832 0.20703672 0.0816418
0003c0 81 1f fb 3a dc 8a be bd be 3b a7 3d 44 07 96 3c
       0.0019159169 -0.09303829 0.08165692 0.018314011
0003d0 ff 46 d4 3d fb e8 1b be 7b 6a 94 bb 2e d7 5e 3e
       0.10365104 -0.15225594 -0.004529295 0.21761772
0003e0 38 6f 82 bd de be 09 be 90 c5 f2 bd 82 ed fe bd
       -0.063688695 -0.13451716 -0.11854088 -0.12447645
0003f0 97 a7 b7 3d 03 9a e5 3d 5e b0 4e bd 00 70 f4 bd
       0.08967512 0.11211016 -0.050461166 -0.11935425

bias f4 [40]
000000 ef dc ce bd 07 bf d3 3d ca a6 33 3e 08 94 8b 3d
       -0.101007335 0.1033917 0.17544094 0.06815344
000010 99 c3 20 3e 58 40 4f 3c 2c 62 5f 3e 9f 77 1f 3c
       0.15699615 0.012649618 0.21814793 0.00973311
000020 e2 90 9c 3d 1c 07 37 3e 80 8c 95 bc 54 08 fc 3d
       0.07644822 0.17873806 -0.018255472 0.12306276
000030 f6 27 84 3c a2 4c 42 3e 53 1e 95 3d fd 86 f9 bc
       0.016132336 0.18974546 0.072811745 -0.030459875
000040 59 80 c8 bd 77 17 9d bd a5 df df bd 30 ec a0 3b
       -0.097901054 -0.07670491 -0.10931329 0.0049109682
000050 7d 5c 2b bd d3 46 15 3e f5 1a 4a bd c5 6f 31 bd
       -0.04183625 0.14577799 -0.049342114 -0.043319482
000060 d4 bf f1 3d d3 ba 83 3e 54 a7 0c bb e4 7d 92 3e
       0.118041664 0.25728473 -0.002146204 0.28611672
000070 00 a6 8e 3a 95 f5 52 3d 87 7b 16 3d 3c 9d 3e 3d
       0.0010883212 0.051503737 0.0367389 0.04653667
000080 c5 09 94 3e 20 a5 42 3c 10 50 6a 3e 51 46 a3 3c
       0.28913704 0.011880189 0.22882104 0.01993099
000090 8b f8 03 be c1 7f 09 be 24 61 4a 3d c4 b7 c2 3d
       -0.1288778 -0.1342764 0.049409047 0.09507707

weight f4 [1, 40]
000000 8e 64 33 bd ea c9 40 3d 28 25 ea be f4 e5 fc 3d
       -0.04379707 0.04706756 -0.45731473 0.123485476
000010 9b 28 8c be ba 3e cc be d4 de ed be ae 07 c9 bd
       -0.2737473 -0.39891607 -0.46459067 -0.09815918
000020 25 6c 09 3d 76 04 0a bf e2 b3 6a be 8d c5 aa be
       0.0335504 -0.53913057 -0.22920182 -0.33353844
000030 1c 9e 6a 3f 40 e5 94 bd c4 d0 4f 3c f8 93 33 3f
       0.91647506 -0.072702885 0.012684051 0.7014766
000040 f2 dd 1a 3f 80 da 56 3c fa ff 4f be d8 b5 67 3c
       0.6049491 0.013113618 -0.20312491 0.014142476
000050 a7 62 e8 3d a5 e7 13 be ea 1a 38 3e 6f c8 c0 3e
       0.113469414 -0.14443834 0.17979017 0.3765292
000060 d6 2b 14 be 2c d5 0f bf d3 89 04 3e 12 b4 f8 be
       -0.14469847 -0.5618465 0.12943201 -0.48574883
000070 e7 78 09 3e 6e 75 2f 3e 79 fd 75 be f3 f2 b2 3f
       0.13425027 0.1713464 -0.24022473 1.3980392
000080 c3 b9 2f bf 83 92 0f be b3 b4 45 bf e5 c3 b3 be
       -0.68642825 -0.14020734 -0.7722885 -0.35110393
000090 6c 35 ec 3d db a8 a8 3e a9 2f 12 be 5f 8e 7f be
       0.11533627 0.32941326 -0.14275993 -0.24956654
