learning/model2/dnn/model_2.pth (torch, 11415 bytes, 5 tensors)

weight f4 [40, 7]
0.3433761 0.18271694 0.00971547 -0.24645615 -0.21811733 0.045646288 0.045595806 -0.16831724
0.35893753 -0.6091935 0.19041315 -0.2502802 -0.29792535 -0.29797524 -0.6287357 0.14034931
-0.62152517 -0.48865932 -0.7050114 0.22380711 0.22400242 -0.3248522 -0.17989053 -0.115278766
-0.3641969 -0.23618369 -0.30909753 -0.28859952 -0.03328781 0.10500945 0.1504445 -0.032961406
0.18661343 -0.31228217 -0.32572868 0.055104833 0.12818545 -0.30446294 -0.20137146 -0.24622424
-0.34520766 0.38440293 -0.25263354 0.29845443 -0.09797527 -0.14418872 0.051197186 0.29563934
-0.12600097 0.07521683 -0.37808612 0.2837236 0.20424262 0.19661489 -0.2747785 0.30645475
0.24110185 0.044453103 0.05316705 0.2603132 0.14000762 -0.122618765 0.28248897 0.052718077
0.22941752 -0.14477089 -0.17793682 -0.3754743 0.3753011 0.37531865 -0.33043405 0.53496933
0.2590911 0.35744044 -0.19294128 -0.29236883 -0.27623996 -0.20173147 0.35835233 -0.19458206
0.4334503 0.20546874 0.11498036 0.29044604 -0.042484432 -0.120182455 0.15995595 0.09916441
0.37297133 -0.32435843 -0.25307247 0.277315 0.3322879 -0.44244367 -0.106023975 -0.10010822
0.012515622 -0.010477402 -0.3117298 -0.19220534 -0.29319638 0.11364914 0.079757795 0.14356045
0.3762509 -0.2727865 -0.25986964 -0.33588493 -0.45401055 0.409487 -0.081550434 -0.160459
-0.6291519 0.12424296 0.44810474 0.3345754 0.22275908 0.27980962 0.21035004 -0.6893486
0.6510943 0.19034067 0.25296637 0.42009988 -0.06369845 0.04767318 -0.4756807 0.6659008
0.30514196 0.20317745 0.16564015 -0.050757013 0.2506863 0.3637223 -0.3673717 0.14713933
-0.1750646 0.2117078 -0.33874542 -0.33825663 1.2166065 -1.0560737 -0.6997104 -0.22585146
-0.14639193 0.14917523 0.12002154 -0.26734793 0.5715914 0.32978633 0.053590972 -0.015542302
0.1802771 -0.12401698 -0.0034832899 0.26803645 -0.19048093 0.18179373 -0.43024862 -0.08337067
0.38257307 0.52672225 0.28127944 0.28734514 -0.12793331 0.26153103 0.30909932 -0.24538136
0.6417955 -0.27202576 0.25891912 0.11442832 0.39428848 0.03795322 -0.048640378 0.48040897
-0.5443082 0.47569552 0.38674307 0.4345002 -0.20981278 -0.052643735 0.4234752 0.36842993
-0.29837605 0.07613578 0.11599975 -0.27108014 -0.2710141 -0.34507555 -0.112831205 -0.121374756
-0.1537068 0.033553068 0.19444071 -0.041944087 0.31488 0.31559116 0.20767424 0.5228016
-0.2882317 -0.041596707 -0.00019120463 0.33150464 -0.11704297 0.30120766 -0.49215698 0.23941338
0.23486912 -0.0047296034 -0.15925643 0.41367936 -0.50091887 -0.34469903 0.23638964 0.22851871
0.13662726 0.23050444 0.20333743 -0.2745781 -0.3690631 0.35116348 -0.31384113 -0.10034888
0.2730474 -0.087215655 0.2508041 0.21254437 -0.572798 -0.004889649 -0.0049349344 -0.19135047
0.12708326 -0.29897684 -0.06423906 0.3072334 0.13362768 -0.31905437 0.49176633 -0.5916305
-0.4488434 0.28456345 0.02114522 -0.20258476 0.2071608 -0.18637134 -0.49019477 0.3273517
-0.21145433 0.36506805 0.20177533 -0.23073173 -0.36595812 0.47744337 0.35570598 -0.17182736
00000000: fece af3e 261a 3b3e a22d 1f3c 005f 7cbe
00000010: 265a 5fbe 9af7 3a3d abc2 3a3d 5b5b 2cbe
00000020: a9c6 b73e 1bf4 1bbf aafb 423e ba24 80be
00000030: ac89 98be 3690 98be d3f4 20bf bbb7 0f3e
00000040: 461c 1fbf 8e31 fabe a17b 34bf b12d 653e
00000050: e460 653e 0753 a6be 3935 38be 4617 ecbd
00000060: 0478 babe 23da 71be 0842 9ebe 51c3 93be
00000070: cc58 08bd 320f d73d 1f0e 1a3e 8a02 07bd
00000080: 9717 3f3e 73e3 9fbe e9c5 a6be 9bb5 613d
00000090: 0c43 033e 91e2 9bbe 5234 4ebe 3522 7cbe
000000a0: 0fbf b0be 76d0 c43e 2f59 81be 05cf 983e
000000b0: 42a7 c8bd 35a6 13be 24b4 513d 0a5e 973e
000000c0: 6606 01be 480b 9a3d 8194 c1be 3844 913e
000000d0: fa24 513e 6a55 493e c4af 8cbe a3e7 9c3e
000000e0: 67e3 763e 7514 363d b1c5 593d c647 853e
000000f0: 285e 0f3e 8c1f fbbd 65a2 903e e9ee 573d
00000100: 6dec 6a3e d23e 14be 1235 36be 2b3e c0be
00000110: 7727 c03e c429 c03e a72e a9be c0f3 083f
00000120: 97a7 843e 6f02 b73e 6692 45be 5eb1 95be
00000130: 536f 8dbe b292 4ebe f579 b73e 8540 47be
00000140: 33ed dd3e 6666 523e d37a eb3d 58b5 943e
00000150: 2804 2ebd 3822 f6bd 7ecb 233e b616 cb3d
00000160: 19f6 be3e 4f12 a6be b792 81be 3bfc 8d3e
00000170: a421 aa3e fa87 e2be 1923 d9bd 8a05 cdbd
00000180: 530e 4d3c 69a9 2bbc 0c9b 9fbe 7ad1 44be
00000190: d61d 96be e1c0 e83d 0e58 a33d 8301 133e
000001a0: f5a3 c03e acaa 8bbe a20d 85be 1cf9 abbe
000001b0: 1274 e8be 48a8 d13e ea03 a7bd 5d4f 24be
000001c0: 1910 21bf 1873 fe3d fc6d e53e 784d ab3e
000001d0: f51a 643e 3543 8f3e 0066 573e 2679 30bf
000001e0: 1eae 263f aae8 423e cf84 813e 5517 d73e
000001f0: 5574 82bd f444 433d 6c8c f3be 7a78 2a3f
00000200: 913b 9c3e c00d 503e 929d 293e 96e6 4fbd
00000210: f459 803e cf39 ba3e 2518 bcbe b1ab 163e
00000220: 2244 33be eec9 583e 0a70 adbe f92f adbe
00000230: c3b9 9b3f 6c2d 87bf 3920 33bf 9b45 67be
00000240: c4e7 15be 64c1 183e dacd f53d d4e1 88be
00000250: d053 123f c1d9 a83e 3582 5b3d 24a5 7ebc
00000260: 8f9a 383e 9dfc fdbd e847 64bb 133c 893e
00000270: 6f0d 43be 2328 3a3e 8c49 dcbe 3ebe aabd
00000280: 9ee0 c33e 45d7 063f dc03 903e e71e 933e
00000290: f300 03be 65e7 853e 4442 9e3e 4045 7bbe
000002a0: b64c 243f f646 8bbe 0c91 843e 6559 ea3d
000002b0: 2ee0 c93e d674 1b3d 223b 47bd 2af8 f53e
000002c0: c857 0bbf 5d8e f33e 3003 c63e cf76 de3e
000002d0: 29d9 56be f5a0 57bd bed1 d83e d9a2 bc3e
000002e0: bfc4 98be 13ed 9b3d 4791 ed3d 04cb 8abe
000002f0: 5cc2 8abe bead b0be 0c14 e7bd 5493 f8bd
00000300: 5165 1dbe f16e 093d 771b 473e 90cd 2bbd
00000310: f437 a13e 2a95 a13e 8ea8 543e 53d6 053f
00000320: 1b93 93be 4f61 2abd 1a7e 48b9 faba a93e
00000330: 3ab4 efbd e437 9a3e 00fc fbbe c828 753e
00000340: 8881 703e cafa 9abb 1e14 23be c8cd d33e
00000350: 383c 00bf 647c b0be 2010 723e cf00 6a3e
00000360: 04e8 0b3e 5b09 6c3e b037 503e 8095 8cbe
00000370: d7f5 bcbe b3cb b33e c9af a0be b783 cdbd
00000380: decc 8b3e 1f9e b2bd 6569 803e 3ba5 593e
00000390: e4a2 12bf 5939 a0bb 3bb5 a1bb 61f1 43be
000003a0: 1d22 023e 7e13 99be c58f 83bd b24d 9d3e
000003b0: b2d5 083e 185b a3be ccc8 fb3e 1975 17bf
000003c0: cdce e5be 4db2 913e be38 ad3c 6172 4fbe
000003d0: f621 543e 21d8 3ebe cffa fabe a49a a73e
000003e0: 7c87 58be 33ea ba3e 319e 4e3e f044 6cbe
000003f0: dd5e bbbe 7573 f43e 181f b63e 83f3 2fbe

bias f4 [40]
-0.35368556 0.35773113 0.9686181 0.11456483 -0.29893968 0.40811038 0.42688885 0.09894961
-0.24519268 -0.2822018 0.2646435 -0.10739642 0.114099905 0.2262783 -0.10827842 0.20486023
0.071679845 -0.22117344 0.23320909 -0.20845182 0.6581068 -0.32057235 0.33156177 -0.19745725
0.2240943 -0.31799227 0.124755986 -0.19014019 -0.19338916 -0.3132326 0.48949254 -0.3353452
-0.15860634 -0.37662134 0.07856729 0.07691358 0.13438879 0.18706648 -0.024551107 -0.1898792
00000000: 4616 b5be 8928 b73e 5bf7 773f f7a0 ea3d
00000010: 9f0e 99be d8f3 d03e 2d91 da3e 18a6 ca3d
00000020: ca13 7bbe c17c 90be 5a7f 873e a7f2 dbbd
00000030: 36ad e93d 80b5 673e 14c1 ddbd e1c6 513e
00000040: e2cc 923d 4a7b 62be 5dce 6e3e 6574 55be
00000050: b079 283f 0f22 a4be 77c2 a93e 3c32 4abe
00000060: fa78 653e e2cf a2be 1180 ff3d 1cb4 42be
00000070: cf07 46be 0660 a0be c49e fa3e 5eb2 abbe
00000080: b369 22be 83d4 c0be e3e7 a03d de84 9d3d
00000090: 379d 093e 5b8e 3f3e 671f c9bc b16f 42be

weight f4 [40, 40]
-0.08573441 0.15083608 -0.043176703 0.039988533 0.04896018 -0.052865922 -0.041166868 0.0011940341
-0.11279047 0.1217915 0.017057778 -0.1575015 0.09378482 0.028429873 0.08202852 0.12843533
-0.08572561 -0.09293413 -0.09227109 -0.054544315 -0.005089434 0.077099174 0.14742571 -0.038853124
-0.083828874 -0.028049946 -0.0978677 -0.098398775 0.06524577 -0.108680636 -0.10488585 -0.13369136
-0.14141671 -0.001840815 -0.12136315 -0.13141261 -0.050042905 0.15584649 0.119442716 -0.102845155
0.004126847 0.09646346 -0.08356034 -0.040749505 0.01943013 -0.052217133 -0.1380089 0.048633114
-0.12041702 0.124969974 0.07920841 0.0023578852 0.104709595 0.006797597 -0.02431731 0.008329272
0.014567507 -0.11985562 -0.14771524 0.12607877 -0.10170973 -0.06734587 0.11600634 -0.08414285
-0.0125749195 -0.12907709 -0.14029059 -0.10908206 -0.061215166 -0.073382676 -0.08977973 -0.018210262
0.024050795 -0.085038275 0.14360698 0.1261662 0.07857708 -0.03327743 0.06794043 -0.07730927
1.6150489e-05 -0.14141457 -0.24437332 0.100251295 0.036671918 -0.13978785 0.14599137 -0.016063122
-0.07208714 0.056492105 0.15530466 0.10575771 0.11384071 -0.13734499 0.0124861635 0.047258995
-0.02763369 0.18277815 0.26194632 -0.07274514 0.31679493 0.19963527 0.044600584 0.056169912
-0.04513452 -0.047158707 -0.17320397 -0.015459293 -0.1924775 0.011413876 0.17842717 -0.013513967
0.061468486 0.051097855 0.20818503 -0.021241039 0.0015062967 0.09531246 0.049234044 0.03985128
0.041118268 0.13150947 0.10778932 -0.011797657 0.01834612 -0.009585646 0.035183895 -0.04389355
-0.17634326 0.050767597 0.05901731 -0.2146568 0.10326617 0.09284016 0.15902084 0.15324081
0.16667974 -0.23408481 0.024619028 -0.13888617 0.015366898 -0.109013304 0.021980967 -0.275468
-0.095510356 0.07765984 -0.13684826 0.12424171 -0.07713072 0.018366262 0.074389756 0.04710989
-0.06778366 -0.085017495 -0.16127211 0.15327384 0.10358239 0.07122742 0.107024565 0.17953674
-0.06218422 0.013218071 -0.021170426 -0.10889023 0.13613772 -0.0023470456 0.0025294658 0.20944254
0.111670114 0.0059503545 0.07058201 -0.06325044 0.17967658 -0.10974551 -0.16397612 -0.0622592
0.2430735 -0.1052236 -0.14394964 0.016525082 -0.08481507 -0.10558325 -0.08663746 -0.09716797
0.17309108 0.30106533 -0.066401295 0.00813055 0.12653312 0.17724667 -0.13367674 -0.022850176
-0.13605116 -0.13374239 -0.107448176 0.046065368 -0.011714618 -0.098255254 -0.026090447 0.12606795
-0.10637068 0.08803974 -0.12641844 0.09073141 -0.07162535 -0.15723492 0.019573832 -0.06317626
0.04877331 0.0008407466 0.13353719 -0.13565306 -0.047968917 -0.03035997 0.04689524 0.060308564
0.056297097 0.12488068 0.07686918 0.08798711 0.15158868 -0.05200386 -0.09851159 0.11104839
-0.15110743 -0.09675849 0.031072143 -0.11108168 0.15139766 0.032471344 -0.17778721 0.118379764
-0.042103946 0.065331794 -0.06553606 -0.08487636 0.18134843 -0.050219167 -0.14690943 -0.011095859
0.14401424 0.09631205 -0.08341957 -0.030036062 0.15308213 0.028776554 -0.14985617 -0.02432193
0.17653334 0.13265552 -0.02996579 0.10704873 0.07545216 0.079178415 0.06880235 -0.0068653473
00000000: 8695 afbd c674 1a3e 0eda 30bd 04cb 233d
00000010: 788a 483d f089 58bd 979e 28bd 2381 9c3a
00000020: b1fe e6bd d26d f93d c1bc 8b3c 1348 21be
00000030: 4112 c03d c4e5 e83c 92fe a73d 8d84 033e
00000040: e990 afbd 4054 bebd a0f8 bcbd dc69 5fbd
00000050: 44c5 a6bb 2ce6 9d3d c4f6 163e 7424 1fbd
00000060: 79ae abbd 00c9 e5bc dc6e c8bd 4c85 c9bd
00000070: 939f 853d f493 debd 64ce d6bd 63e6 08be
00000080: 8bcf 10be 8047 f1ba 3e8d f8bd 0791 06be
00000090: caf9 4cbd 3996 1f3e 629e f43d 7ba0 d2bd
000000a0: 803a 873b a28e c53d af21 abbd f4e8 26bd
000000b0: f02b 9f3c a2e1 55bd 3552 0dbe 8433 473d
000000c0: 339d f6bd 42f0 ff3d 0538 a23d c086 1a3b
000000d0: fc71 d63d 60be de3b 1835 c7bc 8077 083c
000000e0: 8eac 6e3c dd76 f5bd aa42 17be cb1a 013e
000000f0: 314d d0bd a2ec 89bd bb94 ed3d 1653 acbd
00000100: 0907 4ebc c92c 04be 56a8 0fbe 6a66 dfbd
00000110: c1bc 7abd a849 96bd 6fde b7bd b02d 95bc
00000120: 2c06 c53c 8c28 aebd b50d 133e b631 013e
00000130: 05ed a03d ea4d 08bd 5a24 8b3d 5354 9ebd
00000140: e97a 8737 fbce 10be 003d 7abe 8d50 cd3d
00000150: 4b35 163d 8c24 0fbe c37e 153e cf96 83bc
00000160: 6ca2 93bd 4464 673d 2f08 1f3e 8097 d83d
00000170: 5125 e93d 2aa4 0cbe c492 4c3c a692 413d
00000180: 0c60 e2bc 322a 3b3e d41d 863e 67fb 94bd
00000190: f232 a23e 306d 4c3e 1aaf 363d 6c12 663d
000001a0: f9de 38bd 7d29 41bd 625c 31be f948 7dbc
000001b0: d218 45be 4401 3b3c 9db5 363e b069 5dbc
000001c0: 61c6 7b3d fc4b 513d 752e 553e b001 aebc
000001d0: ee6e c53a 2e33 c33d a3a9 493d 193b 233d
000001e0: a16b 283d 6baa 063e a6c0 dc3d f64a 41bc
000001f0: 9a4a 963c 1d0d 1dbc fd1c 103d b9c9 33bd
00000200: 5493 34be aff1 4f3d 23bc 713d fece 5bbe
00000210: 377d d33d fb22 be3d 5cd6 223e 29eb 1c3e
00000220: 18ae 2a3e eeb3 6fbe d8ad c93c 2d38 0ebe
00000230: 71c5 7b3c 5e42 dfbd 6e11 b43c 240a 8dbe
00000240: ef9a c3bd 1f0c 9f3d f321 0cbe 7072 fe3d
00000250: b6f6 9dbd d874 963c a859 983d 4df6 403d
00000260: 29d2 8abd a71d aebd 8424 25be d1f3 1c3e
00000270: 0123 d43d aedf 913d b22f db3d 7bd8 373e
00000280: e1b4 7ebd 9c90 583c 9a6d adbc d701 dfbd
00000290: b067 0b3e e4d0 19bb 65c5 253b 1b78 563e
000002a0: 4db3 e43d 31fb c23b 4d8d 903d 7289 81bd
000002b0: 23fd 373e 41c2 e0bd 5be9 27be 8103 7fbd
000002c0: 42e8 783e 797f d7bd 8967 13be 9c5f 873c
000002d0: 86b3 adbd 083c d8bd fb6e b1bd 0000 c7bd
000002e0: ca3e 313e 3c25 9a3e 67fd 87bd 0036 053c
000002f0: e691 013e 2780 353e 8ee2 08be 4b30 bbbc
00000300: ff50 0bbe c4f3 08be ca0d dcbd 0aaf 3c3d
00000310: abee 3fbc 0d3a c9bd a2bb d5bc f517 013e
00000320: dfd8 d9bd 2e4e b43d d673 01be 64d1 b93d
00000330: 50b0 92bd 3102 21be 4d59 a03c 8e62 81bd
00000340: 86c6 473d 8d65 5c3a f9bd 083e a3e8 0abe
00000350: 0e7b 44bd 79b5 f8bc 3915 403d 1d06 773d
00000360: c997 663d 71c1 ff3d 976d 9d3d 9632 b43d
00000370: 103a 1b3e 0002 55bd 72c0 c9bd 576d e33d
00000380: e8bb 1abe 5129 c6bd 028b fe3c cb7e e3bd
00000390: fd07 1b3e ac00 053d da0d 36be 1771 f23d
000003a0: 3075 2cbd adcc 853d c537 86bd a8d3 adbd
000003b0: 67b3 393e 9db2 4dbd 6d6f 16be 68cb 35bc
000003c0: 7878 133e 413f c53d e1d7 aabd 300e f6bc
000003d0: 90c1 1c3e cfbc eb3c e573 19be c93e c7bc
000003e0: 28c5 343e d9d6 073e d17a f5bc 5d3c db3d
000003f0: a986 9a3d 4b28 a23d 3fe8 8c3d b5f6 e0bb

bias f4 [40]
-0.028239723 -0.015109665 -0.06251157 0.17208283 -0.083612785 0.11490585 -0.059240453 0.11207757
-0.15140899 -0.1533721 0.41991475 0.09035001 0.1474823 -0.058918923 -0.011530267 0.13028367
0.039773 0.07479627 0.2747855 -0.100152515 -0.08453462 -0.1504535 0.15817237 -0.04280187
-0.111416236 0.14722283 0.33214873 -0.024797931 -0.08392706 0.38640752 -0.15086718 0.08773826
0.3517599 -0.009447684 0.541106 -0.09085687 -0.11432402 0.073298156 0.39989087 0.09578633
00000000: fe56 e7bc 878e 77bc 1106 80bd 7b36 303e
00000010: 2e3d abbd c253 eb3d 1ea6 72bd ed88 e53d
00000020: f50a 1bbe 930d 1dbe 11ff d63e 6d09 b93d
00000030: 9a05 173e f854 71bd 72e9 3cbc 1569 053e
00000040: 03e9 223d c92e 993d afb0 8c3e c31c cdbd
00000050: 7d20 adbd 7b10 1abe f0f7 213e 0351 2fbd
00000060: 322e e4bd 95c1 163e 660f aa3e 0825 cbbc
00000070: f3e1 abbd 35d7 c53e ed7c 1abe 1eb0 b33d
00000080: e019 b43e 75ca 1abc ec85 0a3f 2b13 babd
00000090: b622 eabd 581d 963d 7fbe cc3e a02b c43d

weight f4 [1, 40]
0.12127128 0.06928849 0.5808933 -0.48685485 -0.5353233 0.29321963 -0.16295373 0.47325325
0.057866342 -0.09416629 -1.2685109 0.80688125 -0.19986555 0.015421118 0.63513446 0.22287722
-0.28195065 0.30815324 0.9183796 0.043860674 0.50972253 0.0990909 -0.5723282 -0.4238331
0.19512726 -0.3758369 -0.89014614 0.08473754 -0.26692355 1.1811982 0.025329754 -0.40423915
-1.4648697 0.13541165 1.5695436 0.46903113 -0.12305081 -0.061861873 -1.2116536 0.061502695
00000000: 145d f83d 20e7 8d3d 6cb5 143f 0a45 f9be
00000010: f30a 09bf e220 963e 58dd 26be 404e f23e
00000020: 4205 6d3d 41da c0bd 915e a2bf c58f 4e3f
00000030: 8ea9 4cbe dba8 7c3c 2c98 223f ed39 643e
00000040: d65b 90be 43c6 9d3e ed1a 6b3f 40a7 333d
00000050: 2d7d 023f 2bf0 ca3d 1a84 12bf a700 d9be
00000060: 71cf 473e b26d c0be 9ee0 63bf e08a ad3d
00000070: 34aa 88be 8131 973f 5880 cf3c 6ff8 cebe
00000080: da80 bbbf 5aa9 0a3e cee6 c83f d924 f03e
00000090: 1002 fcbd e062 7dbd 7717 9bbf 40ea 7b3d
