learning/model2/dnn/model_1.pth (torch, 11415 bytes, 5 tensors)

weight f4 [40, 7]
000000 12 af 79 3e 30 b5 3f be 7f b8 0c 3b 5b 63 75 be
       0.2438319 -0.18721461 0.0021472273 -0.23963682
000010 53 f9 0c be 75 9d a0 bd cd f0 21 3e 96 65 00 3f
       -0.13766985 -0.078425325 0.15814514 0.5015501
000020 dd ad 21 3f 67 c2 7c be 4a f7 fd bc d5 00 cc bd
       0.6315592 -0.24683534 -0.031001706 -0.09961096
000030 dc 39 b7 bd 9b ea 6f 3d e7 fc 68 3e e0 03 5e 3e
       -0.08946583 0.058573347 0.22752725 0.21681166
000040 05 86 9e 3c 37 e1 3b be fa 14 be be 12 48 94 3e
       0.019351015 -0.18347631 -0.3712538 0.28961235
000050 50 20 0a 3e f9 2b b6 3e 1a d1 01 3d 4b 2a d3 bd
       0.13488889 0.35580423 0.031693555 -0.10310801
000060 ea ba a1 bd 1d 4c 87 be cc b5 54 be 78 0d 98 be
       -0.07896979 -0.26425257 -0.20772475 -0.29697776
000070 ba 80 67 be 66 9c ae 3e 6f 6b a2 be 8b 5a b2 bc
       -0.22607699 0.34103698 -0.3172259 -0.02177169
000080 3f 58 01 bf 9c d3 24 3e d8 10 45 3e 81 8a b2 3e
       -0.5052528 0.16096348 0.19244707 0.34871295
000090 70 48 98 be 25 ac ab 3e 8a 0f a7 3e f4 bc 8f 3e
       -0.29742765 0.33529773 0.32629043 0.28073847
0000a0 9c 0c 49 be 8e 2e 85 be 34 93 8e be 99 bb 35 3c
       -0.19633716 -0.2601208 -0.27846682 0.01109209
0000b0 92 a0 c4 3d f3 d2 87 be f8 1a b0 3e c5 ea 9c be
       0.09600939 -0.2652813 0.34395576 -0.30647865
0000c0 79 b3 92 3c 6f d1 32 3f a3 4c 18 bf 45 6c bf be
       0.017907845 0.6985082 -0.5949194 -0.3738729
0000d0 2f 9d 48 bc a8 ff be 3c 55 2b 0c bc b2 ce cb 3c
       -0.012244507 0.023315266 -0.008555253 0.024878833
0000e0 6c ca 8d be 2c e9 60 3e f9 04 1a be 16 fb 8a 3e
       -0.27693498 0.21963948 -0.1504096 0.27144688
0000f0 d7 99 8c be 1c 1e bc bd e8 ef 55 3e cf 10 0d 3f
       -0.2746112 -0.091854304 0.20892298 0.5510377
000100 97 f2 9f be 0e 74 15 be 7f 3e ed bd 91 ee 28 3e
       -0.3123977 -0.14595053 -0.11584186 0.16497256
000110 3e 16 88 3e f5 20 b3 bd 5d a5 15 bf 89 80 fc be
       0.2657947 -0.087465204 -0.5845545 -0.49316815
000120 be 16 67 bd 79 61 12 be 6e 69 95 bd de 93 db 3d
       -0.056418173 -0.14294995 -0.072955 0.10721563
000130 35 85 07 3e ef 85 33 3d 69 cf 45 3e 75 ff 88 bd
       0.13234408 0.0438289 0.19317402 -0.066893496
000140 cf bd b9 be d3 c5 8c bb b6 bf 5f be 8c c3 55 be
       -0.36277625 -0.0042960434 -0.21850476 -0.20875376
000150 47 a9 26 3f db 5a 0f bf a5 a4 b0 be bc 8c 3a bd
       0.65102047 -0.5599801 -0.34500614 -0.04554437
000160 4f 1c 8e 3d 49 3e 52 bc 4f 31 d0 3d 64 d5 36 3e
       0.06938993 -0.012832233 0.10165655 0.1785484
000170 12 03 b5 3e a1 16 b2 be 64 ff 49 be 79 68 d1 3b
       0.35353905 -0.3478289 -0.1972633 0.006390628
000180 23 8a 47 be d9 fe c1 3c c0 a8 42 3e 3f 1d f8 bd
       -0.19486289 0.023681091 0.19009686 -0.12114953
000190 68 e5 92 3d 40 0c 99 3e a3 1f b3 be c8 fb b5 3e
       0.07172662 0.29892159 -0.34985074 0.35543656
0001a0 74 97 b7 bd 0f 15 9f be d6 30 22 be 9b 8f 44 3d
       -0.08964434 -0.31070754 -0.15838942 0.047988515
0001b0 a0 2a 64 bd 67 96 37 bd 33 31 28 be 1a a1 18 3e
       -0.055704713 -0.04482117 -0.16425018 0.14905205
0001c0 df 1c b3 be 0c 2a 0d be 4a 2c da 3e 81 fc 8c 3e
       -0.34982964 -0.13785571 0.42611915 0.27536395
0001d0 0b 3d 57 be 27 cf 67 3d ba 98 b1 3e 6c 8f e8 bd
       -0.2101938 0.05659404 0.34686834 -0.113554806
0001e0 86 2c a9 3e 68 47 91 be 84 c2 4a 3e 1b dd d2 be
       0.3304178 -0.2837479 0.19800764 -0.41184315
0001f0 ad 9b 24 be ab a3 24 be fd 02 77 be b4 59 5c bd
       -0.1607501 -0.1607806 -0.24122234 -0.053796485
000200 e9 87 72 3d 69 fc 6e 3e d3 25 35 3e c5 93 fe bd
       0.059211645 0.23338474 0.1769021 -0.124305286
000210 24 89 9c bd 37 0b 08 3e 78 4f da 3d 31 58 5b 3c
       -0.07643345 0.13285528 0.10659689 0.013387726
000220 4b 2b 9c 3e d8 ca d9 bd 59 09 a2 be eb 8e b3 3e
       0.3050178 -0.106343925 -0.31647757 0.35069975
000230 28 72 a7 bd 56 82 f7 3e 27 d0 14 bf cd b4 79 3e
       -0.081760705 0.48341626 -0.58130115 0.24385376
000240 92 90 14 be 11 d7 21 3e d2 94 dc b8 44 fc 9b 3e
       -0.14508274 0.15804698 -0.000105181374 0.304659
000250 75 cc d8 3e 30 0e 0f 3e 98 0d 80 3c b4 3d a9 3e
       0.42343488 0.13970256 0.015631482 0.33054888
000260 9c 1f cd bb d7 3a 2c be 3e 34 00 3f 13 b0 f4 be
       -0.0062598716 -0.1681932 0.50079715 -0.47790584
000270 51 f6 8f be 3c 06 98 bd 03 d5 0e be 44 7a 26 be
       -0.28117612 -0.07423064 -0.13948445 -0.16257578
000280 03 b8 4a 3e e3 fe 92 be e9 2d 8f 3e b4 e4 bb 3e
       0.19796757 -0.28710088 0.27964714 0.36697924
000290 29 dd 92 bd 60 ab 17 3e 3d 0e d4 bd be 38 bf 3d
       -0.07171089 0.14811468 -0.10354278 0.093369946
0002a0 fe 0e c0 3d d9 09 9a 3e 4c 6d bb bd a8 65 66 3e
       0.093778595 0.30085638 -0.09151706 0.22499716
0002b0 7f c2 23 bd a4 86 22 3e e0 b3 58 3e 10 36 9d be
       -0.039980408 0.15871674 0.21162367 -0.3070531
0002c0 fd b1 53 3e 9d aa 7b be 29 bd 66 3e 91 77 9a bd
       0.20673366 -0.24576803 0.22533096 -0.07542337
0002d0 84 ad 8b 3e f5 d3 a9 3e ba 65 e2 be 81 f7 d1 3e
       0.2728082 0.33169523 -0.44218236 0.41009143
0002e0 ef 13 fb 3e db d9 5c 3e f4 b5 65 be 75 02 4f be
       0.49038646 0.2156748 -0.22432691 -0.20215781
0002f0 7c 2f bc bd ec 3d 10 3e 1e 97 6b be 00 23 e0 3d
       -0.091887444 0.14086121 -0.23006865 0.10944176
000300 f7 ca b4 3d 80 ba f9 bd b2 92 99 be aa 4b 63 be
       0.08827775 -0.12193775 -0.29994732 -0.22196832
000310 92 c2 a8 be 2f 79 6c be f8 fe 5c 3d f3 2e 9e bd
       -0.32960945 -0.23093103 0.053954095 -0.077237986
000320 99 0a 0b be ed ad 96 bd 4e 31 94 bd c2 35 56 3e
       -0.13578261 -0.073573925 -0.072359666 0.20918944
000330 ba a9 c9 3d e5 29 a3 be 8d 8d 8e 3d 73 7d 90 3e
       0.09846826 -0.318679 0.069605924 0.2822071
000340 66 8f 96 3e 7b 8a 86 be 98 da ba 3e 84 ea e3 bd
       0.2940628 -0.26277527 0.364949 -0.11128715
000350 67 78 a4 3d 14 4e 87 3e 2b 83 bb 3d 52 e8 86 3e
       0.080307774 0.26426756 0.09155878 0.2634912
000360 66 36 c1 3e ac 4f bc 3e ab c7 0b 3f 01 d0 32 3e
       0.37736815 0.36779535 0.54601544 0.1746216
000370 b5 61 44 3e 85 0f 2c 38 60 f3 ab 3d d4 4c 15 3e
       0.19177897 4.102245e-05 0.083960295 0.14580089
000380 20 5b 80 3e 57 9b 99 3e e3 bf c2 3d 16 77 1e 3e
       0.25069523 0.30001327 0.09509256 0.15475115
000390 12 70 53 be 1d ce 6b 3e 3e 27 62 3b 4a 1e 41 3d
       -0.2064822 0.23027845 0.0034508253 0.047148027
0003a0 c3 8e 8c bd d8 be 33 be 1b b9 b8 3e 2a 1d 77 3d
       -0.06863167 -0.1755327 0.36078724 0.060330547
0003b0 3f a7 e4 3c a3 f2 e3 3d c4 9c 8d 3c 14 8d 88 3e
       0.02791178 0.11130264 0.017286666 0.26670134
0003c0 82 c8 7e be 84 a6 da bd a0 9b 61 bd e3 42 44 3e
       -0.24881175 -0.106762916 -0.055080056 0.1916614
0003d0 0f 3f 70 3e b8 41 a4 3e d3 6f 44 3e f0 99 80 be
       0.23461555 0.3208139 0.19183283 -0.25117445
0003e0 51 07 28 be 42 fa ac be bd 00 44 be 8b c9 90 3e
       -0.16409041 -0.33784682 -0.19140907 0.28278765
0003f0 59 fd 38 3e e9 24 da 3e 09 e2 84 be d0 01 1a bb
       0.18065394 0.42606285 -0.259537 -0.0023499615

bias f4 [40]
000000 16 b5 af 3d df b4 82 be b3 0a 2c be 5d 95 20 be
       0.08579461 -0.2552862 -0.16800956 -0.15681978
000010 78 60 6a 3e 1f 90 57 3e f9 4b 63 be ec 31 7b 3e
       0.22888362 0.21051072 -0.2219695 0.24530762
000020 ab d0 d8 3e 72 65 2e be ba 1a 0f 3f ac fd 28 3e
       0.423467 -0.17030886 0.55900156 0.16503018
000030 08 db 1b 3e e9 4e b9 3e 02 84 86 bd 41 b4 a2 3e
       0.15220273 0.36193016 -0.06568147 0.31778148
000040 7d c8 83 3d e9 f2 b5 3e 8f 0e af bb 88 78 9b 3e
       0.064347245 0.35536888 -0.0053423117 0.30365396
000050 af 7c 83 be a0 83 ac 3e dd ad 42 3e 26 eb a4 3e
       -0.25681064 0.33694172 0.19011636 0.32210654
000060 86 81 bd 3e 8a ac 39 3e 5a e4 30 bc 66 00 6e be
       0.3701288 0.18132225 -0.010796631 -0.2324234
000070 1d 57 c6 3e 32 e3 19 be 5a 01 9b be 21 3c 02 be
       0.38738337 -0.15028074 -0.3027447 -0.1271825
000080 96 34 b2 be 6c e2 6b bd 5b 71 27 be 30 47 ac bd
       -0.34805745 -0.05758898 -0.16351835 -0.084120154
000090 35 13 28 be 45 d5 a5 be 6d 32 48 3e 4d 61 c9 3e
       -0.16413577 -0.32389274 0.19550486 0.39332047

weight f4 [40, 40]
000000 4e 8b 3f bd 25 78 02 be 2c b6 03 be 0a de 0f be
       -0.04676371 -0.12741144 -0.12862462 -0.14049545
000010 de 48 9a bd a0 76 78 3c ab ea 85 bd 0c d6 cb bd
       -0.075334296 0.015165001 -0.065389 -0.099529356
000020 60 98 74 bd 40 20 1f bb 71 3a 99 bd 7a 04 be bd
       -0.05971563 -0.0024280697 -0.0748185 -0.092781976
000030 52 ba fe 3d aa 11 f5 3d cd 64 0b be d8 9a ce 3c
       0.124378815 0.1196626 -0.13612671 0.02522032
000040 f1 66 1a 3e 18 83 f3 bc f6 08 ed 3d 63 88 d2 bd
       0.15078332 -0.029725596 0.11573975 -0.1027992
000050 92 b5 44 bd ae 3d 00 be d0 9c d2 bd ed e6 e3 bd
       -0.04802472 -0.12523529 -0.10283816 -0.1112803
000060 46 02 b9 3d 76 67 6a bd ee 77 37 bd 4c 46 34 bd
       0.09033637 -0.057227574 -0.04479211 -0.044012353
000070 14 73 99 bd be 4f cc 3d 92 37 c3 3d e0 40 48 3d
       -0.074926525 0.09976147 0.095320836 0.048889995
000080 a0 10 d0 3b 32 38 d0 3d 7e e3 0a be a0 60 4e 3d
       0.006349638 0.101669684 -0.13563344 0.050385118
000090 1a 7a 9f 3d 40 cd ea 3b 70 9c c2 bd ce 57 87 3d
       0.07786961 0.007165581 -0.09502494 0.06608544
0000a0 30 99 97 3d 7f af 67 3e e8 63 36 3e 0f 9c 9b 3d
       0.07402265 0.2262554 0.17811549 0.07598125
0000b0 af 84 b3 3d f3 7a e9 3d 12 bb ce bb fa 03 86 bd
       0.08765542 0.11400404 -0.0063089216 -0.06543727
0000c0 a3 16 8c 3c 8b 77 88 bc d4 c6 30 3e ac 3e 52 3c
       0.017100638 -0.016658565 0.17263347 0.012832325
0000d0 5b 42 58 be db a8 1b 3e 3a 70 1d be e5 9a 25 3e
       -0.21119063 0.15201132 -0.15374842 0.16172369
0000e0 13 04 00 3e 26 bb 3b bc 5c ff f4 bd 60 ef 75 3d
       0.12501554 -0.011458194 -0.119627684 0.06004274
0000f0 f2 b9 27 bd c5 5e f1 bc 75 c6 8f 3d 3b 85 87 3d
       -0.040948816 -0.029464135 0.070202745 0.066172086
000100 79 f3 41 3d b5 b9 eb bd 56 48 6f be 58 0a 71 bc
       0.047351334 -0.1151003 -0.23367438 -0.014711939
000110 68 5a b3 bc 9d e5 da bd a0 64 9d 3d cf cf 47 bd
       -0.021893695 -0.106883265 0.07685208 -0.048782166
000120 7a e3 ce 3d e0 be 24 3e b1 7a 00 be b4 39 ac 3b
       0.101019815 0.16088438 -0.12546803 0.005255902
000130 09 23 90 3d d8 2c 09 bd 33 1e 05 be 84 71 20 3d
       0.070379324 -0.033490032 -0.12999801 0.039170757
000140 28 f8 42 3e 76 a1 43 be d1 b2 14 be 25 44 14 3e
       0.19039977 -0.19104561 -0.14521338 0.1447912
000150 42 7d 0b be 69 44 0d 3e 95 9b aa 3d b3 c6 49 3e
       -0.13622001 0.13795628 0.08330456 0.19704704
000160 42 ae c9 bb 8e 51 5a 3e 99 ca 7e be dc ae 94 3d
       -0.0061548064 0.21320173 -0.24881972 0.07259914
000170 fb 2b f8 3c 2e 87 73 bd 80 34 0e bd 92 0c ce 3d
       0.030294409 -0.05945509 -0.034718037 0.10060991
000180 ed 28 67 3d 86 12 06 be 33 be ee 3c 57 5d 23 3d
       0.056435514 -0.13093004 0.029143428 0.039883938
000190 c9 a0 ec bd d8 a7 78 3e f5 75 51 3e be 81 eb 3d
       -0.11554105 0.24282777 0.20455153 0.11499356
0001a0 8a b3 c2 3c a7 aa b2 3d 9e 41 78 3e bc bb f0 3d
       0.023767252 0.087239556 0.24243781 0.117545575
0001b0 13 2d 9e bd 1a 8b 76 bc 4a 32 c3 bd df 85 7c 3e
       -0.07723441 -0.015047813 -0.09531076 0.24660443
0001c0 a9 5a f9 bd 0d 4b 81 bd a8 2b cf 3d c4 0b a8 bd
       -0.12175495 -0.06313143 0.10115749 -0.08205369
0001d0 99 0c f4 3d 59 bd fb bd 12 bb 5e bd 03 48 2e 3e
       0.11916465 -0.122919746 -0.054377623 0.17019658
0001e0 6a 82 ee bd 3d fb 9c bc 20 2f 0d be 8c f9 01 3e
       -0.11645968 -0.019162768 -0.13787508 0.12692851
0001f0 10 ed e9 bd dc 69 d5 bd a0 cc d2 3b 2c 4b 5a bc
       -0.11422169 -0.10420582 0.0064330846 -0.013323586
000200 a2 59 ad bc 0f 71 ba 3d 63 d1 61 bc de 3b 5c bd
       -0.021160904 0.091035955 -0.013782832 -0.05376803
000210 bd 0f b5 3d 52 72 08 3e 27 c5 4a 3d aa 69 cc bd
       0.088408925 0.1332486 0.049504425 -0.09981091
000220 3a 5f db bd 82 b5 18 3e 70 8a 01 bd a3 e2 89 bd
       -0.107115224 0.1491299 -0.031626165 -0.06732681
000230 60 ba aa 3d fc f3 0b 3e c5 c4 16 3d eb 85 c6 bd
       0.083363295 0.13667291 0.036808748 -0.096935116
000240 53 6f 97 3c 12 78 e5 bd 68 0e 30 3d dd 4b 87 bd
       0.0184857 -0.11204542 0.04298249 -0.06606267
000250 30 8a 1b 3e 4a e0 25 bd 8f 61 13 be 80 d0 18 be
       0.15189433 -0.0404971 -0.14392684 -0.14923286
000260 9e 52 bb bd d4 a2 c4 bd 6e 84 db bd f0 63 0b 3e
       -0.09146617 -0.096013695 -0.10718618 0.13612342
000270 43 6a 54 3d 00 84 9a 39 60 94 ad 3d 91 75 02 be
       0.05185915 0.00029471517 0.08475566 -0.1274016
000280 42 28 8d 3d 6a 31 45 3e aa 76 e0 bd 55 06 16 3e
       0.06892444 0.19257131 -0.109601334 0.14650853
000290 98 fa af 3c 3d ac 23 3e 0d 05 d0 3d eb 7a cf bd
       0.021481797 0.15983672 0.10157213 -0.101308666
0002a0 98 52 50 bd 3b 83 12 3d 91 46 0c 3e 75 1a cd bd
       -0.050860018 0.035769682 0.13698794 -0.10014812
0002b0 b3 23 f7 3c b2 c8 4a bc 0d 60 d2 bd d8 4b 09 3e
       0.03016839 -0.012376951 -0.102722265 0.13407838
0002c0 e5 e8 1b 3e f8 d1 13 be 00 6f 49 bd 20 fc 39 3d
       0.15225561 -0.14435565 -0.049178123 0.04540646
0002d0 e5 04 27 3d e5 a1 96 bd 1a 38 95 bc cb 4d b5 3d
       0.040776152 -0.07355098 -0.018215228 0.088527285
0002e0 58 dd 8c bd ff 79 b6 bd e5 9b 58 bc e9 df 4d 3d
       -0.068781555 -0.08909988 -0.013220762 0.050262365
0002f0 13 41 08 3e ea e1 77 3d 84 a5 a6 3d a1 5e b5 3b
       0.13306074 0.060518183 0.08137038 0.0055349623
000300 9a c9 2c 3e fb b4 7d 3d bb 7c 05 3e b4 76 80 bd
       0.1687378 0.061940175 0.13035862 -0.06272641
000310 fa 39 08 3e 32 2e 1f be 19 f1 13 be ef 2e 90 3d
       0.13303366 -0.15544966 -0.1444744 0.07040202
000320 66 dc aa 3d dd 05 8b 3d 10 ad 1b be ba 59 6b bd
       0.08342819 0.06788228 -0.15202737 -0.057458617
000330 22 ee f1 bd fb af f2 3d d4 4b db bd db e8 83 3d
       -0.11812998 0.11849972 -0.107078224 0.06440898
000340 80 8d 44 bd 76 4a f9 bd 03 94 f8 bd e1 5e 80 bd
       -0.047986507 -0.121724054 -0.12137606 -0.06268097
000350 8b d8 2b 3e 24 e2 13 3d 6c 10 b4 bd 30 bc ca 3d
       0.16781823 0.036104336 -0.08792195 0.09899175
000360 3d 86 0b 3e 87 f8 a9 3d 18 1d 65 bd b3 e4 30 3d
       0.13625427 0.08299356 -0.05593595 0.043186855
000370 32 99 87 3d 9d 78 0f 3e 0d f2 9c 3d 11 21 11 3e
       0.066210166 0.14010854 0.07663355 0.1417277
000380 6e b5 a5 3d 68 9b 79 bd 9e 1f b4 3c 23 4b 18 be
       0.080912456 -0.060939223 0.021987732 -0.14872412
000390 be 17 ac 3a d7 4c 82 bd 5e c2 12 be c2 3f 5a 3d
       0.0013129634 -0.06362312 -0.14331958 0.05328346
0003a0 e9 97 4f bd 25 5f 9a bd 2a df a7 3c ea 41 31 bc
       -0.050681982 -0.07537679 0.020492155 -0.010818938
0003b0 8e 5f 82 3d e4 a7 06 be 1b 46 f6 3d 9b 05 f5 bc
       0.06365882 -0.13149983 0.1202509 -0.0299099
0003c0 85 75 61 bd c4 c7 04 3e e0 4f ed 3c 8a a3 6b 3c
       -0.055043716 0.1296683 0.028968751 0.0143822525
0003d0 53 0f 1e 3e 99 dd 44 3d ab c8 0e be aa 1d 28 3d
       0.15435533 0.048062894 -0.13943736 0.041043915
0003e0 f3 69 53 3d 89 2f 37 bd 74 53 f7 bd 83 d0 18 3e
       0.051614713 -0.044723067 -0.12076464 0.14923291
0003f0 45 c9 55 be 8d 2a 51 3c 6a 3d 24 be 6b 7a 1b be
       -0.2087756 0.012766493 -0.16039053 -0.15183417

bias f4 [40]
000000 0a 27 e2 bd 30 60 3c 3d 52 72 19 bd 46 ec 83 bd
       -0.11042602 0.04599017 -0.03746254 -0.0644155
000010 30 c5 54 bd a8 7a 2c be c5 83 ff 3c 82 a5 13 3e
       -0.051945865 -0.16843665 0.031190762 0.14418605
000020 30 e0 1c 3e 4a e7 c4 3d 40 20 92 3d 0a d6 26 3d
       0.15319896 0.096144274 0.071350574 0.040731467
000030 4a ee 52 3d 87 63 d2 3d 70 ce e9 bd b5 fb ac bd
       0.05149678 0.102728896 -0.11416328 -0.08446447
000040 df 02 ee bd a8 de 47 bd 33 7b f3 3c 9c ac 02 be
       -0.11621641 -0.048796326 0.029721832 -0.12761158
000050 06 5f 0c bd 34 1f 2c 3e 3e b0 6b 3e a2 28 21 3e
       -0.03427031 0.16808778 0.2301645 0.15738156
000060 97 37 5c bd f2 fc 97 bd 21 97 84 3e da 76 0a be
       -0.053763952 -0.07421292 0.25896552 -0.13521901
000070 fc a2 c2 3d 60 c7 e5 3d f5 52 51 bd 19 bb a6 bd
       0.09503743 0.112196684 -0.051104505 -0.08141155
000080 86 ce 85 bd c0 05 1b 3e 1b 9b 4d bd b3 81 59 3e
       -0.06533532 0.15138912 -0.05019675 0.21240883
000090 c1 67 0a 3e bf d1 33 3e 97 7b 79 bc a6 53 fc bd
       0.13516141 0.1756048 -0.01522722 -0.12320642

weight f4 [1, 40]
000000 17 0c 8e bd 1d 9c bb be f6 13 04 3f 18 67 a3 bc
       -0.069359 -0.36642542 0.5159296 -0.01994662
000010 ab 78 90 be 68 6e 1f 3e 04 f7 b5 be ef 18 d4 3d
       -0.28217062 0.1556946 -0.3554002 0.10356318
000020 f3 6a 01 be a0 7d ac bd 29 51 0e bf 8d eb d2 3e
       -0.12638454 -0.084223986 -0.5559259 0.41195336
000030 3b ad 1b 3e 7a b6 b2 3d 5f e6 48 bf 8c 30 03 bd
       0.15202801 0.08726211 -0.7847652 -0.03202872
000040 c0 c6 07 be 55 3b 9d be 20 54 4d 3e 4a f7 c1 bc
       -0.13259411 -0.3070933 0.20051622 -0.023677487
000050 8f 55 21 3d 4a 22 86 be 5f 28 1e bf 65 f9 01 bf
       0.039388236 -0.26198035 -0.6178035 -0.5077117
000060 9c 21 29 be cb 6f bf be 84 f5 fa be a7 9c b1 bd
       -0.16516727 -0.3738998 -0.4901544 -0.08672457
000070 eb df 43 be b4 18 dd 3d dd 92 b9 3c 7d ee 0e 3f
       -0.19128387 0.10795727 0.022653038 0.55832654
000080 f3 b6 9a be cd 83 b2 3e 90 56 3f 3f 64 9c 46 bf
       -0.30217704 0.3486618 0.7474146 -0.77582383
000090 bf 09 8e be 58 bf 69 3f 17 b1 ba 3d 75 b3 67 bd
       -0.2774181 0.9130759 0.091158085 -0.056567628
