learning/model3/dnn/model_8.pth (torch, 11163 bytes, 5 tensors)

weight f4 [40, 7]
000000 37 0d 44 3e 23 aa 18 3e a3 d8 70 be 5e bb 90 be
       0.19145666 0.14908652 -0.2352014 -0.2826795
000010 0e 30 88 be 28 c0 e6 bd 61 c8 fe 3b 30 b7 a2 3e
       -0.26599163 -0.1126712 0.007775352 0.31780386
000020 ee 91 82 3e 97 74 60 bd 53 7e cf bd 7a a5 c5 bd
       0.2550196 -0.05479869 -0.10131516 -0.09650703
000030 31 1a 82 3e d1 db aa be ee 79 80 be 4b c8 90 be
       0.25410607 -0.33370832 -0.25093025 -0.2827781
000040 72 a1 92 be 86 49 3e be 97 52 55 3d d8 a1 b7 be
       -0.28638798 -0.18582734 0.052080717 -0.35865664
000050 8a f1 39 be 01 a9 a1 be 16 b4 ed 3d 8a 87 8a be
       -0.18158546 -0.31574252 0.11606614 -0.27056533
000060 db cd b6 3e 87 87 e3 3e 71 23 ac 3d c7 0b 49 be
       0.3570393 0.44439337 0.084051974 -0.19633399
000070 b1 67 83 3e ae 87 70 be c0 94 e5 bd e5 73 4c be
       0.25665048 -0.23489258 -0.112100124 -0.19966085
000080 e0 3c 02 bd b4 39 b3 bd 83 90 48 be cb 4c 1a 3e
       -0.031796336 -0.087512404 -0.19586377 0.15068357
000090 c9 5a 6e 3d e2 00 89 be cd 96 45 bd c8 b4 a4 3e
       0.05819205 -0.26758486 -0.048239518 0.32169175
0000a0 79 2a a6 bd 35 b2 7d 3e 41 44 2d 3e 93 f9 51 3e
       -0.0811357 0.24775012 0.16920568 0.20505361
0000b0 76 8f 40 3e 46 ca 79 3e 79 8d 62 3e 21 e9 0b be
       0.18804726 0.24393567 0.2212428 -0.1366315
0000c0 0c 38 47 3c be 04 e5 3d 64 ed f7 3a 3e 68 85 be
       0.012159359 0.11182545 0.0018915352 -0.26056093
0000d0 73 27 c7 3d 60 09 49 3c b5 6e 09 be 60 f0 bd be
       0.09724321 0.012270302 -0.13421138 -0.37097454
0000e0 61 29 af be 4f 56 1a 3e cb 87 86 3e de 40 83 3e
       -0.34211257 0.15071987 0.26275477 0.25635427
0000f0 34 9b 35 3e ee 2e 32 bb 9d 66 82 3e f7 e6 56 be
       0.17734987 -0.0027188617 0.25468913 -0.20986544
000100 f2 53 64 be 14 b7 9c 3e f5 3e b3 be 5d e0 57 3d
       -0.22297648 0.30608428 -0.3500897 0.052704204
000110 f0 49 80 be 1e 0f e3 3d 00 f1 6c 3c 51 1c 7d be
       -0.2505641 0.11086868 0.014461756 -0.24717833
000120 91 c8 0e be 50 94 83 bd 10 75 9c 3c 55 ae 20 be
       -0.13943698 -0.06424773 0.019098788 -0.15691502
000130 48 b1 f3 3d 7c 84 42 3d f1 21 58 be df 90 0d be
       0.11899048 0.04748963 -0.21106698 -0.13824795
000140 46 e5 59 3e fc 52 c0 3e ea 11 a4 3e 10 10 d9 3c
       0.21278867 0.37563312 0.32044917 0.026496917
000150 eb 4a 96 3e 92 00 82 3e e4 98 70 be 13 3d 3f be
       0.29354033 0.2539106 -0.23495823 -0.18675642
000160 cc ba 3a 3e 9c 96 8f bd 70 30 6b bd f5 b3 27 be
       0.1823532 -0.07011148 -0.05741924 -0.16377242
000170 f2 73 7f be 68 66 84 be 6e c4 fe 3e 90 6d d2 3e
       -0.24946573 -0.2585938 0.4975924 0.41099215
000180 d9 b7 03 be 8b 45 a9 3d 0d cf 76 be 5f 14 8a bd
       -0.12863101 0.082652174 -0.24102421 -0.06742167
000190 38 b7 24 be e5 34 23 3d 1f 5a 8d be 0e 50 c6 3e
       -0.16085517 0.039845366 -0.2760782 0.38732952
0001a0 15 1d d0 bd 17 c4 eb be 5c f5 d2 3e 16 67 2b 3f
       -0.10161797 -0.46048042 0.4120282 0.6695417
0001b0 04 15 d1 3e 90 f4 90 3e 16 ed bc 3d bf 62 5a 3b
       0.40836346 0.28311586 0.09224908 0.0033323017
0001c0 39 38 94 3e ae de 90 3c fb 63 87 3e 0b 5a 81 be
       0.28949144 0.017684307 0.26443467 -0.2526401
0001d0 8e ef 49 3e 37 81 b7 3e 9c 26 8f be 04 bf ba 3d
       0.19720289 0.3584077 -0.27959144 0.091184646
0001e0 69 06 bf be 16 fa a5 be 34 1c 9f bd 5b 28 f8 bd
       -0.37309578 -0.32417363 -0.07769051 -0.12117072
0001f0 e4 cd 07 be a6 64 5f 3e b2 6c 2a bf ce c0 35 3f
       -0.13262135 0.21815738 -0.66572106 0.7099732
000200 77 bf 35 bf 35 94 34 3d 34 31 35 3d 73 14 34 3d
       -0.7099528 0.044086654 0.044236377 0.043964814
000210 3c 99 33 3d 03 02 84 3e e7 9c a1 be 27 f9 80 3e
       0.043847308 0.25782785 -0.3156502 0.25190088
000220 bf fd 5d be 6a 42 06 3e 0f ed ba be ca 83 5a 3e
       -0.21678828 0.13111272 -0.36508986 0.21339336
000230 75 26 a3 3e 12 f0 6a 3e 6a 5f d6 3d 6b 86 86 be
       0.31865278 0.22943142 0.104674175 -0.26274428
000240 af 4e 88 be 77 f5 4f be ff 9d 83 bd aa 63 5e 3e
       -0.2662253 -0.20308481 -0.0642662 0.21717706
000250 79 f8 a7 3c 42 a0 b2 be db e0 00 bd 63 90 9c 3e
       0.020504223 -0.34887892 -0.03146444 0.30578908
000260 51 44 c8 3d 68 0d 29 bc d3 b8 db be 04 6a 1c 3f
       0.09778655 -0.010318138 -0.42914447 0.61099267
000270 a9 fb 0f 3f e1 c9 83 3e 41 ed 4d 3e fd 45 5a 3d
       0.5624338 0.2573996 0.20110036 0.053289402
000280 8c dc 92 3c 8d 92 92 3e 5a e7 39 3e b7 32 40 be
       0.01792743 0.28627434 0.1815466 -0.18769346
000290 06 36 18 bd 01 a3 a0 3c e8 09 82 be 9e 65 c0 bd
       -0.037160896 0.019608976 -0.25398183 -0.09394382
0002a0 2b ec 83 3e ba b0 80 bc 0f 1f 30 bc 53 8e b3 3d
       0.2576612 -0.01570927 -0.010749592 0.087673806
0002b0 1e f6 a2 3e 19 61 09 be 26 5a b2 3d 56 40 83 bb
       0.31828398 -0.13415946 0.08708601 -0.004005472
0002c0 26 b3 2b be d6 91 83 be af 62 af be 86 f4 b9 be
       -0.16767558 -0.25697201 -0.34254977 -0.3631937
0002d0 8e 54 b6 be e4 6e 8c bd 56 3f 33 3e 4f d5 09 3e
       -0.35611385 -0.06857088 0.1750463 0.13460277
0002e0 8e 1a 2d be eb 6c 91 3e 1e 3c 91 bd 9e 92 b7 be
       -0.16904661 0.2840341 -0.070915446 -0.35854048
0002f0 05 42 77 bd 1a a2 4d 3e 42 2b b6 be fa 94 65 3e
       -0.060365696 0.20081368 -0.35579878 0.22420111
000300 25 1c 81 bc 2d 30 19 be 32 92 37 3e 10 ea 5f 3e
       -0.01576049 -0.14959784 0.17926863 0.21866632
000310 ef d3 5c be e0 81 30 bc a0 11 5e be c8 29 c9 bd
       -0.21565221 -0.010773152 -0.21686411 -0.09822422
000320 c8 69 16 be 78 f9 aa 3d c8 a7 b1 be 60 dd 91 be
       -0.1468879 0.08348364 -0.3469832 -0.28489208
000330 09 a0 7d 3e 43 4d 81 be 39 21 a2 be ba e1 97 be
       0.2476808 -0.2525426 -0.31665972 -0.29664403
000340 19 a4 37 3e 7d 73 b5 3e dc 47 cf 3e fc 7c 51 be
       0.17933692 0.35439673 0.40484512 -0.20457834
000350 3e 14 5e bd c3 9e c9 be c7 76 26 3e 8c da 40 3e
       -0.054218523 -0.39378938 0.16256247 0.18833369
000360 18 00 8d ba d0 0c 26 3e 4a f8 97 bd f5 6f 3a 3e
       -0.0010757474 0.16215825 -0.07420404 0.1820677
000370 72 64 50 3e 9a 83 d5 3d 5f c7 32 3e cf 84 dc bd
       0.20350817 0.10425492 0.17458867 -0.10767519
000380 4c 5b 87 3e 30 2d 2e be fe 32 21 3f b3 f1 93 be
       0.2643684 -0.17009425 0.6296843 -0.2889534
000390 0b 39 aa be 6b 09 5e 3e 5a 22 4e be 91 09 80 be
       -0.33246645 0.2168328 -0.20130292 -0.250073
0003a0 e9 6d 6d bd d2 9a 8c 3c 0e 67 4d be 36 11 9e 3e
       -0.057966147 0.017163668 -0.20058843 0.30872506
0003b0 8a 07 60 3e e0 99 bb 3d aa d0 50 be b1 39 37 3d
       0.21877876 0.09160209 -0.20392099 0.044732753
0003c0 7e 12 c4 3e 64 8a 37 3e f9 34 a3 3e fa e2 14 be
       0.38295358 0.17923886 0.31876352 -0.1453971
0003d0 2a 41 e6 3b 03 d8 93 be 0d 43 66 be 8c a6 62 3e
       0.007026811 -0.2887574 -0.22486515 0.22133845
0003e0 89 fa aa be 49 7a f3 bc 87 dc 41 be a4 92 54 bd
       -0.33394268 -0.029721396 -0.18931781 -0.05189766
0003f0 ad c9 cc 3d 5f ad ab 3d b4 9d 60 bc 6e 33 a8 3e
       0.09999404 0.08382677 -0.013709474 0.32851738

bias f4 [40]
000000 3c 1f 71 be 3c e2 e3 3d bd 3e 5c 3e 79 54 93 bd
       -0.23547071 0.11127135 0.21508308 -0.07193846
000010 7e 9f ae be 8d ff 05 be 09 47 1d 3e 43 25 bc 3e
       -0.34106058 -0.13085766 0.15359129 0.36747178
000020 b7 84 b5 be 44 5d 6c bc 98 84 32 be a9 b5 03 3e
       -0.35452816 -0.014426533 -0.17433393 0.12862267
000030 8d 77 8f 3d f3 16 1e 3e a0 04 2d 3e 5b 39 25 bf
       0.070052244 0.15438442 0.16896296 -0.6454064
000040 1d 1b 43 3e 0c 39 bb 3e ee e2 13 3f b1 04 9c 3e
       0.19053312 0.3656696 0.5776814 0.3047233
000050 1a 80 0e 3e 09 01 1a 3e c9 1b fc be 6a d0 79 bc
       0.13916054 0.15039457 -0.49239948 -0.015247444
000060 a3 27 41 3e 7b f3 8e 3e a8 64 60 be 96 7d a8 be
       0.18862776 0.27920136 -0.21913397 -0.32908314
000070 72 76 64 be d5 ad 7d be c8 48 15 be 22 f7 9c 3e
       -0.22310808 -0.24773343 -0.14578545 0.30657297
000080 e2 e4 ca 3c 42 69 aa be 21 1d 74 bd f0 88 3e 3e
       0.024767343 -0.3328343 -0.059598092 0.18606925
000090 fd a5 96 3e ce 77 9f 3e 9a 18 4a 3e 39 b9 ad be
       0.29423514 0.3114609 0.19735947 -0.33930376

weight f4 [40, 40]
000000 4e 06 d1 bd c3 74 56 bc 06 b0 81 3d a1 8f a9 bd
       -0.10206281 -0.013089362 0.06332402 -0.08279348
000010 36 08 c8 3d 70 65 f9 bd c1 90 53 3b c0 32 f0 3c
       0.09767191 -0.12177551 0.0032282325 0.029321074
000020 02 40 cb 3c b7 21 fa 3d 50 4c b5 bc 5c aa b4 3d
       0.024810795 0.12213462 -0.022131115 0.08821556
000030 57 77 61 3d 53 89 23 be 27 ce a4 3d ab a0 43 be
       0.055045452 -0.15970354 0.08047133 -0.19104259
000040 2b b3 00 be d8 f4 02 3e 87 9b 98 3d e7 ab fc 3d
       -0.12568347 0.12788713 0.074515395 0.12337475
000050 2b f9 d3 bd 23 e8 0d 3e fb 70 c5 bd 80 92 05 be
       -0.103502594 0.13858084 -0.0964069 -0.13044167
000060 32 42 17 3e f4 03 04 3e bf 6a 3d bd 5d 8f d0 3b
       0.14771345 0.12892133 -0.04624438 0.0063647465
000070 58 46 cb bd de 41 06 be 38 bf 95 3d 11 1a 94 bd
       -0.099255264 -0.13111064 0.07311863 -0.07231534
000080 31 a9 09 3e fd 4d 69 3d 78 d7 49 bd 9b 9b 01 bd
       0.13443448 0.05695914 -0.049277753 -0.031642538
000090 27 08 c5 3d b4 8c 9a 3d d3 67 00 3d 3b c7 a2 3c
       0.096206956 0.07546368 0.031349014 0.019870391
0000a0 bd 62 ff 3d b7 da 1b 3d 42 7f e2 bd 11 0f ab bc
       0.12470005 0.03805038 -0.11059429 -0.020881208
0000b0 a8 0f 05 3d 23 91 e7 bc 68 c5 a1 3d e1 0d 8a 3d
       0.032485634 -0.028267449 0.078989804 0.067409284
0000c0 b6 34 37 be 65 09 c6 bd f2 c8 c3 bd ed 35 97 3d
       -0.17891201 -0.096697606 -0.09559812 0.073833324
0000d0 02 80 45 3d 58 cd 0e 3c aa 9f c7 bd 53 6b 8f bd
       0.04821778 0.00871595 -0.097472504 -0.07002892
0000e0 5f 50 43 bd bf 5d d4 bc 45 fc 10 3e 50 c3 25 3e
       -0.04768407 -0.025923608 0.14158733 0.16187787
0000f0 cc 06 93 bd e8 ff e3 bc 61 90 bb bd 02 6d ba bc
       -0.07179031 -0.027831987 -0.091583975 -0.022757057
000100 c6 c3 27 be b6 fd be bc 6c 34 b9 bd cf 46 e1 3d
       -0.16383275 -0.023314338 -0.09043202 0.10999834
000110 72 7f cd 3d 02 15 09 be 61 c4 c8 bd 3e d1 c9 3c
       0.10034074 -0.1338692 -0.09803081 0.024635907
000120 12 33 ca bc 73 ed 07 3d 2c dd 7f 3d a0 54 0e 3e
       -0.024682555 0.033185434 0.062466785 0.1389947
000130 11 55 13 3d 11 08 b0 bd c6 8f 70 3c c7 ac d9 bc
       0.035969798 -0.085952885 0.014682716 -0.026571644
000140 fb 60 b0 3d c6 8f 89 3d 88 f9 a1 3d 92 21 83 bd
       0.086122476 0.06716876 0.079089224 -0.064028874
000150 d4 f8 1a bd 36 08 06 be 01 6e 84 bd e7 3a 0e 3c
       -0.037834957 -0.1308907 -0.06466294 0.008681036
000160 46 21 1c be d7 b6 78 bd 10 65 2c 3d f8 1d c8 3c
       -0.15247068 -0.060721245 0.04208857 0.024428353
000170 0c a3 9c bd 92 dd b3 bc 0b b0 b6 3d d8 c5 b0 bd
       -0.07648286 -0.021956239 0.08920296 -0.08631486
000180 4c 8f b0 3d 35 f0 06 be 2e b3 4c bd 1f 56 fc bd
       0.08621082 -0.13177569 -0.049975567 -0.12321114
000190 c8 fd 07 3e 8f 8e 0d 3e 13 2d c9 3d 09 e2 24 bd
       0.13280404 0.13823913 0.0982305 -0.040254626
0001a0 06 92 16 be d1 fc 14 bd d8 d0 11 3e e0 f5 8a 3d
       -0.14704141 -0.036373917 0.14239824 0.06785178
0001b0 f8 1d ba 3d ae 6f 1d 3e c4 45 4c bd 2a 67 e6 bd
       0.09087747 0.15374634 -0.04987122 -0.11250146
0001c0 11 ec db 3d e7 1b 10 bd 99 40 b8 bd 4c da 4e 3d
       0.107383855 -0.03518286 -0.08996696 0.050501153
0001d0 c4 53 32 bd 76 be 63 bd f4 fe 0a bc 4f cf 95 bd
       -0.043536916 -0.05560156 -0.008483637 -0.073149316
0001e0 71 91 a5 bd 27 36 8e 3d dc 84 92 3d da e2 ee bd
       -0.08084381 0.069439225 0.07154247 -0.11664362
0001f0 64 46 c4 bd 09 0e 1c bd 07 70 de bc 3e d9 9a bd
       -0.095837384 -0.038099322 -0.027153028 -0.07560967
000200 4f ef 4b 3d 62 61 82 bd 7b a7 c1 bd 24 90 69 bc
       0.04978877 -0.063662305 -0.094557725 -0.014255557
000210 d6 c4 aa bc c2 89 6a bd 79 31 12 3e 1c 2d 51 3e
       -0.020845812 -0.057260282 0.14276685 0.20427364
000220 e7 c5 0d 3e d4 a5 96 bd e1 65 43 be f9 2b 69 bd
       0.13845025 -0.07355848 -0.19081832 -0.0569267
000230 d7 bb 82 3d 0b 33 44 3e 9a 1b 39 3e 3a ac 13 3e
       0.06383484 0.19160096 0.18076935 0.14421168
000240 bc 8e c0 bb c6 fd 10 3c 54 3d d5 bd 61 00 ff bd
       -0.0058763903 0.008849567 -0.10412088 -0.12451244
000250 80 81 3e 3c 54 6d 95 bd a8 fc ec 3c c2 44 fe 3c
       0.011627555 -0.07296243 0.02892907 0.031038646
000260 fc 53 8b bb 7d 63 d2 bd 79 97 bf 3d 01 17 ea bd
       -0.004251955 -0.10272882 0.09355063 -0.11430169
000270 19 a1 7d bc 90 37 23 bc 70 34 7e bc 2d 8e bc bd
       -0.015480303 -0.009961978 -0.015515432 -0.092068054
000280 3b 5e 87 bc e4 11 da 3d 79 a6 be bd 6a e5 99 3d
       -0.016524425 0.106479436 -0.09309096 0.075144604
000290 08 0a 60 bd 43 e6 a3 bd 50 89 fa 3d ba cd 10 be
       -0.054697067 -0.08002903 0.122332215 -0.14140978
0002a0 4b 4b 5a 3e 06 7b 92 bd 76 57 b0 3d 9d 9d 47 3c
       0.21317784 -0.07152371 0.08610432 0.012183574
0002b0 3b af 00 3e dc b1 50 be 09 ad e6 bd e4 c8 ff 3e
       0.12566845 -0.20380348 -0.112634726 0.49957955
0002c0 fd ba 78 bd d1 e5 8a 3d 46 c4 85 be 39 ef 13 be
       -0.0607252 0.06782115 -0.26126307 -0.14446725
0002d0 09 1d 1b be e7 54 83 bd 3d cb 9e 3e 05 8f 1e 3c
       -0.15147795 -0.06412678 0.31014434 0.009677653
0002e0 ec 21 a7 bc fa 3f 23 3e 41 ef af 3d a6 9c 47 be
       -0.020401917 0.15942374 0.08590556 -0.1949335
0002f0 dc 1a 05 3d 6d 7d 5a bd d9 ee 03 be b6 c9 12 3e
       0.03249632 -0.05334227 -0.12884082 0.14334759
000300 11 53 4d be 50 e5 e1 bc c3 69 70 3e fe 51 2a be
       -0.20051219 -0.027575165 0.23477845 -0.1663284
000310 02 c7 bf bd a2 d6 f9 bb da 01 20 bd bf a5 70 bd
       -0.093641296 -0.007624463 -0.039064266 -0.058751818
000320 c0 81 67 3c 98 52 38 3d 50 a3 de bd 06 11 d2 3d
       0.014130056 0.045000643 -0.10870993 0.10257153
000330 a5 f4 17 be 98 27 91 3c 24 5b fb bd f2 04 dc bd
       -0.14839418 0.017719075 -0.12273243 -0.10743131
000340 f7 0d 09 be 3c 1e cd bd 92 bb e4 3d cb 6d 1b be
       -0.13384233 -0.100155324 0.11168589 -0.15178601
000350 9e 8f 26 bd 70 8a 17 be 2e 63 de 3d 90 d7 14 3c
       -0.040664308 -0.14798903 0.10858761 0.009084597
000360 34 b2 4d 3d d6 5e 1f bd 60 3a 53 bc db 6f 15 be
       0.050218776 -0.038908802 -0.012892336 -0.1459345
000370 a5 e1 ad bd bc 79 50 3d 3a e3 fb bd e0 5e 9f bc
       -0.08490304 0.050897345 -0.122991994 -0.01945442
000380 4d 49 08 be 40 4b 12 be 17 d7 01 3e 07 e5 10 3e
       -0.13309212 -0.14286518 0.12679707 0.14149867
000390 60 e3 3c bd bb b0 84 bd 68 88 c2 bc 20 8b 28 3c
       -0.04611528 -0.06479021 -0.023746684 0.010287076
0003a0 f1 30 17 3e b0 7c 50 3d 4f 70 1a be be 9c de 3d
       0.14764763 0.05090016 -0.15081905 0.1086974
0003b0 c0 e2 7b bb c0 3c 05 3b ec 72 09 bd 00 db 3f bc
       -0.0038434714 0.00203304 -0.033556864 -0.0117099285
0003c0 30 08 c5 3c 5c 69 89 bd ba 4e f2 3d 06 2a bf 3d
       0.024051756 -0.06709549 0.11831422 0.09334187
0003d0 10 4c 9e bd d3 82 f7 bd e1 2c 00 be 68 8c a9 bd
       -0.077293515 -0.120854996 -0.1251712 -0.082787335
0003e0 83 01 1d 3d 5e 5c 46 bd a0 fa f3 bc 00 c1 10 3d
       0.03833152 -0.048427932 -0.029782593 0.03534031
0003f0 4e 97 89 bd 69 b9 0d be 5a 48 0d 3e 31 08 2b bd
       -0.06718312 -0.1384026 0.13797131 -0.04175586

bias f4 [40]
000000 01 bf d3 bd e4 94 08 3e 36 01 01 3e fa ed 3c 3d
       -0.103391655 0.13338047 0.12598118 0.04612539
000010 f8 de c4 3d 86 5e d3 bd 82 06 41 bc 4e 47 dc 3d
       0.096128404 -0.10320763 -0.011781337 0.10755788
000020 72 58 64 3e dd ad d2 bd 17 bf 9d 3b 89 5f 28 bd
       0.22299364 -0.10287068 0.0048140395 -0.041106734
000030 64 b7 4a bd fa 92 4e 38 87 4f aa bc 0f b6 82 bd
       -0.0494913 4.925111e-05 -0.020789875 -0.06382381
000040 ef 3a 03 3e 99 ea ca 3d bf 8a ba 3c 46 6b 77 bc
       0.1281545 0.09908027 0.022771237 -0.01510126
000050 65 24 c3 bc 0a 86 89 3d f7 b9 bf 3d de 38 f6 3d
       -0.023821065 0.06715019 0.09361642 0.12022565
000060 70 75 83 3d cd b7 57 3b 3d 3a 05 bd 12 60 f9 3d
       0.06418884 0.003291595 -0.032526243 0.12176527
000070 7e 74 74 bd 6f 95 33 3e d3 ee ed bd a5 df 6b 3d
       -0.059681408 0.17537473 -0.11617818 0.05758633
000080 bd 8b a5 3d 16 3f 65 bc 80 d1 b8 bb 11 75 bb 3d
       0.080832936 -0.013992092 -0.0056402087 0.09153188
000090 1a e5 f4 bd b4 57 73 bd c6 60 d9 3d e8 0c e8 bd
       -0.1195776 -0.059409812 0.10614161 -0.11330587

weight f4 [1, 40]
000000 0f da 5f 3e 7f 49 5f be d3 54 ee bd 67 39 79 3e
       0.21860527 -0.2180538 -0.11637273 0.24338304
000010 49 f5 46 3f 34 79 02 bd c7 bc 59 3d 47 10 e5 be
       0.77718025 -0.03185387 0.053158548 -0.4473898
000020 bd 09 1c bf de 15 d3 bd 43 ae c0 bd 9e c4 de 3e
       -0.6095236 -0.10306905 -0.09408238 0.43509382
000030 26 10 cc 3d b8 4a d0 bb fc 7c 86 3f b0 38 38 3e
       0.099640176 -0.0063565634 1.0506892 0.17990375
000040 07 df 9c be cc 7a 8b ba 03 a9 d6 3e 97 2b 9b 3e
       -0.30638906 -0.0010641455 0.4192582 0.30306694
000050 7e 6c 9f be ac 6e 98 be 77 e3 fc 3d f8 dd 58 be
       -0.3113746 -0.29771936 0.12348073 -0.21178424
000060 5c 84 05 3d 0d e9 a0 3d 38 21 0b be 03 48 08 bf
       0.03259693 0.07856951 -0.1358689 -0.5323488
000070 2d 2a ee bc 3b ef 27 bf a9 32 b1 3e 58 d4 db 3d
       -0.029072845 -0.6559941 0.34608963 0.10733861
000080 99 ab df be 32 59 1b be 9d 6a 21 be 05 13 88 bd
       -0.43685606 -0.15170744 -0.15763326 -0.06644253
000090 c8 a4 17 be 68 24 65 bd 56 aa 3a bf bd 8f 22 be
       -0.14808953 -0.055942923 -0.7291616 -0.15875144
