learning/model3/dnn/model_10.pth (torch, 11163 bytes, 5 tensors)

weight f4 [40, 7]
000000 5d 61 90 be c6 c3 37 be 78 2b 63 bd f6 82 08 be
       -0.28199282 -0.17945775 -0.055461377 -0.13331208
000010 cb 47 a8 be 9e ef 59 be 7e 9c b5 3d cf 87 4e bf
       -0.32867274 -0.21282813 0.08867739 -0.8067598
000020 d9 71 6c 3f ea 52 18 3f 7b 44 3a 3e 0b 04 15 3e
       0.9236122 0.59501517 0.18190186 0.14552324
000030 38 0a 82 3d e6 97 3b 3e 2b 3e 40 3e a7 82 d2 bd
       0.06349605 0.18319663 0.18773715 -0.10278826
000040 7b 63 aa be 6b 64 1a 3e 13 36 97 bc 48 a4 ca bb
       -0.33279023 0.15077369 -0.018458402 -0.0061841346
000050 e4 28 04 3e e5 94 30 3e af 1d 24 3f 9a 9b db be
       0.12906224 0.17244299 0.64107794 -0.42892152
000060 74 7f ca 3e 7b 18 99 bd 79 3d b9 3e 7e 3a af bd
       0.39550364 -0.074753724 0.36179712 -0.085560784
000070 9f bc 16 bd fc a1 c3 bd 60 cc 5f 3d 3d 5f 12 bd
       -0.036800977 -0.095523804 0.054638267 -0.035735358
000080 04 e6 18 3c 5c cd f7 bd 45 98 75 3e 64 cd 2b 3e
       0.009332184 -0.12099716 0.23983867 0.16777569
000090 f9 b7 73 be 94 fb 99 be 36 11 b9 3e 60 45 94 be
       -0.23800649 -0.3007475 0.36145943 -0.2895918
0000a0 aa 28 82 bd 4d 16 cd bc 53 d6 5a 3e 05 6d bb 3d
       -0.06355412 -0.025035048 0.2137082 0.09151653
0000b0 12 89 66 3b ed f0 f8 be 88 1f 9b 3e 85 69 93 3e
       0.0035176915 -0.48621312 0.30297494 0.28791443
0000c0 44 67 7b bc d6 41 06 3e d2 78 10 bf 1a 87 05 bd
       -0.015344445 0.13111052 -0.5643436 -0.032599546
0000d0 60 bc b5 3d d7 6b 8f 3e 7e 26 81 3e 2c 56 c5 3e
       0.0887382 0.28011963 0.2522468 0.38542306
0000e0 cb b7 37 3f 82 33 3f bf bd 98 1e 3f c1 aa 76 3e
       0.7176482 -0.7468797 0.6195181 0.24088575
0000f0 f4 06 39 3e 96 f9 b8 3e e9 29 93 3e 48 16 04 3f
       0.18069059 0.3612792 0.28742912 0.515965
000100 27 b8 85 be 48 b2 22 3f 4f fe da 3d dc 2e 82 3e
       -0.2611706 0.63553286 0.10693037 0.25426376
000110 56 f4 1f 3e 17 2a 1c 3e 6c cd e5 3d 9e bc 68 be
       0.1562055 0.15250431 0.11220822 -0.22728202
000120 02 93 c6 3e 0d ff 28 3e 00 77 1b be 48 b7 b3 3e
       0.38784033 0.16503544 -0.15182114 0.3510077
000130 de 95 cd bd c8 b6 48 bf 52 01 51 3f d5 ee 23 3f
       -0.100383505 -0.784039 0.8164264 0.64036304
000140 73 a3 8a 3d d5 6c 2c 3e f4 a0 03 be 61 af 0b 3e
       0.06769457 0.16838391 -0.12854367 0.1364112
000150 de d9 03 3e 67 87 aa 3e 26 c8 d9 be 86 f4 5f 3e
       0.12876078 0.3330643 -0.42535514 0.21870622
000160 ae 2e e1 3c 78 bd 61 3e 5e 16 9b 3e 17 0e b2 be
       0.027488079 0.22044933 0.30290502 -0.34776375
000170 d7 b3 40 be a5 ad 81 bd 63 b9 c0 3e 61 2a c1 be
       -0.18818603 -0.06331948 0.3764144 -0.37727645
000180 2a 4d e2 bd 20 1d 69 bc 87 f2 56 be e0 8f 94 3e
       -0.11049874 -0.014228135 -0.20990954 0.29016018
000190 aa 11 2f be ac ad a5 3e e7 32 ae 3e fb dd bb be
       -0.17096582 0.32359064 0.3402321 -0.36692795
0001a0 16 bb aa be 2f 8f 9c be 9c c3 50 be a8 d7 e2 3d
       -0.3334586 -0.3057799 -0.20387119 0.110762894
0001b0 1c 45 fd 3d c5 88 b8 3e 87 83 26 3e 8c df d2 3e
       0.12366697 0.36041847 0.16261111 0.41186178
0001c0 b2 7b eb 3e c0 32 e0 be 49 be 1c 3f 1b c7 53 3e
       0.4599281 -0.4378872 0.6122785 0.20681421
0001d0 2c 1e 85 3e b3 97 b0 3d 56 28 a5 3d 51 a7 a9 be
       0.25999582 0.08622684 0.08064334 -0.33135465
0001e0 51 9b a9 be 80 86 b7 3f 05 08 88 bf 5c 74 82 bf
       -0.3312631 1.4337921 -1.0627447 -1.019176
0001f0 39 32 c1 bd b0 21 25 be ab db 6c bd fd d3 1b 3f
       -0.09433407 -0.16126132 -0.05782668 0.60870343
000200 cc 98 63 be 50 13 a4 be 61 5d 61 3e 7f f8 76 3e
       -0.22226256 -0.32045984 0.22008277 0.24118231
000210 37 ba ad 3e 4c 49 a6 be 7f 85 00 3c 8e 11 9b be
       0.33931133 -0.32477796 0.007844328 -0.3028683
000220 17 be 47 3e 5f 3e 24 3e 49 86 cb 3d 4d a8 49 3d
       0.19506107 0.16039418 0.09937722 0.04923277
000230 79 2e 78 be 0f 3e 12 3e 67 ca 97 3d ea 1d dc 38
       -0.24236478 0.14281486 0.07411652 0.000104959894
000240 ae 51 d8 3e a5 48 96 3e 7c 77 89 be 32 fe b1 3e
       0.42249817 0.29352298 -0.26848972 0.34764248
000250 35 67 08 bd bf d9 f5 3e a5 c0 de 3e 8c ab 7c 3e
       -0.03330155 0.4801769 0.4350635 0.24674815
000260 34 91 77 3e c6 40 16 3d 81 56 74 be 2e a6 03 3e
       0.24176484 0.036682867 -0.23861124 0.12856361
000270 9e 2f 7e 3d cf 3e ca 3e 26 1f 52 3d 70 0d 40 be
       0.06205713 0.39501044 0.051299237 -0.18755126
000280 bc f8 54 3e 76 33 e7 be 58 6a 9a be f7 1a c2 be
       0.2079801 -0.4515645 -0.3015926 -0.37911198
000290 c0 89 3e be 2d 21 14 3e 75 19 c7 bc 02 a2 86 3c
       -0.18607235 0.1446578 -0.024304131 0.016434673
0002a0 e0 94 5a bf b9 61 a7 bd b8 44 f4 3e 59 65 d4 3e
       -0.85383415 -0.08172936 0.47708678 0.41483572
0002b0 7b 79 c0 3e 99 30 8c 3c ed 81 9e ba 6c ab db be
       0.37592682 0.017113017 -0.0012093164 -0.42904222
0002c0 d3 00 e7 3e ee ca 87 bf f8 58 61 3f 64 28 1e 3f
       0.45117816 -1.0608804 0.8802638 0.6178038
0002d0 5d 71 86 3e 99 23 21 38 f0 90 be 3c 3d 9c 84 be
       0.26258364 3.8418544e-05 0.023262471 -0.2590045
0002e0 d6 ef 58 3e 00 d6 53 3a b4 60 81 bd 80 04 b3 bb
       0.2118524 0.00080809 -0.06317273 -0.005463183
0002f0 d4 6b 73 be 46 8a e7 3d 8f ce 52 3c c0 2a ab 3d
       -0.23771602 0.113056704 0.01286663 0.08357763
000300 36 92 bc bd 62 a8 5c 3e ba 88 66 3d 2f 09 d1 3e
       -0.09207575 0.21548608 0.056282736 0.4082732
000310 cf d0 14 bf 68 7f 5c be af cd 65 be d8 0d 4f be
       -0.58131117 -0.21532977 -0.22441743 -0.20220125
000320 10 66 ea be a0 91 0f 3f f1 8e 21 3e e6 43 9a be
       -0.45780993 0.5608158 0.15777184 -0.30129927
000330 d4 9d b7 3e ef 08 34 be 29 22 92 3e 1e 69 52 bd
       0.358626 -0.17581533 0.28541687 -0.05136978
000340 cf 70 12 bd c7 b4 06 3e a3 5c e1 3e da 88 c0 be
       -0.035752114 0.13154899 0.4401599 -0.3760441
000350 d6 67 d4 3e b0 bd 14 3e cc 73 ca 3e ae 10 46 bf
       0.4148547 0.14525485 0.3954147 -0.773692
000360 26 64 00 3e c1 1b 4e 3f 6a a0 ea be 61 ff 02 bf
       0.12538204 0.805111 -0.4582551 -0.5117093
000370 72 da 37 be f1 1c d9 be f9 98 92 3e 71 b4 14 3e
       -0.17954424 -0.42404893 0.28632334 0.14521958
000380 87 5e 6d be 8a 15 2d 3f 31 29 70 bf da be 72 3e
       -0.2318059 0.6761099 -0.93812853 0.23705617
000390 a8 7f 21 3e d4 9f 9c 3e c6 d9 2a 3e f4 9d 37 be
       0.15771353 0.3059069 0.16684636 -0.17931348
0003a0 7a cf 29 3e 86 8d 9e be f2 c7 68 be 66 23 57 be
       0.16583052 -0.3096735 -0.22732523 -0.21009597
0003b0 18 8a 28 bd d0 a6 35 bd 9c 4d 36 be 46 86 6a bc
       -0.04114732 -0.044348538 -0.17803043 -0.01431424
0003c0 a8 36 da be ab 13 eb 3e 79 d1 26 3f 4f 1f 45 be
       -0.42619824 0.45913443 0.6516338 -0.19250225
0003d0 6f c2 2c 3d b4 da ea be e8 11 b9 be 1f 82 8d be
       0.042177614 -0.45869982 -0.36146474 -0.27638337
0003e0 8c d4 00 3e ec 92 01 3f 0c 19 1d 3e 31 3f a8 bb
       0.1258108 0.5061481 0.15341586 -0.005134486
0003f0 47 4c e7 be 6c db a2 bd 11 ac eb 3e 5a fb fd 3e
       -0.45175382 -0.07952008 0.46029714 0.4960583

bias f4 [40]
000000 a7 3b ad bc 8c a5 38 be 3a 94 e1 bd 22 52 61 3d
       -0.021146609 -0.18031901 -0.110146 0.05500997
000010 e3 dd 42 be 18 64 b0 3d ad ee 9c be 45 ba 5a 3e
       -0.19029956 0.08612841 -0.30650845 0.21360119
000020 9d 40 84 be d8 4a e3 3d 12 f5 8d be ea b1 04 bd
       -0.25830546 0.1109826 -0.27726036 -0.032396235
000030 4d 6c c2 3d b1 10 40 3b 71 2d d9 3e c6 c9 33 be
       0.09493313 0.0029306824 0.42417482 -0.17557439
000040 90 4f 4b be c7 a1 a9 3e a1 8b 2a 3f c7 60 4d bc
       -0.1985457 0.3313124 0.66619307 -0.012535281
000050 5d 03 a1 be 33 9a f7 be 26 c3 33 be 94 fd 91 3e
       -0.31447878 -0.48359832 -0.17554912 0.28513777
000060 1a 9c d2 be 5d 10 e7 be 2d c9 9b be 55 2e 03 3f
       -0.4113472 -0.45129672 -0.30426922 0.5124257
000070 d2 a9 f8 3d 7e a2 8e be 1a 76 2d 3e dd ae f8 bd
       0.12141766 -0.27858347 0.16939583 -0.121427275
000080 0d 9a ab 3c 56 ea a7 be 69 f4 06 bd 15 11 b9 3e
       0.02094748 -0.32795972 -0.03294793 0.36145845
000090 96 c0 e8 be e8 ec 1c be f0 34 b0 3d 7d 6b a1 3e
       -0.4545943 -0.15324748 0.08603847 0.3152732

weight f4 [40, 40]
000000 20 44 87 bc ed a5 cb bd b9 ce 0f be c0 93 97 bd
       -0.016511977 -0.09943757 -0.14043702 -0.07401228
000010 b9 10 8b 3d cc 95 d1 3d a7 36 14 be 68 e0 fb 3d
       0.06790299 0.102336496 -0.14473973 0.122986615
000020 84 63 9d bd 98 03 11 be 20 1f 0f be 66 19 d1 3d
       -0.07684997 -0.14161527 -0.13976717 0.102099225
000030 0d 39 a2 3d ed 73 12 be d3 53 24 3e f9 62 09 bd
       0.07921038 -0.14302035 0.16047601 -0.033541653
000040 38 6e 78 bd 42 1f 0c be 45 e3 80 3c 8f 27 48 bc
       -0.060651988 -0.13683799 0.01573337 -0.012216463
000050 6a 2b 11 be 7c 08 d5 3d 49 36 ff bd 57 3f 08 be
       -0.14176717 0.10402009 -0.12461526 -0.13305412
000060 dd 36 ce 3d a5 84 cc bd 9f c2 0b be 69 87 c1 bd
       0.10069058 -0.099862374 -0.13648461 -0.094496556
000070 63 a1 fa bc a5 bf 1d 3e 33 65 fc 3d ac d4 9d 3d
       -0.030594533 0.15405138 0.1232399 0.077065796
000080 78 2e bd bd 92 e1 88 3d 90 0f d6 3c 7e a5 ac 3c
       -0.09237379 0.06683649 0.026130468 0.021075007
000090 e3 7a 8b bc 5d 50 1b 3e 48 21 0f be 7c fa f5 bd
       -0.01702637 0.15167375 -0.1397754 -0.12010667
0000a0 c0 70 44 bd 27 68 d8 bd 1f 20 c5 3c 11 93 6b be
       -0.04795909 -0.105667405 0.024063168 -0.2300532
0000b0 bc d3 0d be 1c 1b b4 bc 41 bd 76 be a0 31 f0 3d
       -0.13850302 -0.021985583 -0.24095632 0.11728215
0000c0 f5 5e a3 3e ca 74 c1 3e 88 5a 88 bc b9 9b 15 be
       0.31908384 0.37784415 -0.016644731 -0.14610185
0000d0 a4 02 f9 bd 64 fa 2c 3d 44 a4 3d be 38 d9 22 be
       -0.12158707 0.04223098 -0.18519694 -0.15903175
0000e0 b0 8d bd 3e 6e 53 12 3e a7 dc a4 be 0d d4 ed bd
       0.3702216 0.14289638 -0.32199594 -0.11612711
0000f0 b2 75 7a 3d 12 27 ce 3d 5c 83 9b 3d 4d 43 cb 3d
       0.0611474 0.10066046 0.07593414 0.09924946
000100 0a dd 8b be 98 ac 1c 3e 28 b5 1a bd 39 33 89 bd
       -0.27317077 0.15300214 -0.03777042 -0.06699223
000110 6b a3 0c bb 8a 0d a3 3d 85 35 83 3e a3 9c 64 be
       -0.002145971 0.07961567 0.2562677 -0.22325377
000120 b8 3c 8d bb b7 87 11 3e 96 b1 db 3d 72 37 5a be
       -0.0043102168 0.14211927 0.10727231 -0.21310213
000130 3a 7f 3b be 1a 0f 0b 3e 7a 18 26 be 84 74 d7 bd
       -0.18310252 0.1357998 -0.16220275 -0.105202705
000140 76 71 3f bc ed ee 9a 3d a0 26 d1 3d 9a 91 0e 3e
       -0.011684766 0.07565103 0.10212445 0.1392273
000150 0f 83 51 bd d1 7f 2e 3e a9 a4 ca 3c 3c 35 5c be
       -0.051150378 0.17040946 0.02473672 -0.21504682
000160 ef 38 0c bf f7 b8 1a be 33 c5 0e be 0f 9b 19 3d
       -0.54774374 -0.15109621 -0.13942413 0.03750139
000170 59 f8 20 3e e8 d3 56 3d ec 08 d3 3d e4 8f 28 bd
       0.15719737 0.052448183 0.10304436 -0.04115285
000180 cf 49 b3 be 76 9e 04 3f 1b 04 96 3e 56 5e 55 bd
       -0.3501725 0.5180429 0.29300007 -0.05209192
000190 3b fb 9f 3d b7 4f 2f be 94 04 e3 3c a1 44 6f 3e
       0.0781159 -0.17120253 0.027712144 0.23366024
0001a0 30 88 16 be 7f 97 b4 3e 1d ef 15 be b7 b7 31 3d
       -0.14700389 0.35271832 -0.14641996 0.043388095
0001b0 bb aa 14 3e a8 97 12 be 03 9e 29 be 02 17 a6 bd
       0.14518254 -0.14315665 -0.16564183 -0.08109857
0001c0 8d e9 91 3e 1d c0 c2 bd 05 5f af 3e 55 a3 ba 3e
       0.28498498 -0.09509299 0.34252182 0.36452737
0001d0 f4 38 01 bd 34 fe 18 be 97 98 77 3d 74 0e 7e 3d
       -0.031548455 -0.14940721 0.060448255 0.062025502
0001e0 b9 4d 0b 3d de 39 86 3d 28 80 87 3d ab 19 71 3e
       0.03400967 0.06554006 0.06616241 0.23544948
0001f0 d1 17 31 bd d5 8e e1 3d 45 cf 0e be 25 33 99 bd
       -0.043235604 0.11013571 -0.13946255 -0.07480458
000200 3a cc d5 be dd bf 40 be 0e 4d 3b be 12 c2 89 bc
       -0.41757375 -0.1882319 -0.18291113 -0.016816173
000210 d2 19 5d 3e a6 87 04 3e 13 cd 96 3c 13 fe 4a 3d
       0.21591881 0.12942371 0.018408334 0.04955871
000220 18 83 56 be 91 c4 5d 3e 3e 50 39 3e ca 98 4b 3e
       -0.20948446 0.21657015 0.18097016 0.19882503
000230 4f d9 06 bc c6 ec 7d bd 94 cc 67 3d ec 97 5c 3e
       -0.008230521 -0.061993383 0.056591585 0.21542329
000240 ff ae 31 be 5c 46 c2 3e 8c 1e 7a bd 56 2d ce 3d
       -0.17351912 0.37944305 -0.061064288 0.10067241
000250 4d 66 34 3e 74 30 1d be 09 0e eb bc 71 68 b3 bd
       0.1761715 -0.15350515 -0.028693216 -0.08760155
000260 6f a5 84 3e 41 93 02 3e 29 1d 92 3d e5 66 3c 3e
       0.25907466 0.12751485 0.07134468 0.18398626
000270 83 c3 a8 bd 71 a4 06 3e 7c 84 99 3d 92 e9 6b bd
       -0.08240416 0.13148667 0.074959725 -0.057595797
000280 5a 5b 47 3d 60 63 d5 3d b8 5d e2 bd 51 76 26 3e
       0.048671104 0.10419345 -0.11053032 0.16256072
000290 47 72 ad 3d c5 59 49 3b 8b 6c e3 3d 4f a6 db 3d
       0.08469062 0.0030723673 0.11104687 0.1072508
0002a0 56 f7 87 3c c1 8a ba bc 8b 17 5a bd df 9a a9 3d
       0.016597431 -0.022771241 -0.05324511 0.082814924
0002b0 6f 8b 55 3e 20 24 98 3b 0c 6e f5 3d a3 87 13 bd
       0.20853971 0.0046429783 0.119838804 -0.036018025
0002c0 7a 5d ee 3c 4d a7 9e be 94 e7 1a 3e 44 45 09 be
       0.029097307 -0.30987015 0.15127403 -0.13405329
0002d0 68 96 1b 3d c2 ec d8 3d 05 55 6f bd 9c b2 64 bc
       0.037985235 0.10592033 -0.05843069 -0.013958599
0002e0 95 cd 60 3e a1 68 81 be f4 97 ba bd 5d 9d 33 bd
       0.21953423 -0.25275138 -0.09111014 -0.043851245
0002f0 bc 59 ff 3c 30 13 bc bd 84 37 6a bd 3b 4a 62 3e
       0.031170718 -0.09183347 -0.05718185 0.22098629
000300 f0 2d 12 3c e3 45 20 be dd 7b 78 bd 2a bb 5f bd
       0.008922085 -0.1565166 -0.060665 -0.054621853
000310 98 c8 41 3e ea 9b 00 3d c1 86 86 3d 82 64 4b 3d
       0.18924177 0.03139869 0.06568671 0.0496564
000320 0d 2b 1d be 4c 99 0b bd 40 e0 f9 bc 00 2c cf bd
       -0.15348454 -0.034081742 -0.030502439 -0.10115814
000330 40 f3 f3 bd ef 2e 05 3e 8e 14 c9 3d 10 8e c3 3c
       -0.11911631 0.13006185 0.098183736 0.023871452
000340 d8 17 9a bc c8 45 90 3c 04 f1 02 be 40 80 c0 3b
       -0.018810198 0.0176114 -0.12787253 0.0058746636
000350 90 fe 08 be eb 4d 04 3e c2 a4 91 3d 76 f1 bb bd
       -0.13378358 0.12920348 0.07111503 -0.091769144
000360 31 72 02 be 9c 40 14 3d 12 74 57 bd 40 b0 66 3b
       -0.12738873 0.03619443 -0.052600928 0.0035200268
000370 d0 1d 27 3c 80 54 15 bb b6 f7 a2 3d 46 6b f5 bd
       0.010199979 -0.0022785962 0.07957403 -0.119833514
000380 0b 53 0c be 16 cd d7 3d c6 a1 ab 3d c3 c9 04 be
       -0.13703553 0.10537164 0.08380465 -0.12967591
000390 23 37 11 be c0 4a 33 3c d0 23 b6 bd c2 8a 96 bd
       -0.14181189 0.010943115 -0.088935494 -0.07350685
0003a0 c4 f1 09 3d 66 95 d8 bd ef 96 15 3e f0 6b d3 bc
       0.03367783 -0.105753705 0.14608358 -0.025808305
0003b0 22 69 be 3d 9a 15 48 bd 13 03 b9 bd e2 34 c0 3d
       0.09297396 -0.048848726 -0.090337895 0.093850866
0003c0 d1 64 00 be d0 60 64 bc 5c f3 15 be 80 cd 8d 3b
       -0.12538458 -0.0139390975 -0.14643615 0.004327476
0003d0 84 fe 19 be cc f7 5f 3d d4 ea 79 3d f0 17 76 3c
       -0.15038496 0.054679677 0.061014965 0.015020356
0003e0 86 cf f8 3d 70 88 2d bc 00 8a c5 3c ca b5 15 be
       0.12148957 -0.010591611 0.024113655 -0.14620128
0003f0 6c 78 24 3d ea 3e d8 3d c8 78 5f 3d 38 8f b3 3c
       0.040153906 0.10558875 0.054558545 0.021918878

bias f4 [40]
000000 76 28 59 3d 51 97 5f be b1 94 b8 3e 71 ef 42 3e
       0.053017102 -0.21835066 0.36050943 0.19036652
000010 77 9b 23 3e 5b 8b 17 be f0 6f 8e 3c 1f ad 08 be
       0.15977274 -0.14799254 0.01738736 -0.1334729
000020 db c0 2c 3e f7 59 7b 3d d0 5e 3a 3d 75 22 ca bd
       0.16870444 0.061365094 0.045500576 -0.098698534
000030 bf 4a 44 3b 52 b0 e4 bd b9 6c 8c 3e ee d7 92 3e
       0.0029951779 -0.11166443 0.274267 0.28680366
000040 79 51 4e 3d a7 1e 04 be 0a 57 98 3c e3 11 95 3e
       0.050370667 -0.12902318 0.018596191 0.2911521
000050 b4 61 71 3e 77 b7 ac bd 33 4a bc 3d cd 05 a4 bb
       0.23572427 -0.08433431 0.0919384 -0.0050055743
000060 8a 92 b3 bd 14 64 99 3e bc df d2 bd 19 75 65 3e
       -0.087681845 0.29959166 -0.1029658 0.2240795
000070 4c da 10 be de f0 7c bd d5 c3 17 be 46 75 98 3e
       -0.14145774 -0.061753146 -0.14820798 0.29776973
000080 30 0b 94 3d 4c 99 73 3e dd 8e e7 bc 42 f8 57 bc
       0.07228696 0.23788947 -0.028266365 -0.013181748
000090 62 9a ea bd b8 77 33 be 07 4a ad 3d c8 16 f0 bd
       -0.114552274 -0.17526138 0.08461385 -0.11723095

weight f4 [1, 40]
000000 f9 b7 57 bb 0f 65 6d bf 4d 10 9b bf 58 44 5c bf
       -0.0032916053 -0.9273233 -1.211435 -0.86041784
000010 c9 f6 13 3f 30 e8 d2 3c 90 3a 96 3d 4e ca 92 3d
       0.5779844 0.025745481 0.07335389 0.07167493
000020 27 d5 f3 bf d5 5f bb be ad ff 08 bd 3a a4 45 be
       -1.9049424 -0.36596552 -0.033446956 -0.19300929
000030 6c 84 91 3f 05 8f 9a 3d 8e 7a 56 bf 37 bd a8 3f
       1.1368537 0.0754681 -0.83780754 1.3182744
000040 45 33 4a 3e 0c 79 45 3d b8 c5 c7 bc 53 49 5b bf
       0.1974612 0.048211142 -0.024386272 -0.8565876
000050 23 a4 b5 3f b2 51 08 3e 60 67 ef be 2d 46 6b bd
       1.4190716 0.13312414 -0.46758556 -0.05743997
000060 29 f7 ef be 72 48 3a 3f 4a 9c 67 3e 82 ef 88 bf
       -0.46868256 0.7276679 0.22618213 -1.0698092
000070 ac db ff be 82 ae e4 3d f0 f4 a7 bd 48 e6 9e bf
       -0.49972284 0.11166097 -0.08201015 -1.2414026
000080 06 61 ba bf 77 4b 09 3f 75 84 b3 bf eb e7 b8 3d
       -1.4560859 0.53630775 -1.4024798 0.0902861
000090 78 4e 20 be 25 46 f3 3d bf aa 95 be 25 75 03 3e
       -0.15654933 0.118786134 -0.2923183 0.12837656
