learning/model3/dnn/model_14.pth (torch, 11163 bytes, 5 tensors)

weight f4 [40, 7]
0.1591223 0.15948284 -0.37247807 0.21081883 -0.36993524 0.31836244 0.2935259 -0.28574374
-0.26305792 0.14480348 0.35610068 0.10970382 -0.27273965 -0.37962455 -0.5727122 0.4929062
0.4342143 0.23189224 0.13206168 -0.08329402 -0.047429968 -0.11247631 -0.14661914 -0.6261578
0.33778623 -0.037533797 0.26581904 0.20321362 -0.29690284 0.5637011 0.0865549 0.03063345
0.21487825 -0.21156237 0.23727144 0.0006374829 -0.047995403 0.0012345982 -0.37646785 0.3535254
-0.1643535 0.111332126 0.18925758 -0.051548257 0.51645446 -0.323864 0.030292831 0.25737137
-0.21241367 -0.10134363 -0.06310901 0.077014714 -0.060118258 -0.062132537 -0.16304871 -0.3404604
0.00095082197 0.18333852 -0.27767545 0.2621694 -0.33818412 0.22361913 -0.17858772 0.027796267
-0.17717065 -0.08009256 0.21418945 -0.072642446 -0.35173663 -0.18382725 0.35672128 -0.3156791
-0.37637833 -0.0036770427 0.34580284 -0.19032201 0.22966085 0.0039070817 0.2804888 -0.31778657
0.14481941 0.41644993 0.17477854 0.20483084 -0.54890597 0.5538446 -0.42462727 -0.12106956
-0.17094712 0.069457695 0.05042271 0.23353809 -0.026604138 -0.5151764 -0.1015411 0.18285938
0.13736703 0.18063125 -0.14011134 0.16467166 -0.19021437 0.07159261 -0.180526 -0.27821565
-0.36042112 0.017794997 -0.13742721 0.073902726 -0.15023157 -0.18086195 0.1758531 -0.24500303
0.10250082 -0.32276258 0.21207374 -0.013000128 -0.21068604 -0.28592598 -0.23108834 -0.3637897
-0.34166262 0.10566043 0.3839858 -0.26687375 -0.2570861 -0.010870208 -0.3855323 0.33195126
-0.5218088 0.35515854 0.55625236 0.22137535 0.20975949 -0.65282947 0.6072745 0.35868856
0.2755743 0.29476845 0.1222292 -0.14391707 -0.011581182 0.36951974 0.0073667727 -0.2823539
0.2621109 0.18334474 -0.41207495 -0.1476407 0.265298 0.10595931 -0.43141752 -0.5016403
0.13519958 0.12404179 -0.34227937 -0.26289043 0.3138246 -0.17589717 -0.08187971 -0.3670358
-0.36216712 0.18982342 0.37193504 0.19592173 -0.3294741 0.31058562 0.16752677 -0.1225112
-0.10306177 -0.32825303 0.11905585 -0.32862997 0.15659806 -0.036557112 -0.33637038 -0.24338385
-0.08260689 0.26558408 -0.033700157 0.41977844 -0.028659083 -0.056553025 -0.09380327 -0.13279977
-0.36753818 -0.27220705 -0.20540597 -0.3272983 -0.28003162 -0.06513422 0.1917238 -0.46965927
-0.027251264 0.3773195 -0.3018956 0.23885876 0.14399575 -0.1961661 0.4900279 -0.2588681
-0.14670086 -0.1021317 0.046867255 0.072993964 -0.31774172 0.0021046528 0.10463475 -0.3519802
0.09671686 0.36811402 0.2217489 -0.13583238 0.5911144 0.23583609 0.30006674 0.057574995
0.33487687 0.21816736 0.5932894 -0.55227566 0.32572797 0.1420553 0.09902598 -0.2356928
0.582097 -0.127077 0.65759873 -0.22390409 -0.0347158 -0.1096923 0.19617991 -0.37629646
0.22566774 -0.4909273 0.4783602 -0.16060974 0.15501396 0.11397635 -0.30197167 0.0022427142
0.06586528 0.24426427 -0.309848 -0.22373077 -0.2659406 -0.21398546 0.21723509 0.0596422
-0.19883487 -0.12306953 0.03413379 0.25755572 0.502107 -0.25248155 -0.27009368 -0.35793835
00000000: f5f0 223e 784f 233e 72b5 bebe e4e0 573e
00000010: 2768 bdbe 6700 a33e 0749 963e 014d 92be
00000020: 87af 86be 5d47 143e d452 b63e 65ac e03d
00000030: 88a4 8bbe 265e c2be 449d 12bf 345e fc3e
00000040: 5651 de3e 2975 6d3e 2d3b 073e 0e96 aabd
00000050: ed45 42bd fb59 e6bd 5423 16be e14b 20bf
00000060: 51f2 ac3e 0abd 19bd 6f19 883e 3b17 503e
00000070: a603 98be b74e 103f b243 b13d 00f3 fa3c
00000080: 0b09 5c3e cea3 58be 49f7 723e c11c 273a
00000090: d496 44bd 3ed2 a13a 65c0 c0be 4801 b53e
000000a0: 494c 28be 1902 e43d bdcc 413e 4424 53bd
000000b0: 5c36 043f 81d1 a5be ac28 f83c 2ec6 833e
000000c0: f882 59be 408d cfbd 4c3f 81bd e4b9 9d3d
000000d0: 903e 76bd b07e 7ebd 3ef6 26be d350 aebe
000000e0: 9540 793a 18bd 3b3e 7a2b 8ebe 113b 863e
000000f0: 7826 adbe 6afc 643e b3df 36be ffb4 e33c
00000100: 396c 35be 9107 a4bd 7b54 5b3e 90c5 94bd
00000110: d316 b4be 363d 3cbe 2ca4 b63e b1a0 a1be
00000120: a9b4 c0be 8afa 70bb 120d b13e c6e3 42be
00000130: 372c 6b3e fa06 803b 3a9c 8f3e ecb4 a2be
00000140: 8a4b 143e ed38 d53e 25f9 323e 2dbf 513e
00000150: 1a85 0cbf c2c8 0d3f bf68 d9be 51f3 f7bd
00000160: c30c 2fbe d63f 8e3d 0b88 4e3d 9c24 6f3e
00000170: ecf0 d9bc 9ae2 03bf c8f4 cfbd 7d3f 3b3e
00000180: f1a9 0c3e 66f7 383e 5979 0fbe b09f 283e
00000190: 8ec7 42be 259f 923d cfdb 38be 4872 8ebe
000001a0: 1e89 b8be d0c6 913c b8b9 0cbe 505a 973d
000001b0: 4ed6 19be e033 39be d612 343e 13e2 7abe
000001c0: f3eb d13d 2341 a5be dc29 593e 7dfe 54bc
000001d0: 15be 57be e464 92be 6ca2 6cbe a542 babe
000001e0: 67ee aebe 7f64 d83d c999 c43e ada3 88be
000001f0: caa0 83be f518 32bc 7d64 c5be 84f5 a93e
00000200: 4395 05bf 57d7 b53e 8e66 0e3f 38b0 623e
00000210: 31cb 563e d51f 27bf 5776 1b3f 07a6 b73e
00000220: 1318 8d3e e4eb 963e 4e53 fa3d ff5e 13be
00000230: ffbe 3dbc b131 bd3e f864 f13b b190 90be
00000240: 6633 863e b9be 3b3e 7dfb d2be 202f 17be
00000250: 24d5 873e 3201 d93d c2e2 dcbe 806b 00bf
00000260: c271 0a3e 9f09 fe3d 3e3f afbe 9399 86be
00000270: 9ead a03e 631e 34be 8db0 a7bd 1eec bbbe
00000280: f86d b9be 1261 423e 456e be3e b59f 483e
00000290: d4b0 a8be 1405 9f3e 238c 2b3e 27e7 fabd
000002a0: 0d12 d3bd c810 a8be 8ed3 f33d 3042 a8be
000002b0: 3e5b 203e e9bc 15bd bd38 acbe 9e39 79be
000002c0: cd2d a9bd a3fa 873e 2d09 0abd 33ed d63e
000002d0: 74c6 eabc 25a4 67bd ee1b c0bd aafc 07be
000002e0: f72d bcbe b95e 8bbe f155 52be a593 a7be
000002f0: 4e60 8fbe 1765 85bd 3e53 443e 2e77 f0be
00000300: 0b3e dfbc 0630 c13e 0f92 9abe 6497 743e
00000310: 9f73 133e c4df 48be f0e4 fa3e 5c8a 84be
00000320: c038 16be 6d2a d1bd e1f7 3f3d dc7d 953d
00000330: 0baf a2be 37ee 093b be4a d63d c036 b4be
00000340: 7d13 c63d 7179 bc3e 2512 633e a517 0bbe
00000350: 4653 173f 047f 713e 59a2 993e c2d3 6b3d
00000360: fb74 ab3e 4467 5f3e d0e1 173f f061 0dbf
00000370: d1c5 a63e f276 113e 22ce ca3d 7459 71be
00000380: 4f04 153f 7920 02be 6458 283f 1d47 65be
00000390: 2832 0ebd 5ba6 e0bd 63e3 483e eea9 c0be
000003a0: 7215 673e d35a fbbe a1eb f43e e176 24be
000003b0: fbbb 1e3e 6f6c e93d 089c 9abe 80fa 123b
000003c0: 60e4 863d 6a20 7a3e 66a4 9ebe ae19 65be
000003d0: 5e29 88be 011f 5bbe e072 5e3e 614b 743d
000003e0: 5e9b 4bbe e10b fcbd dfcf 0b3d 58de 833e
000003f0: 168a 003f 4345 81be b849 8abe b243 b7be

bias f4 [40]
-0.24037339 -0.14814329 -0.06561329 0.3960538 0.1425312 0.046070945 0.05095589 -0.09650788
-0.27010816 0.055342488 0.4234742 0.13706678 0.54576313 0.37907046 -0.23470639 -0.294923
-0.27665076 0.15128267 0.027016573 -0.13533641 0.16189748 0.18401542 0.08625337 -0.33938655
0.08842852 -0.109649904 0.09374546 0.18589689 0.12521541 0.14383443 0.17400219 -0.35654747
0.3164152 -0.2572372 -0.36799294 -0.37732998 -0.18983892 0.019072661 0.28453526 -0.2076958
00000000: 7124 76be e0b2 17be 4360 86bd 90c7 ca3e
00000010: b3f3 113e e3b4 3c3d 20b7 503d eca5 c5bd
00000020: 9e4b 8abe ceae 623d 9cd1 d83e 3c5b 0c3e
00000030: 22b7 0b3f 8615 c23e df56 70be 2600 97be
00000040: 2ba5 8dbe d8e9 1a3e dc51 dd3c a195 0abe
00000050: 74c8 253e 8a6e 3c3e 9ba5 b03d 13c4 adbe
00000060: 031a b53d 2190 e0bd 9ffd bf3d c15b 3e3e
00000070: 7838 003e 5549 133e a12d 323e 648d b6be
00000080: 2c01 a23e 98b4 83be 9269 bcbe 6531 c1be
00000090: 2265 42be 453e 9c3c 9bae 913e 35ae 54be

weight f4 [40, 40]
0.06881297 0.09768222 -0.10761582 -0.072886005 -0.10206032 -0.14159296 0.049308434 0.066192135
-0.084342554 0.07426354 0.06862268 -0.050991952 -0.005891308 -0.013750032 0.04913014 -0.047875687
0.10256539 -0.032595605 -0.06262893 -0.11908837 0.03826222 -0.06553664 0.021812633 0.15532006
-0.10405356 -0.15146518 0.00435549 0.1558065 0.072726905 0.146405 -0.12801374 0.0061905533
-0.076837435 0.13256596 0.0236253 -0.048871815 0.10070585 -0.10496557 0.007015735 -0.089019224
0.042166695 0.06723912 -0.12876634 -0.054216187 -0.14625481 -0.0115182325 0.12265718 -0.1254088
0.061837513 0.063619316 -0.02745169 0.17375854 0.14514434 0.029971913 0.09098469 0.09187436
-0.10986261 0.037026364 0.24013357 0.022919066 -0.09988542 -0.09874112 0.14837289 -0.0055314875
0.063348845 0.06412446 -0.09751563 0.10969346 -0.1031986 0.0389058 0.023301076 0.12117411
-0.21467902 -0.052486002 -0.06204144 0.04634906 -0.015971914 -0.07385835 -0.071634345 0.071283445
-0.1388168 0.030954473 -0.054957815 -0.0021272907 -0.14732091 0.10433075 0.07749434 -0.10067726
-0.015323973 -0.116222635 0.052464914 -0.042609736 -0.026896484 0.11226666 0.119184986 0.013645783
-0.07169401 0.053368714 0.061656147 -0.057426486 0.13267505 -0.07409124 0.04390748 0.09150128
0.029914051 0.1394782 -0.008865244 -0.03878863 -0.14831167 -0.1309965 -0.1574333 0.019912424
-0.13747758 0.08084547 0.056310743 -0.11810903 -0.017415598 -0.032695662 0.1636091 0.04359129
0.014360562 -0.021330103 -0.10985705 0.0257601 0.12011881 0.09369378 -0.06599913 -0.068284035
0.0075379163 -0.0828079 -0.1410435 -0.028529331 -0.06807563 0.15500711 -0.13630655 0.12231915
-0.059953727 0.10244028 -0.10111672 -0.09544352 -0.07836397 -0.031736493 0.008647293 -0.06067478
-0.04906641 0.058610618 -0.05672937 0.102631405 0.048635885 -0.1476377 -0.11761844 0.10072343
0.087686196 0.14803936 -0.060270198 -0.03767518 -0.061674945 0.09639801 -0.14897265 0.00033058226
-0.08400494 0.1542414 -0.036912005 0.017875686 0.1242729 0.06054771 0.054433234 -0.15598199
-0.051431537 -0.11962378 -0.10652961 0.05182557 -0.1070866 -0.14678253 -0.10123348 0.07480663
0.0760403 0.13215275 -0.102803476 -0.0020907728 0.1411975 -0.033909403 0.13351317 0.038338277
0.14524677 -0.14187996 0.049463138 0.061408535 0.101197414 0.088867836 -0.10725654 0.13216355
-0.14380056 -0.058983736 0.054423466 0.087610155 0.112715445 0.0065837745 -0.022043794 0.067361504
0.047614302 0.12834086 0.010020146 -0.11595269 0.14484207 0.12285034 -0.05437104 0.11763157
-0.15339988 -0.07735737 0.09071496 0.0067308038 0.12955819 -0.0020455762 0.14021333 0.14658062
0.13517444 0.015179569 0.003981942 0.08155367 0.03228384 0.018015059 0.08824667 -0.122980066
-0.094425075 0.077545546 -0.09364398 -0.118604854 0.0267393 0.096270755 -0.019273175 -0.043430507
0.058887742 -0.035220586 -0.100177094 -0.12842022 0.14974326 -0.014320314 -0.03728911 -0.0146264285
-0.15022318 0.024598924 -0.04122963 0.042020135 -0.029897867 -0.034222454 0.0332574 0.13946368
-0.071251154 0.011674738 -0.005751606 0.08942634 0.05178124 0.10394384 -0.066222034 0.122649655
00000000: d0ed 8c3d 9e0d c83d af65 dcbd 4245 95bd
00000010: 0005 d1bd bffd 10be a4f7 493d be8f 873d
00000020: cabb acbd 7c17 983d 0c8a 8c3d f0dc 50bd
00000030: e00b c1bb d047 61bc b03c 493d 4c19 44bd
00000040: ce0d d23d f882 05bd 9943 80bd 9ae4 f3bd
00000050: d8b8 1c3d 1338 86bd 68b0 b23c 390c 1f3e
00000060: 081a d5bd b019 1bbe 80b8 8e3b bd8b 1f3e
00000070: d8f1 943d 31eb 153e 0916 03be 20da ca3b
00000080: f25c 9dbd 5fbf 073e d889 c13c d02d 48bd
00000090: de3e ce3d 30f8 d6bd 40e4 e53b b64f b6bd
000000a0: fcb6 2c3d aab4 893d 53db 03be cb11 5ebd
000000b0: d2c3 15be f8b6 3cbc b033 fb3d 2a6b 00be
000000c0: 5549 7d3d d84a 823d 5ee2 e0bc c2ed 313e
000000d0: b8a0 143e a887 f53c 2e56 ba3d a028 bc3d
000000e0: a6ff e0bd f5a8 173d 93e5 753e c4c0 bb3c
000000f0: ba90 ccbd c938 cabd 10ef 173e 7b41 b5bb
00000100: 0abd 813d af53 833d 46b6 c7bd f7a6 e03d
00000110: ca59 d3bd b05b 1f3d e6e1 be3c 222a f83d
00000120: d1d4 5bbe 90fb 56bd 2a1f 7ebd 83d8 3d3d
00000130: 88d7 82bc 0c43 97bd 07b5 92bd 0efd 913d
00000140: fe25 0ebe 3c94 fd3c 721b 61bd 046a 0bbb
00000150: 4bdb 16be 5cab d53d 5ab5 9e3d e12f cebd
00000160: 6711 7bbc 2206 eebd 73e5 563d 8c87 2ebd
00000170: 0456 dcbc 10ec e53d 4217 f43d 9092 5f3c
00000180: 4fd4 92bd 2799 5a3d 288b 7c3d 0938 6bbd
00000190: f8db 073e 26bd 97bd 54d8 333d 0665 bb3d
000001a0: 500e f53c 60d3 0e3e 873f 11bc d4e0 1ebd
000001b0: 04df 17be f223 06be 3236 21be 611f a33c
000001c0: ecc6 0cbe 4f92 a53d 18a6 663d 26e3 f1bd
000001d0: 28ab 8ebc e3eb 05bd 2589 273e c88c 323d
000001e0: 9048 6b3c 78bc aebc bcfc e0bd d806 d33c
000001f0: da00 f63d 86e2 bf3d 8d2a 87bd 80d8 8bbd
00000200: a000 f73b 3097 a9bd b56d 10be 58b6 e9bc
00000210: 3c6b 8bbd 2fba 1e3e f293 0bbe 7682 fa3d
00000220: 0a92 75bd 36cc d13d 4816 cfbd e477 c3bd
00000230: 4a7d a0bd 20fe 01bd 60ad 0d3c 1e86 78bd
00000240: dcf9 48bd b011 703d 0e5d 68bd 6a30 d23d
00000250: 6c36 473d 562e 17be f0e1 f0bd 1648 ce3d
00000260: d294 b33d a197 173e e2dd 76bd 4a51 1abd
00000270: de9e 7cbd 526c c53d 498c 18be 0052 ad39
00000280: c80a acbd 75f1 1d3e 0b31 17bd 0870 923c
00000290: ca82 fe3d e000 783d 62f5 5e3d beb9 1fbe
000002a0: e0a9 52bd 50fd f4bd 322c dabd 0d47 543d
000002b0: 3850 dbbd 294e 16be 8053 cfbd 3834 993d
000002c0: 04bb 9b3d 0d53 073e a18a d2bd 5905 09bb
000002d0: 1496 103e 96e4 0abd adb7 083e 9908 1d3d
000002e0: 92bb 143e fb48 11be dc99 4a3d 8487 7b3d
000002f0: 9740 cf3d 5700 b63d 51a9 dbbd e255 073e
00000300: 7440 13be ee98 71bd 24eb 5e3d f46c b33d
00000310: 5bd7 e63d b4bc d73b 3095 b4bc d4f4 893d
00000320: 3707 433d c96b 033e 8a2b 243c 9b78 edbd
00000330: 7b51 143e f698 fb3d 2bb4 5ebd d2e8 f03d
00000340: dc14 1dbe 8a6d 9ebd c4c8 b93d 138e dc3b
00000350: e7aa 043e 130f 06bb 1594 0f3e 3b19 163e
00000360: 2b6b 0a3e bab3 783c f37a 823b 9c05 a73d
00000370: 0f3c 043d 5194 933c acba b43d f9dc fbbd
00000380: ef61 c1bd 33d0 9e3d 6ac8 bfbd 1ae7 f2bd
00000390: 600c db3c 9a29 c53d c7e2 9dbc 30e4 31bd
000003a0: 4634 713d 7643 10bd a629 cdbd 9780 03be
000003b0: 4c56 193e c09f 6abc 77bc 18bd b0a3 6fbc
000003c0: 1bd4 19be af83 c93c 67e0 28bd 4e1d 2c3d
000003d0: 5fec f4bc d82c 0cbd e938 083d 91cf 0e3e
000003e0: 20ec 91bd 6647 3f3c f877 bcbb 2825 b73d
000003f0: 9118 543d 82e0 d43d 6b9f 87bd be2f fb3d

bias f4 [40]
-0.018204853 0.04533133 0.1472158 -0.14954829 0.042195167 -0.078359574 -0.12882833 0.2657816
0.025022907 0.14647502 -0.015049025 -0.06296557 0.0054366286 -0.051182386 0.18345241 -0.111681506
0.23576133 -0.08738261 0.2347364 -0.07692021 0.008619974 -0.11349842 -0.12102411 -0.078464806
-0.07790601 0.02763147 0.021825649 0.043799307 0.13845071 -0.20953754 -0.13854997 -0.24140157
0.20604813 0.12009617 -0.021039251 -0.08102505 -0.027109787 -0.02081332 0.01280675 0.24687958
00000000: 5822 95bc 58ad 393d bdbf 163e 3023 19be
00000010: d7d4 2c3d fc7a a0bd 93eb 03be 8714 883e
00000020: d7fc cc3c 8cfd 153e 3090 76bc 18f4 80bd
00000030: bf25 b23b 9fa4 51bd f3da 3b3e 46b9 e4bd
00000040: 6b6b 713e a7f5 b2bd bd5e 703e 5888 9dbd
00000050: cb3a 0d3c dc71 e8bd 7ddb f7bd 28b2 a0bd
00000060: 308d 9fbd 645b e23c b4cb b23c e766 333d
00000070: 06c6 0d3e 0291 56be 0be0 0dbe f931 77be
00000080: 48fe 523e fbf4 f53d 825a acbc 76f0 a5bd
00000090: 5815 debc b280 aabc 67d3 513c 00ce 7c3e

weight f4 [1, 40]
0.044101015 -0.30693805 -0.08669498 0.011743888 -0.043481648 0.043776363 0.054118566 -0.59487855
0.5218394 -0.2831975 -0.6213145 0.0061544627 -0.8218014 0.504927 0.27998003 0.1562809
-0.92359275 -0.29755297 -0.4195112 0.23301187 -0.09458485 -0.180289 -0.11237541 -0.052799515
-0.6625593 0.17955478 -0.27569228 0.30557534 -0.31246832 0.65981734 -0.048841037 0.8357962
-0.5928427 -0.4127422 0.5047091 0.6308352 0.37278032 0.23341957 0.40701148 -0.65917516
00000000: 44a3 343d fc26 9dbe 238d b1bd 7069 403c
00000010: d019 32bd d84e 333d 6eab 5d3d f649 18bf
00000020: 4497 053f 43ff 90be 780e 1fbf 60ab c93b
00000030: 9461 52bf e542 013f 8b59 8f3e 1a08 203e
00000040: 9370 6cbf dd58 98be 2cca d6be aa9a 6e3e
00000050: b4b5 c1bd ae9d 38be 1425 e6bd 4e44 58bd
00000060: 7c9d 29bf 35dd 373e 8a27 8dbe 5f74 9c3e
00000070: d9fb 9fbe cae9 283f 8a0d 48bd bdf6 553f
00000080: 8ac4 17bf f252 d3be 9e34 013f 6a7e 213f
00000090: 10dd be3e 8a05 6f3e cf63 d03e b4bf 28bf
