learning/model3/dnn/model_6.pth (torch, 11163 bytes, 5 tensors)

weight f4 [40, 7]
000000 79 53 8a be c7 d3 92 be 01 4a 62 bd 20 2c 11 3e
       -0.2701681 -0.28677198 -0.055246357 0.14176989
000010 33 b1 a6 3e c0 cf 27 3e d1 70 b8 be 58 a1 0c bf
       0.32557067 0.16387844 -0.36023572 -0.5493369
000020 e1 dd 28 3f 51 c3 dc 3e 94 5e 08 3e d5 43 0b 3e
       0.6596356 0.43117765 0.13317329 0.13600095
000030 87 bd f6 bd 53 b6 41 3d 08 c5 06 be 96 9d a2 be
       -0.12047868 0.04729302 -0.13161099 -0.31760854
000040 56 37 0e 3f 06 43 00 3d 75 91 c6 3d 0f a4 1a bd
       0.55553186 0.03131392 0.096957125 -0.037754115
000050 60 0e d4 3b b4 18 c1 3e fd dd c5 be b2 b0 e1 be
       0.00647144 0.3771416 -0.38645926 -0.4408012
000060 ac 9e e6 3d 33 86 1b 3e 47 e2 56 3e ff 68 ae bc
       0.11260733 0.15187912 0.20984755 -0.0212903
000070 49 13 e3 3e 0d 54 07 bf 72 14 0b bf 90 43 52 3e
       0.4435065 -0.52862626 -0.5432807 0.20533586
000080 be c0 36 3e 30 24 1a 3e 26 55 b9 3d 62 6b bf bd
       0.17846963 0.15052867 0.09049444 -0.093466535
000090 94 34 0e be 51 23 56 be 3c 19 a4 3e 6f 53 84 be
       -0.13887244 -0.2091191 0.32050502 -0.25844905
0000a0 2a 63 a6 be e6 05 18 3e b1 92 46 bd f3 e2 a7 bc
       -0.3249753 0.14846 -0.04847974 -0.02049396
0000b0 d0 c0 46 bc d4 e2 2d be 6e 8e 3d 3e b6 e4 58 3e
       -0.012130931 -0.1698106 0.18511364 0.21180996
0000c0 69 9c 1b be df c4 b6 bd b4 bf 33 be 4e 45 2a 3e
       -0.15196384 -0.08924269 -0.17553598 0.16628
0000d0 03 dd 76 be 97 da ab 3e df 05 8a 3d e9 f1 c0 bd
       -0.24107747 0.33565208 0.06739401 -0.09421141
0000e0 9b b8 a7 bd 0f e8 f5 bd 7a 4f 93 3e e0 44 4e be
       -0.081895076 -0.12007152 0.28771573 -0.20143461
0000f0 59 00 bc be 99 c5 a6 3e 39 80 29 be 26 ba 77 be
       -0.36719015 0.3257263 -0.1655282 -0.24192104
000100 49 69 9e be 58 67 f0 3d bc 20 e8 bd 9d bc 87 be
       -0.309397 0.11738461 -0.113343686 -0.26511088
000110 5c cd b4 be 10 42 84 be ff d0 a2 be 96 1b 10 3f
       -0.35312927 -0.25831652 -0.31800076 0.5629209
000120 9d 11 85 be ab bf 29 bd a4 90 01 be 9f bd 1c bd
       -0.2599 -0.041442554 -0.12652832 -0.038266774
000130 36 4a d2 bd 86 4e c2 3e 41 13 fa be 3a be 91 3e
       -0.10268061 0.37950534 -0.48842815 0.28465444
000140 4f 1a 31 3d e3 92 ab bd 04 71 04 3e 26 63 5d be
       0.04323798 -0.08377626 0.12933737 -0.21619853
000150 fb 3b 35 bd 64 43 bd 3d b1 f8 16 3f ff a4 cb 3e
       -0.044246655 0.09241369 0.5897322 0.3977432
000160 30 ab a5 3e 65 b5 2c 3e 7e 68 3a 3b 9a db 38 bd
       0.32357168 0.16866072 0.002844363 -0.045131303
000170 18 46 83 3e 00 47 0c bf 76 33 9b 3e 06 73 9b 3e
       0.25639415 -0.5479584 0.303127 0.30361193
000180 0f 86 00 3c 79 93 42 be d5 f1 04 3f 9d bc 04 bf
       0.007844462 -0.19001569 0.51931506 -0.518503
000190 52 d2 b5 3d 60 61 b2 bd d9 b4 48 bc 6f e6 12 3e
       0.08878006 -0.08709979 -0.012250149 0.14345716
0001a0 f0 fc aa 3e a2 50 32 3f f6 0e 39 bf 76 05 4b 3f
       0.333961 0.69654286 -0.72288454 0.7930521
0001b0 a1 68 92 bd f9 fe de bc 1f 0e c0 bd 94 c9 c9 bd
       -0.07148863 -0.02722119 -0.093776934 -0.09852901
0001c0 fd f8 10 be 8c df c6 3d 25 02 98 3e 59 c2 e0 3e
       -0.14157481 0.09710607 0.29689136 0.43898275
0001d0 81 e9 54 be d9 47 c8 bd 07 fc 22 be a5 6a d9 be
       -0.207922 -0.09779329 -0.15916453 -0.42464176
0001e0 3d 6a 55 bd b2 41 40 bf 93 e7 b8 3e 73 53 ba 3e
       -0.05210327 -0.75100243 0.36114177 0.36391792
0001f0 43 95 63 3c fc cb 88 39 27 84 d9 be 9d 8c a5 3e
       0.013890567 0.00026091922 -0.42483637 0.32333842
000200 e5 5c d5 be e0 d2 bd bd e6 c8 9d 3d 78 53 f6 bd
       -0.41672435 -0.09268737 0.07704334 -0.12027639
000210 af ee 35 3e eb d4 20 be 61 30 cc 3e bc 80 c0 bd
       0.17766832 -0.15706222 0.3988066 -0.09399554
000220 c1 a7 e1 3e ad f7 e5 bd 4a 18 f0 bd d4 ad 82 3d
       0.440733 -0.11228881 -0.11723383 0.06380811
000230 72 b6 5a be 3f 11 59 3d 98 5b 82 3e bf d7 02 bf
       -0.2135866 0.052994963 0.25460505 -0.5111045
000240 1b 11 13 bf b6 4c 10 3e 81 f1 9d 3d ba 7e b3 bb
       -0.57447976 0.14091763 0.07712079 -0.0054777535
000250 3c 8e 21 3e a1 63 71 be a2 41 61 3e 2f 8d da bc
       0.15776914 -0.23573162 0.21997693 -0.02667865
000260 df fa 51 3e 90 a9 4d 3e 9d b3 d0 bd 32 bc 7d 3e
       0.20505856 0.20084214 -0.101905085 0.24778822
000270 f2 1a b9 bd bd 58 35 bc a2 bb 7a be ed 17 81 be
       -0.090383425 -0.01106852 -0.24485639 -0.25213566
000280 f4 58 87 be e7 86 d0 be 56 e9 b2 3e 85 1e 13 3f
       -0.26435053 -0.40727922 0.34943646 0.57468444
000290 86 6b 1b bd ae 95 c3 3b 6f e7 9a 3e c9 67 3b be
       -0.03794434 0.005968771 0.30254695 -0.1830131
0002a0 f2 25 9c 3e 88 21 ae 3e 2a 9e 16 3f ae ec 9b 3e
       0.304977 0.34009957 0.5883509 0.3045401
0002b0 bf e2 a7 be e0 04 63 be d2 da 82 3e 76 3c 94 be
       -0.3279018 -0.22169828 0.25557572 -0.28952378
0002c0 50 04 70 3e b0 d6 c6 bd e6 fd 89 be 3d 81 2a be
       0.23439145 -0.09708917 -0.26951522 -0.16650863
0002d0 a8 00 28 3e 14 b4 a2 be 22 83 cd be 6d a5 eb 3e
       0.164065 -0.31778014 -0.4013911 0.46024647
0002e0 07 71 c5 3e 72 75 94 3e fe cb 72 3e a2 8f 83 3e
       0.38562796 0.28995854 0.2371063 0.2569552
0002f0 20 ac 75 3e 1a 51 a0 be 97 64 ee 3e 44 14 86 be
       0.23991442 -0.31311876 0.4656112 -0.26187336
000300 19 d9 2d bd 87 f2 9f bd 1a eb cb 3d 8a f1 d3 3d
       -0.04244337 -0.0780993 0.099569514 0.10348804
000310 11 86 ac be d2 c9 ed 3e d8 81 88 3e 31 4a 3c 3e
       -0.33696035 0.4644304 0.26661563 0.18387677
000320 0a 9e 55 3e c5 5c ff bd b7 81 58 3e b2 23 a5 3d
       0.20861068 -0.12468866 0.21143232 0.08063449
000330 01 49 2b be bf aa 3d be 27 16 44 3e 88 e3 27 bd
       -0.16727068 -0.18522166 0.19149075 -0.040988475
000340 af bc 8d be 1b 55 2b bd 00 38 7a 39 fa 4c 73 be
       -0.27683017 -0.04182921 0.0002386272 -0.23759833
000350 a0 ea 7b bd a0 6d c3 bc f0 bb e2 3c a4 d7 f0 bd
       -0.061503053 -0.023855984 0.027677506 -0.1175988
000360 00 98 78 bc e8 10 f2 be 61 25 a4 3e 73 ba 8e 3e
       -0.015172958 -0.47278523 0.32059768 0.27876624
000370 39 d2 ec 3e db 73 a7 3e 56 84 bf 3e 8f 17 9d 3e
       0.46254137 0.32705578 0.37405652 0.30682036
000380 03 6e 12 3f 08 13 a0 be 89 8f fd be fe 40 4d 3e
       0.57199115 -0.3126452 -0.4952357 0.20044324
000390 0e 90 d0 bd 5b b7 ad bd 9d 69 cd 3d dd 7d e4 be
       -0.10183726 -0.08482238 0.1002991 -0.44627276
0003a0 73 e0 3a 3e 4a 28 17 bf 9c 73 3b 3f 9a b1 3f 3f
       0.18249683 -0.5904585 0.7322328 0.74880373
0003b0 1a a7 c6 3c 81 55 5a 39 34 7a 5b be bb a3 24 be
       0.024249602 0.00020821953 -0.21433336 -0.16078083
0003c0 dd 04 48 3f 4f e5 19 bf de 44 c5 be 37 73 72 be
       0.7813242 -0.6011552 -0.38529104 -0.23676763
0003d0 95 6c 61 3d ec b4 23 bf d3 e7 08 3f fa 10 61 3e
       0.055035193 -0.6394794 0.53478736 0.21979132
0003e0 06 f2 9a 3e 08 8f 11 3e b2 0e 76 be 91 9a 2e 3d
       0.30262774 0.14214718 -0.24029043 0.042627875
0003f0 26 07 f3 3b 93 92 36 be 94 fb c2 3d 68 80 8d 3d
       0.0074166236 -0.17829351 0.09520641 0.06909257

bias f4 [40]
000000 ae 32 c0 be fc f6 df bc ff c0 06 3e ab 56 10 3d
       -0.37538666 -0.027339451 0.1315956 0.035238903
000010 d8 c2 d6 3e 3d ac 30 bc 12 12 ab be 55 68 db 3c
       0.4194553 -0.010783252 -0.33412224 0.026783148
000020 92 07 7c be c0 f9 a8 bd b2 21 ef 3e 68 d6 94 3e
       -0.24612263 -0.08250761 0.46705395 0.2906983
000030 af 80 29 bf 80 81 88 bd ec 3a 3d ba 6f 4a 13 bf
       -0.6621198 -0.06665325 -0.0007218558 -0.5753545
000040 f0 2d 84 3e 01 ec 53 3d ef 7e eb 3e 2b bc c7 3e
       0.25816298 0.051738743 0.4599528 0.39010748
000050 3c 44 37 3e 75 27 7b 3d 20 11 86 3e 6a 6f d3 3e
       0.17897123 0.061316926 0.2618494 0.4129594
000060 ac 70 7a 3e 4d 3c bd be 03 a6 14 bf d2 16 45 3e
       0.24457043 -0.36960068 -0.58065814 0.19246987
000070 84 bf 88 bd 36 dc 6b be de 29 99 be 15 a0 14 3e
       -0.06677154 -0.23033223 -0.29914755 0.14514191
000080 1a 62 59 3e 52 30 3b be d4 da d7 3d a4 91 5c 3e
       0.21228829 -0.18280151 0.10539785 0.21539932
000090 2c 41 92 bc 3f e4 2e 3d f8 e0 46 be 98 46 04 be
       -0.017853342 0.04269814 -0.19421756 -0.12917554

weight f4 [40, 40]
000000 05 1b 0a be 06 b9 19 be 78 e1 84 be 75 d2 99 3e
       -0.1348687 -0.15011987 -0.2595327 0.30043378
000010 f5 2c dd 3e 3e 8a be bd 98 1d 21 3e ec fd cd bc
       0.43198362 -0.09303711 0.15733945 -0.025145493
000020 e6 06 f4 3d 2c e0 2c bd ed a7 ff bd 27 55 9f 3e
       0.11915378 -0.042205974 -0.12483201 0.31119654
000030 f0 2d 28 be 6f 87 6b be 4b 02 bb 3e c1 d8 86 be
       -0.16423774 -0.23000883 0.36525187 -0.26337245
000040 b6 9d 0c bd 7a cc 42 be a1 71 09 be a9 54 dd 3b
       -0.034330092 -0.19023314 -0.13422252 0.006754477
000050 ab 3d bb bd a6 ac 54 3d 3d bd 01 be 15 97 bb be
       -0.091426216 0.051922463 -0.12669845 -0.36638704
000060 7d a3 98 be ed 3a 43 bc 9e bb 22 be a9 b1 8a bb
       -0.29812232 -0.0119159045 -0.15891883 -0.0042326045
000070 15 c4 74 bd 28 8d 14 3d c1 11 98 bd fa dc a1 be
       -0.05975731 0.03626743 -0.07425261 -0.31613904
000080 09 1f ec 3e cf 51 43 be ee c7 de bd a7 14 aa bd
       0.46117428 -0.19074176 -0.10877977 -0.0830472
000090 74 de 30 3d c5 55 4c bd f9 78 a8 3d 06 8d 8e 3d
       0.043180898 -0.049886484 0.08226199 0.06960492
0000a0 c7 be 21 3d 12 bc b0 3d fe d7 0f 3d 6c de 57 3d
       0.03948858 0.086296216 0.035118096 0.052702352
0000b0 12 95 0c be 79 01 1c be fd f0 12 be 89 b5 ec 3c
       -0.13728741 -0.15234937 -0.14349742 0.028895156
0000c0 f6 eb 51 3d 72 73 d1 3d 5a 93 10 bd c5 53 e3 bd
       0.05125042 0.102270976 -0.035296775 -0.11099962
0000d0 01 43 b3 bd 43 ad 41 bd e1 3b 21 bc e8 c9 bd bd
       -0.08753014 -0.047284376 -0.009840936 -0.09267026
0000e0 72 18 be 3d df 77 94 3d 77 12 08 3e e4 73 9b bd
       0.09282006 0.07249426 0.13288294 -0.07590464
0000f0 24 38 d4 3c da 9d ac 3d 77 69 b5 bc fb cd 7b 3d
       0.025905676 0.08428545 -0.022145016 0.061475735
000100 85 12 82 bd cf dd 1b be e3 55 9e 3d ac 81 c7 bd
       -0.063511886 -0.15221332 0.07731225 -0.0974153
000110 26 ac 28 3e 0c 82 3a bd 54 dc 0e be b4 70 d6 3d
       0.1647192 -0.04553418 -0.13951236 0.10470715
000120 bf 08 c3 bd 3a 41 95 3d b9 4a d5 3c 75 9d da 3d
       -0.095231526 0.072878316 0.026036607 0.10674564
000130 b0 84 26 3d 62 32 18 3e 9e af 1c be 3e d4 94 3c
       0.040653884 0.1486297 -0.15301368 0.018167611
000140 87 65 02 3d 3b a9 51 be 43 39 ee 3c f6 94 a3 3d
       0.031835105 -0.20474713 0.029080039 0.079873964
000150 c7 25 1e bc 8d d4 f3 3d 92 b5 0b 3e eb 77 71 be
       -0.0096525615 0.11905775 0.13643482 -0.23580901
000160 4a 26 f5 3b c0 a8 9b 3d 1c e6 9b 3e 51 15 ae be
       0.007481371 0.07600546 0.30448997 -0.34000638
000170 dc bc bc be 50 73 7c 3e b3 d4 bd be eb 1a 32 bd
       -0.36862838 0.24653363 -0.3707634 -0.043482702
000180 2e cd 47 bd 63 c3 8a 3e d8 d5 a2 3e ec a0 ef 3d
       -0.04877966 0.27102193 0.31803775 0.11700615
000190 5b 78 80 3e 7d 96 3f 3e cf a4 4d 3d 93 f3 e8 3d
       0.25091824 0.1870975 0.050206 0.11374583
0001a0 e8 f8 02 be ab 18 d8 bc 23 9d fc 3d b8 81 84 3e
       -0.12790263 -0.02637895 0.12334659 0.25880218
0001b0 bf f1 b4 3c fb 64 44 3d 1b c2 0b 3e 22 fc 43 3e
       0.02208793 0.047947865 0.13648264 0.1913915
0001c0 df cc 2d 3d a5 51 ff 3e a8 f2 80 3e 74 d4 06 be
       0.04243171 0.49866977 0.25185132 -0.13166982
0001d0 b2 5b cb bb 27 f2 79 bd 2c b3 73 3d e3 80 44 3e
       -0.0062059993 -0.06102195 0.059497043 0.19189791
0001e0 68 99 a7 bd b0 8a 30 bc de 36 f5 bd c6 f5 5c bd
       -0.08183557 -0.010775253 -0.11973356 -0.053945325
0001f0 ed f7 90 bd 42 87 b1 3d dd 8e e1 bd e0 99 e9 bb
       -0.07078538 0.086683765 -0.11013577 -0.007128939
000200 4f 22 09 3e b5 13 d8 bd 03 1e 21 be 4a 67 21 bd
       0.13391994 -0.10550634 -0.15734105 -0.039405145
000210 18 14 6d 3d 70 75 3a 3d 93 6d 0f 3e 66 a4 10 be
       0.05788049 0.045522153 0.14006643 -0.14125213
000220 1e d9 c2 3d d8 08 fd 3c 20 ed a6 3d 1a 57 ce bd
       0.09514068 0.030888006 0.08150697 -0.10075207
000230 9c ab 10 bd 6e 25 13 be 00 cf 54 3d 6a aa 0a be
       -0.03531991 -0.14369747 0.051955223 -0.1354157
000240 70 8d 5c bd d0 65 db 3c 60 de 63 3c ec 09 96 bd
       -0.053845823 0.026781946 0.013907999 -0.07326111
000250 48 d7 56 bd f7 95 b3 bd 48 78 b6 3c f0 2b 4c 3c
       -0.052451402 -0.08768838 0.022274151 0.012461647
000260 c6 38 a0 3d 18 d5 b9 bc fc 8a d8 bd a2 f1 cc 3d
       0.07823329 -0.022684619 -0.10573384 0.10007025
000270 9e ee e6 3d 18 fa 06 bd 00 54 ff 39 94 f1 06 bd
       0.11275981 -0.03295335 0.00048699975 -0.03294523
000280 fc 51 c5 3d 95 0d 7c be ce 9c 48 be ff f1 33 3d
       0.09634778 -0.24614556 -0.19591066 0.043931957
000290 c0 ff f1 3d 3a 27 3c bc 79 11 08 3e a5 72 47 bc
       0.118163586 -0.011483962 0.13287915 -0.0121733295
0002a0 47 2e e6 3c a0 53 45 bc a0 06 7c 3e 12 8d be be
       0.028098239 -0.012043864 0.24611902 -0.37217003
0002b0 ec 65 96 be bc ef ab 3e 3b e4 92 be 93 0d 07 3d
       -0.29374635 0.3358134 -0.2868975 0.03297193
0002c0 ea 14 2b be 8a df 08 3e 8f 0d 4e 3e 2e dc ab 3e
       -0.16707197 0.13366523 0.2012236 0.3356642
0002d0 e0 c7 7d 3e e5 8a 1e 3e 20 81 26 be e8 c8 1e 3e
       0.24783278 0.15482672 -0.16260195 0.15506327
0002e0 b9 39 15 be df 5f 61 bd 9f fc e0 3c 7b 13 8f 3e
       -0.145728 -0.05502307 0.02746421 0.2794455
0002f0 1a 37 83 3d 87 90 a4 3c 5e 1d c0 3d e5 ac 4f 3e
       0.06406994 0.020088447 0.09380601 0.20280798
000300 a4 8f 5c bd d1 94 8d 3e 2f fb 7b 3e 00 3f dc 3d
       -0.053847924 0.276526 0.24607538 0.10754204
000310 ee 3d b7 bd aa 81 2a be 7b f6 9d 3d ee 12 db 3d
       -0.08947359 -0.16651025 0.07713028 0.1069697
000320 cc b9 22 3c e5 75 1d 3d 65 d9 7f bd da 62 24 bd
       0.009931993 0.03844251 -0.062463183 -0.040133335
000330 ed 89 f0 bb 51 be b8 3d e2 8a 83 bc 50 3b 6e 3d
       -0.007340661 0.09020675 -0.016057435 0.058162034
000340 1f 27 ac 3d 90 e3 8f bc 76 09 5f 3d 36 b2 1b be
       0.08405899 -0.017564565 0.054452382 -0.15204701
000350 43 10 6b 3e d2 93 1c be bd 5b ae bd 75 cb e4 bc
       0.22955422 -0.15290764 -0.085135914 -0.027929047
000360 ea 79 11 3e 1a 80 94 3d 34 84 7c 3d 61 e2 12 bd
       0.14206663 0.07250996 0.061649516 -0.035860423
000370 29 42 51 be f0 93 d2 bd 97 47 44 3e 21 b0 f1 3d
       -0.20435394 -0.10282123 0.19167934 0.11801172
000380 84 a7 f9 bb 73 48 0e 3e 91 d6 94 3d 34 61 29 bd
       -0.0076188464 0.13894825 0.07267488 -0.041352466
000390 a9 fb a4 3c 21 0e 15 bd 0e dd fe 3d 69 58 80 3d
       0.020139532 -0.036390428 0.124445066 0.06266863
0003a0 ca b5 3b be 74 9d 85 3c 0f 48 1b be 15 eb 5c 3e
       -0.18331066 0.016310431 -0.15164207 0.21574052
0003b0 2c 3e 0b 3e 89 1f ae bd e6 56 34 3d 2e f4 c0 ba
       0.13597935 -0.085021086 0.044028185 -0.0014721209
0003c0 28 0b 16 bd 92 0f db bd 63 88 b5 3d a8 99 ff bd
       -0.036631733 -0.10696329 0.08863904 -0.124804795
0003d0 9a 59 6e bd b1 6a 73 3d 06 54 73 3d db 01 90 bc
       -0.05819092 0.05942792 0.059406303 -0.01757901
0003e0 62 36 06 3e 18 b7 0d be 64 e0 60 bd 74 a8 4a 3d
       0.13106683 -0.13839376 -0.054901496 0.049477056
0003f0 2d a3 a3 bc 8a 2d 20 bd 6e 55 be bd 32 da 04 3e
       -0.01997527 -0.03910593 -0.09293638 0.1297386

bias f4 [40]
000000 e6 10 70 3e 65 fd e1 bc 89 68 2b 3e c6 a8 10 be
       0.23443946 -0.027586648 0.16739096 -0.14126882
000010 9a bc 07 3e e5 b7 41 3d 70 3c 20 bb bc 73 10 3e
       0.1325554 0.047294516 -0.0024450086 0.14106649
000020 da 6a fc 3d 10 e1 85 3d fe cf 79 bb e6 21 cb 3d
       0.12325068 0.06537068 -0.0038118358 0.09918575
000030 d1 bd 16 be f2 71 db 3b 18 c3 33 bc a6 b0 a4 3d
       -0.14720847 0.006696933 -0.010971807 0.080415055
000040 27 46 53 3b a1 b2 3f 3e 2e 15 d8 3d 0b 0f ca bc
       0.003223786 0.18720485 0.10550915 -0.024665376
000050 5e 3e ad bc 3f 37 10 3e 46 3c cd bd a2 da 4f be
       -0.021147903 0.14083575 -0.10021262 -0.20298246
000060 a2 13 43 3e fb 21 0d be 4d f9 01 be 60 5e 39 3e
       0.19050458 -0.13782494 -0.12692757 0.18102407
000070 9d 44 75 3e 27 fd fe 3d 6e 09 b0 3c b6 1a 36 be
       0.23951955 0.12450629 0.021488871 -0.17783627
000080 af e6 fa 3d a1 16 30 be b5 18 1a 3e 7e b2 7e 3c
       0.12251031 -0.17196132 0.15048487 0.015545486
000090 22 20 07 3d e2 4d 91 bd 36 f6 0c be 6e 1e 94 3d
       0.03298963 -0.07094933 -0.13765797 0.072323665

weight f4 [1, 40]
000000 f2 e5 8a 3f 8a 69 d0 3d cb 45 8b bf 5c 42 76 3d
       1.0851424 0.1017638 -1.0880674 0.06012188
000010 2d 48 79 bf 94 a8 bd 3e 5d fb 1c bd f9 37 28 be
       -0.97375757 0.37042677 -0.038325656 -0.16427602
000020 b7 7e 08 3f d3 45 b3 3d 71 74 af 3f b0 e2 61 3e
       0.5331835 0.08753552 1.370741 0.2205913
000030 d6 18 84 3b 4d ad 5b bf a2 ec 0c be 13 0a 55 be
       0.004031281 -0.8581131 -0.13762143 -0.20804624
000040 b0 c9 e2 bd b1 e6 5d 3e ff 85 52 3e e0 fe 92 3f
       -0.11073625 0.21670033 0.20558928 1.1484032
000050 83 0a 5d be 28 5e 45 bf c4 6f 28 bd 16 46 60 3f
       -0.21586041 -0.77096796 -0.041122213 0.8760694
000060 f0 e3 5a be ff 33 33 3e 6f 57 23 3e 23 43 60 bf
       -0.21376014 0.17500304 0.15951322 -0.8760244
000070 23 3b fa 3e 5e eb 20 be 3e 0e 3e 3e 0b ea d7 3d
       0.48873243 -0.15714785 0.1856012 0.10542687
000080 cd 3d 80 bf bb 65 a3 bd 14 f7 33 bf ac 0d 32 3e
       -1.001886 -0.07978388 -0.70298886 0.17388028
000090 f2 48 a2 be ce 73 8f bf 2a 16 97 3d 8f e8 d2 3c
       -0.31696278 -1.1207216 0.07377274 0.025745658
