learning/model3/dnn/model_7.pth (torch, 11163 bytes, 5 tensors)

weight f4 [40, 7]
000000 06 43 21 3e ae 90 de be 54 17 d7 3e 55 04 82 3e
       0.15748224 -0.43469757 0.42009985 0.2539393
000010 61 05 47 3e 3c c8 08 be 3a 56 c2 be 40 6c 82 bd
       0.19435646 -0.13357633 -0.3795641 -0.06368303
000020 e1 4f 9f be 8f 44 4b 3d 6e 9a 8f 3e ce 87 fd bc
       -0.3111563 0.04962593 0.28047508 -0.030948546
000030 25 3e a5 bd 96 65 b4 37 0d 1b da be ca be c5 3e
       -0.08068494 2.1504977e-05 -0.42598763 0.38622123
000040 ef 70 bd 3e 29 22 d4 3e b0 1c c3 3e 5f 3e c3 bd
       0.37000224 0.41432312 0.38107824 -0.09533381
000050 ba 5e 86 be 27 2b 16 3f 2f 6a eb bc 27 ec 37 bf
       -0.26244146 0.58659595 -0.028737156 -0.71844715
000060 81 a4 02 bf bb 5c 55 be 08 25 7a 3d d3 15 8c 3e
       -0.51032263 -0.20836155 0.061070472 0.273604
000070 33 00 fe 3b 8d 2f 23 be cb 95 e1 bd 3d da 9f bd
       0.0077514886 -0.15936108 -0.11014899 -0.078052975
000080 9c 8a 66 be 29 ad 76 3e 78 18 6d be 1b e1 0a bd
       -0.22513813 0.24089493 -0.23153865 -0.033906084
000090 fc 54 45 be ae dc a7 be 18 56 ee 3e 5b 28 b9 3e
       -0.192707 -0.32785553 0.4655006 0.361636
0000a0 5d e9 96 bd 1c f7 65 be b2 8a 38 bf 31 70 73 3f
       -0.07368729 -0.22457546 -0.7208663 0.95093066
0000b0 75 86 1b 3f ec 50 29 3e b1 83 37 3e 42 53 35 3d
       0.6075204 0.16534775 0.1792133 0.044268854
0000c0 87 51 2a 3e 09 48 bb be 54 fc e0 bd d6 d7 0b be
       0.16632663 -0.36578396 -0.10985628 -0.13656554
0000d0 cb 56 94 3e df 02 9b 3e 75 ba 7c 3d 08 18 c4 3e
       0.28972468 0.30275628 0.061701257 0.38299584
0000e0 0b 01 99 be d4 31 71 bc 44 3a 28 bf 19 3a 54 3e
       -0.29883608 -0.014721353 -0.65713906 0.20725287
0000f0 65 86 0d 3f 5a 77 9d 3d 1a 9e 98 38 b8 31 90 3e
       0.55283195 0.0768878 7.2773735e-05 0.28162932
000100 58 ca b1 bd f7 e0 39 3f 98 a3 bc be 03 b7 bc be
       -0.08681172 0.72608894 -0.36843562 -0.36858377
000110 c3 17 bd bd 40 10 37 39 ad 12 5e be 65 49 88 3d
       -0.09233048 0.00017458294 -0.21686812 0.06654624
000120 9d f2 0a 3f 5a 56 be be 34 36 a2 be cc d6 49 be
       0.5427645 -0.37175256 -0.3168198 -0.19710845
000130 b8 65 67 be 70 1c 34 3e 12 1c e8 3e 53 f2 87 3e
       -0.22597396 0.17588973 0.45333916 0.26552066
000140 a8 98 33 be 72 da 41 3e 06 d9 62 be 15 cd 86 be
       -0.17538702 0.18930987 -0.221531 -0.2632834
000150 1c 50 0e bc 9a cf f1 3e e7 01 98 3e fa 0a c6 3e
       -0.008686092 0.472287 0.2968895 0.3868025
000160 4b 44 e6 bc c0 47 20 3e 45 12 b1 3d 08 5d e1 3d
       -0.028108737 0.1565237 0.08646063 0.110040724
000170 81 7d 50 bc 30 a3 aa be d9 bd 3d 3e 6a 3b df 3e
       -0.012725235 -0.33327627 0.18529452 0.43600017
000180 0f 66 ad 3e 80 fc 0a be c8 c3 0a be 48 02 56 3d
       0.33866927 -0.13572884 -0.13551247 0.05224827
000190 20 d7 c2 bc 1e 35 74 be 29 29 3e be 24 23 70 be
       -0.02378422 -0.23848388 -0.18570389 -0.23450905
0001a0 da d9 95 be 51 99 47 3e 08 8c 71 3e b3 86 72 3d
       -0.2926777 0.1949208 0.23588574 0.05921049
0001b0 37 91 b9 be 82 15 9e 3e a2 a7 b2 3e 54 ff 4e 3e
       -0.36243603 0.30875784 0.3489352 0.20214587
0001c0 3a 9a 81 3e 95 59 b8 be 76 44 1a 3f d6 3d 1c bf
       0.25312978 -0.36005846 0.60260713 -0.61031854
0001d0 10 c7 a6 be 99 4a a8 bd 6c ec 95 39 f5 d6 1f bf
       -0.32573748 -0.082173534 0.00028595643 -0.62437373
0001e0 07 90 2d 3f b6 10 09 bf 8c 4e 3c be 0a a7 5d be
       0.67797893 -0.53541124 -0.18389338 -0.21645752
0001f0 cf 2d 67 bd 67 72 68 bd 34 b2 89 be 35 b2 97 be
       -0.05644017 -0.056749728 -0.2689377 -0.2962815
000200 32 4c 15 3d 11 d7 3a 3e b5 2d b1 bd a9 9f 4e be
       0.03644962 0.18246104 -0.08651296 -0.20178093
000210 9c cc 56 3e fe 92 13 3f e8 62 d5 bd cb 16 ad be
       0.2097649 0.5764617 -0.104192555 -0.33806452
000220 e8 15 7b 3d f0 ce 88 3e 88 16 74 be e1 2b 67 be
       0.06130019 0.2672038 -0.2383672 -0.22575332
000230 21 c0 a8 3d 05 a0 41 be aa 6e 37 3a a3 db bd 3e
       0.08239771 -0.18908699 0.0006997386 0.37081632
000240 6b f5 01 3e 9b 2a 06 3e 06 eb a8 3d 45 88 b3 3e
       0.12691276 0.1310219 0.08247952 0.35064903
000250 ab 04 21 be 21 63 56 3e 1a a4 a2 3e 7b f7 90 3e
       -0.15724437 0.20936252 0.31765825 0.28313813
000260 53 66 8e be 27 9c 81 3e c2 b3 15 3e 24 bb df 3d
       -0.27812442 0.25314447 0.14619353 0.10924366
000270 73 12 f4 3e 55 63 09 bf 46 a1 32 bf 94 2d a9 3e
       0.47670326 -0.53667194 -0.69777334 0.33042586
000280 e8 85 2d 3e c6 28 f9 3d 9c ff fe bd b3 19 ba 3e
       0.16945612 0.1216598 -0.12451097 0.36347732
000290 ad 17 12 3e ce 67 50 3e 5a 6a 63 3d eb 03 49 be
       0.14266844 0.20352098 0.055521347 -0.19630401
0002a0 7d a0 ab 3d d8 c0 39 be 4e b2 48 3e 95 64 14 bd
       0.0838022 -0.1813997 0.19599268 -0.036228735
0002b0 35 b7 ae 3e c9 7b 22 be 1a 71 9e bc 0f 9a 2f 3e
       0.3412415 -0.15867533 -0.01934104 0.17148612
0002c0 dd 3d 46 be 9d 69 72 bc e2 30 5a bd ca 6b 89 bc
       -0.19359536 -0.014795688 -0.053269275 -0.01677503
0002d0 c3 94 cd bc 6d 66 99 3e ad cb 20 3e 26 d0 56 3e
       -0.02509535 0.29960957 0.15702696 0.2097784
0002e0 f8 f5 82 be cc 3c 89 be 46 ec 4a 3e 4d 8b 38 be
       -0.25578284 -0.26804197 0.19816694 -0.18021889
0002f0 f3 ed 90 be c6 c4 06 3f 68 05 f6 be 5d c6 84 3e
       -0.2830654 0.52644 -0.48051 0.2593259
000300 10 ad 13 3e e8 f2 cb 3e 52 3e ce be 4f 6a 55 3e
       0.14421487 0.3983376 -0.40281922 0.20841335
000310 73 d1 da 3d 7b d3 96 bd 16 d0 5b 3d 40 fb b7 be
       0.106844805 -0.073645554 0.053665243 -0.35933876
000320 98 c5 b1 3e d0 60 e6 3d 8a 64 e1 3d 40 14 9b be
       0.34721065 0.11248934 0.110055044 -0.30288887
000330 14 a6 f6 3d 89 f1 d7 3d ec 09 2c 3f fb 8f 97 be
       0.12043396 0.10544116 0.6720264 -0.29602036
000340 5a a3 99 be d0 2e d5 be a5 c0 00 3e ad 8f db 3e
       -0.3000744 -0.41637278 0.12573488 0.42883053
000350 f1 bf d5 be 83 e1 05 bd 5c 68 30 bd f8 bb de bd
       -0.41748002 -0.032685768 -0.043068275 -0.10875696
000360 9e 45 d1 bd c8 e7 b9 be 6e a8 5e be d9 7c 19 3f
       -0.102183565 -0.36309648 -0.21743938 0.5995613
000370 bb ca f0 3e 80 60 08 3e 55 a6 65 3e 79 99 8d 3e
       0.4702967 0.13318062 0.22426732 0.27656153
000380 21 49 56 3e e9 71 36 be 83 c0 29 3d 67 24 6f 3e
       0.20926334 -0.17816891 0.04144336 0.2335373
000390 4d 7e c9 be 1c 00 b2 3e 4a 2b eb bc d1 99 34 bf
       -0.39354172 0.34765708 -0.028707165 -0.70547205
0003a0 72 09 65 3f 79 f3 63 bf bc e6 82 3e 9a b1 26 3e
       0.8946754 -0.89043385 0.2556666 0.16278687
0003b0 be 11 2a 3e 60 4d 1d 3e e0 e5 2d 3f af ea 16 bf
       0.1660833 0.15361547 0.67928886 -0.5895185
0003c0 9e 56 37 3c 40 48 a2 3e 27 b6 b1 be 91 52 c5 3e
       0.011190085 0.31695747 -0.34709284 0.38539556
0003d0 41 d7 73 3e aa b0 83 3d aa 41 ac 3e 72 50 fe be
       0.23812582 0.0643018 0.33643848 -0.4967075
0003e0 5a da 01 3f 5f 7e dd 3e 53 30 e4 3c 6c fa 7d bd
       0.50723803 0.43260476 0.027855074 -0.0620064
0003f0 54 1c 0b bf 3f f9 19 3f 1d 6c 95 3e 9e 04 fb 3d
       -0.543401 0.60145944 0.29184046 0.1225674

bias f4 [40]
000000 e1 5a e3 3c 7e 4a 9f 3e fa 7d 8f be c5 87 00 3f
       0.027753295 0.3111152 -0.280258 0.5020717
000010 66 69 19 bc 17 4e 45 3e de 71 8d be 2f d8 a9 be
       -0.009363508 0.1926807 -0.27625936 -0.33172747
000020 6d d4 70 3c ef 16 b2 3d a6 13 fa 3c 5e 6c b7 3d
       0.014699084 0.086957805 0.030526947 0.08956216
000030 8f 8e 87 be 4f e6 06 3d 84 96 98 be df 9a 83 3e
       -0.2647595 0.032934483 -0.29802334 0.25704095
000040 1a 60 b8 3e 0e f3 4e 3f 80 0c 4d 3d f6 ef a8 3e
       0.3601082 0.8083962 0.05006075 0.32995576
000050 18 2b a2 3e 99 03 8d 3e d7 c7 df bd 09 48 97 3d
       0.31673503 0.27541807 -0.10926788 0.073867865
000060 cc 35 89 bc df 5b 73 be 96 d3 6b 3d 7d 73 82 be
       -0.016749285 -0.23765515 0.05757483 -0.25478736
000070 98 07 37 be 37 05 43 3e 54 1d a0 3c b9 05 72 bd
       -0.1787399 0.19044958 0.019545235 -0.05908749
000080 93 03 a0 3e 89 93 c3 3e 81 8a 0e be b3 d6 ab be
       0.31252727 0.38198498 -0.13920023 -0.3356224
000090 67 cd 6d bd 91 07 0f be f8 91 70 be ed 7b 83 bd
       -0.058057215 -0.1396773 -0.23493183 -0.06420121

weight f4 [40, 40]
000000 72 fc 12 be ef 5c e6 bd 62 ea a9 bd 0f 26 1b be
       -0.14354113 -0.112481944 -0.08296658 -0.15151237
000010 0a f9 62 bb 6d 9c 89 bd 93 88 e2 bc 84 d9 0d be
       -0.0034633302 -0.06719289 -0.027653014 -0.13852507
000020 42 32 89 3c 62 1f 01 3e d4 23 da bb 18 6d ea bd
       0.016747598 0.12609628 -0.006657103 -0.11446589
000030 87 79 51 3d 54 f6 0b 3e 6a 24 1f bd 98 1b 0e bb
       0.051141288 0.13668185 -0.038853087 -0.0021683928
000040 54 65 09 be 5f a0 10 3d f1 c7 8c bc 2e ce f2 3b
       -0.1341756 0.03530919 -0.017185183 0.0074098324
000050 61 1b 24 be 62 e1 8a 3d 15 28 a5 bd 62 73 47 3c
       -0.16026069 0.067812696 -0.08064286 0.0121735055
000060 b2 95 1f 3e 2c 79 d6 bd 3f 44 9a 3d 95 cc c9 bc
       0.15584448 -0.104723305 0.07532548 -0.024633685
000070 f0 01 e9 3d 20 b1 17 bd 0a 66 22 be 18 da 8e 3d
       0.11377323 -0.037034154 -0.15859237 0.06975192
000080 90 26 c7 3d a5 d2 7b bc 5d 66 86 3d 57 ba ab 3d
       0.09724152 -0.015370046 0.06562493 0.08385151
000090 db 56 54 3c 20 97 84 3d cc 13 87 3d ba 15 1a 3d
       0.012960161 0.06474137 0.06595573 0.037618376
0000a0 83 fb 8f 3d 3b cc ec bd 83 68 da bd 33 9e 0d be
       0.07030394 -0.11562391 -0.10664465 -0.1382988
0000b0 62 8d f2 3c bb c5 a2 bd f5 0c 10 3d 13 54 00 be
       0.029608432 -0.0794787 0.035168607 -0.12532072
0000c0 6e 34 b8 3b df 2f e5 bb df d5 0e be 8e 72 05 3e
       0.0056214845 -0.006994232 -0.13948773 0.1303198
0000d0 b3 0b 89 3d 3b aa e3 3d d8 3e 04 bd d7 f3 87 3d
       0.066916846 0.11116453 -0.032286495 0.06638306
0000e0 5c fb fb bd 95 a6 0e be 11 f9 0a 3e cc dd 12 bd
       -0.12303802 -0.13930734 0.13571574 -0.035856053
0000f0 b5 c5 0c 3b 08 b6 f2 bd e4 7d 28 3d 90 b0 8f 3c
       0.0021480147 -0.11851126 0.041135684 0.017540246
000100 9b 7c b4 bc 90 fb a1 bc 8d d1 db 3d b1 60 99 bd
       -0.022032073 -0.019773275 0.10733328 -0.074891455
000110 e3 06 e9 3c 56 53 15 3d 8e 14 0e be 3f 3c 01 be
       0.028445667 0.03645643 -0.13875028 -0.12620638
000120 1f 14 84 3d 62 36 03 be 9f d9 bc bd 9f ff 33 3d
       0.0644915 -0.12813714 -0.092211954 0.04394495
000130 74 ce 11 3d cc a9 09 be ab 88 f7 bd a4 d2 4f bd
       0.03559728 -0.13443679 -0.12086614 -0.050737992
000140 0f 4a 11 be d7 0f c2 bd 3d 6f 8e bd 7e c7 e3 3d
       -0.14188407 -0.094756775 -0.06954811 0.111220345
000150 f7 6c 0a 3e 5a 98 80 3d fd 95 f2 3d 81 0c 04 bc
       0.1351813 0.06279059 0.11845014 -0.008059622
000160 00 be ed ba c3 be 78 3d 50 83 6b bd b0 28 4e bc
       -0.001813829 0.0607288 -0.057498276 -0.012582943
000170 49 69 85 bc 80 b6 1b bc de 98 3c bd 26 c9 1e be
       -0.016285555 -0.009503961 -0.046044223 -0.1550642
000180 0b 36 a7 bc 0d 86 0c be 50 45 b4 bc c0 3a c7 3b
       -0.020411512 -0.13723011 -0.022005707 0.0060800016
000190 0c e1 45 3d d2 00 94 bd 45 82 6b 3c 75 14 39 3d
       0.048310325 -0.07226719 0.01437432 0.045185525
0001a0 e0 1c 99 3d 15 ff 4f bb fa 8b f8 3d d5 72 18 3e
       0.074762106 -0.0031737734 0.121360734 0.14887555
0001b0 c0 8f 5c bd b5 41 45 bd 9c a5 9b 3d 30 ea 0e 3e
       -0.05384803 -0.048158366 0.07599947 0.13956523
0001c0 fe d5 9a 3d a8 15 04 bd 9d 6e 99 bd e2 7e a2 3d
       0.07560347 -0.032247216 -0.07491801 0.07934357
0001d0 0e 7a dd 3d 60 81 03 be 95 51 ad bd bc 63 78 bd
       0.10814296 -0.12842321 -0.08462826 -0.06064199
0001e0 90 1e 0a 3e f3 35 d3 bd b7 57 81 3d a4 fc bd bd
       0.13488221 -0.10313024 0.063155584 -0.09276703
0001f0 80 d4 ec 3b c2 ba ed bc c5 10 e7 bd a5 13 1e 3e
       0.0072274804 -0.029019717 -0.112824954 0.15437181
000200 e5 aa 09 3e 39 07 81 3c 19 e1 08 be 23 61 94 3d
       0.13444097 0.015750514 -0.13367118 0.0724509
000210 ce f2 d9 bd 1a f9 13 be f0 14 a0 3d 8a de b0 bd
       -0.106420144 -0.14450493 0.078164935 -0.08636196
000220 aa 04 09 3e 36 b5 3f 3d 1c 93 b8 bd c7 5a b2 b8
       0.13380685 0.046803676 -0.09012434 -8.50461e-05
000230 e4 61 06 be 51 58 9d 3d a4 e8 1c be 9a 7c 09 3d
       -0.1312328 0.07682861 -0.1532312 0.033566095
000240 e2 64 86 bd e5 f9 64 bd a3 43 a2 bd 65 3d dd 3d
       -0.065622106 -0.05590238 -0.07923057 0.10802726
000250 28 1f 1e 3e f4 a4 f1 bd b4 00 36 bd c3 12 3d bc
       0.15441573 -0.117990404 -0.044434264 -0.011540118
000260 66 ff cd 3c cb e5 c8 bd 10 3e 71 3d 10 c2 ff 3d
       0.025146198 -0.098094545 0.058897078 0.12488186
000270 9d 44 ae bd 08 10 5c 3d a1 0a 9d bd 18 b6 d9 bd
       -0.08509181 0.053726226 -0.07668043 -0.10630435
000280 15 01 06 be d2 4e 18 be 25 c3 c2 bd 04 05 d9 bb
       -0.1308635 -0.14873818 -0.09509877 -0.0066229124
000290 f1 11 f3 3d ef 70 9e 3c 9a dc 98 bb cd 2f 99 bd
       0.118686564 0.01934096 -0.0046649696 -0.074798204
0002a0 7a 6e 9a bd c8 cb 0d be b3 1f 81 3d b7 02 5a bd
       -0.07540603 -0.13847268 0.06304874 -0.053225245
0002b0 c5 6e bd bd af 27 70 3d 58 f4 96 bc 78 ec 09 3d
       -0.09249643 0.058631595 -0.018427059 0.03367278
0002c0 1f 2d 28 bd b9 9d bc bd 5d 5d 0e 3c ce d5 a1 bd
       -0.041058656 -0.09209771 0.008689252 -0.07902108
0002d0 c0 8a 67 bd eb d9 94 3d f9 67 83 3d bb 05 db bd
       -0.056528807 0.07268127 0.064163156 -0.106944524
0002e0 54 6d 03 3e a9 dc a5 bb 7c 3d 0a bd 66 b3 eb bd
       0.12834674 -0.005061705 -0.033750042 -0.11508827
0002f0 84 e3 01 be d4 2c fd bc af 63 c1 3d c3 00 e7 3d
       -0.12684447 -0.030905165 0.09442841 0.11279442
000300 23 68 20 3e 9a f2 0f 3e 54 36 d6 bd 4f 20 d5 bd
       0.15664725 0.14057389 -0.10459581 -0.10406553
000310 41 89 df 3d 39 d3 bd 3d b5 83 a4 bb 9c 80 08 be
       0.10914851 0.09268803 -0.0050205835 -0.1333031
000320 41 4a fa bc 69 b4 71 3d 78 6f 13 be 01 7e bf 3d
       -0.030552985 0.059009943 -0.1439799 0.09350205
000330 15 da e6 3d 83 6a 25 3e 87 78 e4 3d cc 8b 0f be
       0.112720646 0.16153912 0.11155801 -0.14018172
000340 32 4e 9f 3d 0b 0c ae 3d 5a ff ea bd e0 d7 87 bd
       0.077785864 0.08498391 -0.11474486 -0.06632972
000350 85 df ff 3d 63 a9 67 bd 7e 5d d7 bd 5f 6e 17 3d
       0.12493805 -0.056558024 -0.10515879 0.036970492
000360 54 83 69 3c f2 e9 86 bd d6 0f 20 3e 1c 95 7c bd
       0.0142525025 -0.0658759 0.15631041 -0.06166564
000370 2b 46 ee 3d 8d 9a 97 3d 2b 81 da bc ab b7 71 3d
       0.11634477 0.07402525 -0.02667292 0.05901305
000380 84 4c 55 3d 2c f4 fe bd d8 2d 43 3c b4 95 3d bd
       0.052074924 -0.12448916 0.0119127855 -0.046285346
000390 d4 7f fe bd 8e 74 9d bc 10 86 66 bd 31 20 cf 3d
       -0.12426725 -0.019220617 -0.056280196 0.10113562
0003a0 f6 f7 02 3d 1b 1b 3c be bc 04 00 3e c0 16 0d be
       0.031974755 -0.18369715 0.12501806 -0.1377821
0003b0 7d 2a 07 3e 8b d2 a9 3c 3d 26 0d be e7 13 8d bd
       0.13199802 0.020730278 -0.13784118 -0.06888562
0003c0 5a cd 39 bd 56 3f c1 3d db e9 0f 3e b8 32 52 be
       -0.045361854 0.094359085 0.14054053 -0.2052716
0003d0 4c 51 aa 3d 7d 46 15 be 7d a6 35 bd 3c c5 db bd
       0.083162874 -0.1457767 -0.04434823 -0.10730979
0003e0 d5 58 71 bd 3b e7 14 3e 89 d9 b6 3b cf f4 07 3e
       -0.058922607 0.14541332 0.0055801314 0.13276981
0003f0 68 24 c6 3a 11 51 2c bd 00 7a dc ba 8e b4 1e bd
       0.0015117051 -0.0420695 -0.0016821027 -0.03874641

bias f4 [40]
000000 e5 f7 a3 bd 77 9f 0d 3e da dd c4 bd 25 9c 0f be
       -0.080062665 0.13830362 -0.09612627 -0.14024408
000010 69 ba 46 3d e4 8c 8a bd cb 22 23 3e 12 77 0e 3e
       0.04851762 -0.06765154 0.15931241 0.13912609
000020 be 07 19 be cd 87 2b 3e 01 b2 5f be 51 6c 15 be
       -0.1494436 0.16751023 -0.21845247 -0.145921
000030 ad b8 b8 bc ac 9e 3b 3c ca 7f 17 be 65 07 95 3d
       -0.022548998 0.011451405 -0.14794841 0.07276801
000040 13 11 1c 3e 68 42 18 3e 2d ff 8a bc f6 25 bb bc
       0.15240888 0.14869082 -0.01696738 -0.02284525
000050 45 6e cb 3d 3a 30 cb 3d d9 60 76 bd 6d 8d 07 bd
       0.099331416 0.09921308 -0.060150955 -0.03309386
000060 4d e2 be bd 68 58 91 bb 2d da 3a 3c f9 f5 b6 3d
       -0.09320507 -0.0044355877 0.011404556 0.08933634
000070 0b c1 63 3c 07 2e ec 3d aa 2b a3 3d d1 84 2c 3d
       0.0139010055 0.115322165 0.07967313 0.04211885
000080 c9 a5 71 bc b1 98 93 bc 9f 2f 64 3e 46 ab 8f 3c
       -0.014748999 -0.018017145 0.22283791 0.017537724
000090 a2 4c b4 3d 24 36 5a bc 7e f0 bc 3d d9 5b 20 be
       0.08803679 -0.013318572 0.09225558 -0.15660037

weight f4 [1, 40]
000000 11 ea cf 3c 14 34 a4 bc 03 cf bc bc 36 c7 4c 3d
       0.025380166 -0.020044364 -0.02304793 0.04999467
000010 5f be 8c bc d2 81 46 3e bd 8b ad be 18 5b 84 3e
       -0.01718062 0.1938546 -0.33895674 0.2585075
000020 40 49 35 bc 6e 8a e4 3e e5 01 db be 4b 23 1b bf
       -0.011064827 0.44636863 -0.42774883 -0.6060073
000030 40 6d be 3f f2 8b f8 3d ba 9d ca 3d ed 7f da 3e
       1.487709 0.121360675 0.09893365 0.42675725
000040 d4 97 2c bf f3 8f 68 be ec 66 47 3d 21 ec 9b bf
       -0.6741917 -0.22711162 0.04868214 -1.2181436
000050 ae 5b 14 be bb 37 d8 3d d9 af 3f bf b0 47 94 bf
       -0.14488098 0.10557505 -0.748777 -1.1584377
000060 de 5f 8b 3d 6b 65 8b be e8 5f 31 bf bc c0 a0 3f
       0.068053946 -0.27225813 -0.69286966 1.2558818
000070 5e 7c 6e 3f 37 f2 a1 3f 76 93 a4 3e 81 e7 dc bc
       0.9315852 1.2652043 0.32143754 -0.026965858
000080 98 37 8b bf 87 4c 85 3c f2 14 8f 3e 53 17 23 3e
       -1.0876341 0.016271843 0.27945668 0.15926866
000090 32 7a c0 bf 5e ec 0d 3d db 38 73 be e2 93 af bd
       -1.5037291 0.034649245 -0.23752157 -0.08573128
