learning/model3/dnn/model_16.pth (torch, 11163 bytes, 5 tensors)

weight f4 [40, 7]
000000 e0 37 3e be 09 21 31 be 61 05 9a be ae b5 ba be
       -0.18576002 -0.17297758 -0.3008223 -0.36466736
000010 35 d8 61 3e df a0 06 be 34 1d 0f 3e 2c 54 94 3e
       0.22055133 -0.13147305 0.13975984 0.28970468
000020 76 e1 41 bd 37 62 23 be 08 50 0e be 4b 11 b8 3e
       -0.047334157 -0.15955435 -0.13897717 0.35950693
000030 ba 72 05 3d 75 59 db 3d f9 ba 1f 3e d1 16 fe 3e
       0.032580115 0.10710422 0.15598668 0.49626783
000040 7b 55 b7 3e de 53 69 3e 22 72 7d 3e 1b 37 39 3c
       0.35807404 0.22785899 0.2475057 0.011304642
000050 da 00 d3 3e a7 5d 02 3e 2a ae a5 be d6 54 1e be
       0.41211587 0.12731038 -0.3235944 -0.1546205
000060 b8 34 13 be a7 73 1e bd 12 ca 90 bd d6 cf ae be
       -0.1437558 -0.038684513 -0.07069792 -0.3414294
000070 ca eb 8b be 50 28 d1 be a0 ab 19 3e f9 f4 83 3e
       -0.2732833 -0.40851068 0.15006876 0.25772837
000080 92 37 8d bd 55 1b 07 3e 5d c2 9f 3e 71 89 87 3e
       -0.06895365 0.1319402 0.31202975 0.26472047
000090 75 f1 9a 3d 34 98 5d bd 81 4f c1 be be 93 b5 3d
       0.075655855 -0.05410023 -0.3775597 0.0886607
0000a0 b1 da 88 3e 8b e5 42 bd 7e ca b8 be 4c ac b1 be
       0.26729348 -0.04758219 -0.3609199 -0.34701765
0000b0 93 da 87 3e 0d 75 53 bc ed e5 f6 3d db d8 fc bd
       0.26533946 -0.012906325 0.120555736 -0.123460494
0000c0 e5 74 35 3e c2 08 c9 bc 04 32 8b 3e d2 7e 1d be
       0.17720373 -0.024540309 0.27186596 -0.1538041
0000d0 1b 95 9d 3d 9c ca 5b 3d d0 e7 fd 3d aa 76 4d 3e
       0.07694455 0.05366002 0.1239773 0.20064798
0000e0 46 78 b4 be 24 88 39 be 4d 83 27 3e 80 0a 2c 3d
       -0.3524801 -0.1811834 0.16358681 0.0420022
0000f0 6d 17 09 bd a9 9a b7 be d9 95 bb 3d 9c b4 0d 3d
       -0.033469606 -0.35860184 0.091594405 0.03459607
000100 33 57 71 3e fe c8 a9 be 4c 18 92 3e cc cf c2 3e
       0.2356842 -0.33161157 0.28534162 0.3804916
000110 34 4f ae be d0 04 ff 3b 9e 97 04 3f 48 de af be
       -0.34044802 0.007782556 0.5179385 -0.34349275
000120 3d 28 0f 3c 3f 54 c9 3e 99 e2 33 3e 84 e6 d6 bd
       0.008737621 0.39322087 0.17566909 -0.10493186
000130 6c 36 96 3e 04 6c 1d be 4c bb c2 3e 01 d8 25 bc
       0.29338396 -0.15373236 0.3803352 -0.0101223
000140 8a ed 90 be 73 e0 f2 be b4 e2 a4 3d 03 4d 04 3e
       -0.28306228 -0.47436866 0.08051053 0.12920003
000150 7c 7f 81 be c1 32 02 3e 85 c4 0d 3f 60 70 4d bf
       -0.25292575 0.12714674 0.5537799 -0.80249596
000160 03 8c 39 bf 23 60 45 bd 4f 6f 05 be c8 d8 94 bd
       -0.72479266 -0.048187386 -0.13030742 -0.0726791
000170 06 2d b2 3e 12 91 c0 3e 08 cc f8 3d ac 52 ad bd
       0.34799975 0.3761068 0.12148291 -0.08463034
000180 31 eb b5 bd 0d 72 a1 3e a4 a2 09 be d4 1d 8b 3e
       -0.0888275 0.31532326 -0.13440949 0.27171195
000190 db 41 f1 3e 4c f8 cb 3e a1 66 ec bd c3 3b 7c 3e
       0.47120556 0.39837873 -0.115430124 0.24632172
0001a0 93 51 c0 3a 90 ab d6 bd 88 2b 4b bd 3c c2 5d 3e
       0.0014672749 -0.10481942 -0.04960206 0.21656126
0001b0 17 2e 43 3e 63 a4 94 3d 8b c8 8d 3e b7 7b aa 3e
       0.1906055 0.07257917 0.27692065 0.33297512
0001c0 23 b1 fc bd cf 2c d8 3e 8f bc ac 3e 19 fe d1 bd
       -0.12338474 0.42221686 0.3373761 -0.102535434
0001d0 d1 04 02 bd 1f 84 92 3e 08 50 92 3d f6 c9 95 be
       -0.031742875 0.28616425 0.07144171 -0.29255646
0001e0 b5 f1 28 be 40 63 db bc de 7e 58 be 1b 98 4c be
       -0.16498454 -0.026780725 -0.21142146 -0.19979899
0001f0 81 dc ba be 4c 3b a4 3d 29 a9 c9 3e b7 dc bd be
       -0.36496356 0.080191225 0.3938687 -0.37082455
000200 41 2a bc be 3e 5d ce be e2 90 1d 3e c7 93 a0 3e
       -0.36750987 -0.40305513 0.153873 0.31362745
000210 93 1d 0d be e9 6a 4d 3e 7a e5 0b 3e fa 97 1c 3e
       -0.13780813 0.20060314 0.13661757 0.1529235
000220 a2 34 71 be e7 d1 7c be 14 bb bf be a0 a1 99 be
       -0.23555234 -0.24689446 -0.37447417 -0.30006123
000230 45 2b d8 be 0d c2 ef 3c d5 2e 42 3e 63 32 9c 3e
       -0.42220512 0.029267335 0.18963178 0.30507192
000240 fb 4e 2a 3e f1 2f 34 be b5 4a d2 3c a7 a8 f0 be
       0.16631691 -0.17596413 0.025670389 -0.47003672
000250 5c 8e 6a be 80 a5 bc 3e 03 15 05 3f aa 09 1e be
       -0.22905868 0.36845016 0.51985186 -0.15433374
000260 d8 03 13 be 80 27 70 bd 09 93 ee 3e ed dc e3 be
       -0.14356935 -0.05863142 0.46596554 -0.4450449
000270 93 bd 08 bd 44 43 79 3e f2 41 b5 3d 1d 14 7a 3e
       -0.033383917 0.24342066 0.08850469 0.24421735
000280 57 36 84 3e b6 24 64 3e ff f6 bf be c8 27 45 be
       0.25822708 0.22279629 -0.3749313 -0.19253457
000290 0c 04 91 bd b8 7e 4f 3e af dc 70 be 78 f2 8c 3e
       -0.0708085 0.20263183 -0.23521684 0.2752874
0002a0 a3 98 cf be 72 db 0d 3f 2a e2 f7 3e af fc f7 3e
       -0.4054614 0.5541297 0.48414737 0.4843497
0002b0 6f cb 08 3f 39 89 63 be b2 eb 5f be ab fe 47 bd
       0.53435415 -0.22220315 -0.21867254 -0.048826855
0002c0 c5 7a 36 3e 7b 1e 2a 3e b9 3a 55 3e d4 b6 37 be
       0.1782027 0.1661319 0.20823182 -0.17940837
0002d0 1b d4 6d 3e 9d 59 87 3e 3e 04 af 3d 56 9c 3a 3d
       0.23225443 0.26435557 0.08545731 0.04555925
0002e0 cd 9c 8c 3e fe 8f b8 be f7 fb a1 be 3a 08 26 be
       0.2746338 -0.36047357 -0.31637546 -0.16214076
0002f0 7d de 8a be 08 b3 06 be 14 96 6e be 07 8d 9c 3d
       -0.2712287 -0.13154233 -0.23299438 0.07644086
000300 38 e0 eb bd 98 75 34 be 9c d3 9f 3d 65 45 9e be
       -0.11517376 -0.17622983 0.07804033 -0.3091232
000310 29 09 e1 3e b8 b4 e8 be 49 5e 1e 3e b4 a5 e8 bd
       0.439523 -0.45450377 0.15465654 -0.1135973
000320 b8 ce 2f 3d 2c d2 cb be cd 32 0e be 8f 3f 14 bf
       0.04292175 -0.39808786 -0.13886566 -0.5790948
000330 96 70 fb 3e 54 64 c4 be d9 d9 66 be 77 c6 a4 be
       0.49109334 -0.38357794 -0.2254404 -0.32182667
000340 f4 bd 02 3e 8e b0 df 3c dd 70 02 3e 68 d4 9b 3e
       0.12767774 0.027305868 0.12738366 0.3043549
000350 fb 6c 8b be 0c 3a c3 3e 1e c0 f5 be 19 39 f0 3c
       -0.27231583 0.38130224 -0.47998136 0.029324101
000360 05 59 cd 3e bd 88 05 3e ec 66 24 be e8 0b 05 3e
       0.4010698 0.13040443 -0.16054887 0.12992823
000370 a9 a5 0c be 90 26 76 be 6c d0 e4 3d 3a 59 a9 be
       -0.1373507 -0.24038148 0.11172566 -0.33075887
000380 b3 78 02 bf a4 4b 11 3f ad ed 36 3f 14 ec 23 3e
       -0.5096542 0.56756043 0.71456414 0.16008025
000390 00 dc a6 3e 9c b0 68 3e 87 cc c6 bc eb 6c 23 be
       0.32589722 0.22723621 -0.024267448 -0.15959518
0003a0 8d e1 07 3f e0 5b 12 3f 07 2d 54 3e a1 30 8f be
       0.5307854 0.5717144 0.20720302 -0.27966788
0003b0 2d 2b a5 be cb d4 56 be 28 0e 81 be 10 c9 91 bd
       -0.32259503 -0.20979612 -0.25206113 -0.07118428
0003c0 10 a7 f4 bc 22 e9 b1 be 79 45 3b be 88 a6 cd bd
       -0.029864818 -0.3474818 -0.1828822 -0.10041529
0003d0 83 bc 6c be 36 43 84 3e 36 5a 2b 3e 71 70 b2 be
       -0.23118787 0.25832528 0.16733631 -0.3485141
0003e0 e5 e3 01 bd 55 7a dc be 2c 7e 8c be bf 02 f9 3d
       -0.031711478 -0.43062082 -0.27440012 0.12158727
0003f0 97 bd 84 be 84 66 0f 3f ee f1 79 bf 55 b9 05 3f
       -0.25925896 0.560158 -0.9763478 0.5223592

bias f4 [40]
000000 87 5c 71 3e 99 4b 88 bd bb dd bf be ca e0 8f 3d
       0.23570453 -0.06655044 -0.37473854 0.07025297
000010 7b fc c1 3d bc 83 47 be 26 53 06 ba 3e e4 63 be
       0.09471985 -0.19483846 -0.00051240844 -0.22255036
000020 f8 92 b7 3d e2 a5 c7 3e 54 a1 be be 81 07 84 3e
       0.08963579 0.38993746 -0.3723246 0.25786975
000030 fb f5 96 3e ab 50 94 be a8 6c 19 3d 6e b9 98 3e
       0.29484543 -0.28967795 0.03745714 0.29828972
000040 85 cf 1e 3e 22 37 92 be 03 18 bc 3d 80 63 b8 be
       0.1550885 -0.28557688 0.09184267 -0.36013412
000050 03 a7 fd 3c d3 53 5d be 04 e0 b3 be 92 61 9d be
       0.030963426 -0.21614008 -0.35131848 -0.30738503
000060 ab b8 15 3e 78 96 69 3e 2f c8 64 3e 2d 23 f3 bc
       0.14621226 0.22811306 0.22341989 -0.029679859
000070 a5 60 ca 3e 5e 7f 14 3f a2 5e 42 be 12 e4 fa 3e
       0.3952686 0.58006847 -0.18981412 0.4900213
000080 41 88 10 bf 7a db 60 3e 40 e3 03 bc c5 e3 1c 3f
       -0.56457907 0.21958724 -0.008049786 0.6128505
000090 1f db 87 be 2c 42 ad be 2d 77 c9 3d 41 f6 48 be
       -0.26534364 -0.33839548 0.09837184 -0.19625188

weight f4 [40, 40]
000000 96 37 dc bd 6f 4f c8 3c 11 9a 57 bd 5d 5b d1 3c
       -0.1075279 0.02445194 -0.052637164 0.02555626
000010 f7 88 2e 3e 3a 57 76 bc b4 08 ef bc 6e e9 e6 bd
       0.17044435 -0.015035445 -0.029178955 -0.11274992
000020 7a 69 bd bc 21 16 10 3e 8d b1 01 3e 18 0f 31 3e
       -0.023121584 0.14070942 0.12665386 0.17290914
000030 4a 8f 89 3e 23 03 1b 3d 0f 8c 2c 3d 4b 21 82 3d
       0.26867133 0.03784479 0.042125758 0.063540064
000040 02 19 e3 3d ce 44 d1 3d 0b dd 99 bd ef 63 cf 3c
       0.11088754 0.102182016 -0.07512864 0.025316207
000050 42 5c 0c be f0 45 95 3d f9 c3 a7 3d f8 74 00 3e
       -0.13707069 0.0728873 0.08191676 0.1254462
000060 f5 4b a0 bd fe 5a dc 3d cc d6 56 3d 9c 05 cf bd
       -0.07826988 0.10759543 0.05245094 -0.10108492
000070 d0 e2 8f 3d 82 9a 63 bd 1a 6c 19 be 3a f5 0b 3e
       0.07025683 -0.055567272 -0.14982644 0.13667765
000080 79 84 2c bd af 3c dc bc d8 ef f2 bc 19 a8 3a be
       -0.042118523 -0.026884405 -0.029655382 -0.18228187
000090 d7 06 7e 3e 42 45 67 3d b2 6a 4a be 86 06 2b 3d
       0.24807297 0.056462534 -0.19767264 0.041754268
0000a0 11 58 0d 3e 3e 56 84 bd b6 52 ce bc 09 8f 04 bd
       0.13803126 -0.06461762 -0.025185924 -0.03236297
0000b0 97 ff 11 be e0 29 0f 3e ec 19 89 bd 28 f8 57 3d
       -0.14257656 0.13980818 -0.06694397 0.052726895
0000c0 04 3a 11 bd 51 46 51 3d 20 bc b7 bd fe 0e fb bd
       -0.03545572 0.05109245 -0.08971429 -0.12258719
0000d0 8f 86 af bd 25 08 fe 3d f9 5a 26 3e 73 93 28 3e
       -0.08570587 0.12403897 0.16245641 0.16462497
0000e0 8e a0 d0 ba eb b5 0b be 1f 34 ea bd 56 84 9e bd
       -0.001591699 -0.13643615 -0.114357226 -0.07740085
0000f0 f1 9b 37 bd 2d d3 12 3d 3d 0d 13 be 1f 68 22 be
       -0.04482645 0.035845924 -0.14360519 -0.15860032
000100 02 b5 b0 3d 73 c1 85 3c 2a 69 82 3d 0b f9 08 3d
       0.086282745 0.016327595 0.06367715 0.03344063
000110 4b 49 4d be 98 e5 fd bd 59 8f 14 3e 28 44 bc bb
       -0.2004749 -0.12397307 0.14507808 -0.0057454295
000120 57 7b 3a 3e 8e fd 1a 3e ff 95 1c 3e 4c fe a1 bd
       0.18211113 0.15135786 0.15291594 -0.079098314
000130 1d 93 c4 bd 59 db ed bd 38 f0 cd bc 0c 87 33 3d
       -0.09598372 -0.11614103 -0.02513896 0.043829963
000140 03 ab ee bd 97 d1 27 bd 26 a0 bf 3d bb 27 9e bd
       -0.11653712 -0.040971365 0.09356718 -0.07722422
000150 e8 c5 1a 3e 71 6a 41 be 6e 25 f0 3c 8a 44 da 3d
       0.15114558 -0.1888826 0.029314723 0.10657604
000160 d8 d1 8e 3c af 50 ed 3d 75 24 b4 3d 5c ef a3 3d
       0.017434046 0.11587655 0.08796016 0.080046386
000170 ef 22 24 3f be 42 84 be 12 0f bb 3c f4 47 23 3e
       0.64115804 -0.2583217 0.022834335 0.15945417
000180 ce 1a 8d 3e 13 18 00 3e 1c 7b 88 be 02 dd 4d bc
       0.27559513 0.12509184 -0.26656425 -0.012564899
000190 34 5c 15 3e fd d2 51 be 2a 02 f0 bd 21 6d b8 bd
       0.14585954 -0.20490642 -0.11719163 -0.0900519
0001a0 c0 e8 bf 3d 42 21 f9 bb d2 8f 09 3e fd b6 a4 3d
       0.093705654 -0.0076028416 0.1343377 0.08042715
0001b0 f8 57 47 3d a8 ad bc 3e 5d c2 18 be b2 79 b4 3d
       0.048667878 0.3685124 -0.14917894 0.08812274
0001c0 00 85 cb be 3c 0c 69 bd 38 19 0a 3d 36 f7 64 be
       -0.39749908 -0.056896433 0.033715457 -0.22359928
0001d0 aa ab 24 3f 3f 1c ee 3d d8 7d 58 be 4b f5 7d be
       0.6432444 0.11626481 -0.21141756 -0.24800603
0001e0 ef 3d 2d 3c d1 cc 0c 3d 7c 11 ed bd 21 1d 16 bd
       0.010573848 0.034375016 -0.115756005 -0.036648873
0001f0 09 54 6d 3d 60 df 0f bc e3 a3 df 3d 35 85 db bc
       0.05794147 -0.008781284 0.10919931 -0.026796916
000200 24 0d 1f 3e d8 1c 32 bd 87 9e b5 bb 4e 81 87 3d
       0.15532357 -0.04348454 -0.0055425796 0.0661646
000210 d3 25 5e 3e 83 c5 02 3d af 52 52 3d 19 17 b8 bd
       0.21694116 0.031926643 0.051348384 -0.089887805
000220 8b 2c 53 3e 70 b8 b1 3c 81 46 b5 bd 1d 8f 6b bc
       0.2062246 0.021694392 -0.08851338 -0.014377383
000230 d5 63 1c be da 1e 55 be 19 cf 19 bd dd df fa 3d
       -0.15272458 -0.2081255 -0.03755102 0.1224973
000240 94 ad 30 3e 32 20 e1 3d 6b 5a 4a 3e 39 5a 83 bc
       0.17253715 0.10992469 0.19761054 -0.016034232
000250 09 52 7d 3d f8 c6 b9 3d c0 2f 4b bd 37 52 76 bd
       0.061845813 0.090711534 -0.049606085 -0.060137
000260 40 ae 16 be 7e 2b fb bd 40 7a 12 3b b2 9a 41 be
       -0.14714909 -0.12264155 0.0022350699 -0.18906668
000270 d7 ab 64 3e 77 8e 1f bd f6 de d6 bd a7 33 90 3d
       0.22331177 -0.038954224 -0.10491745 0.07041102
000280 84 8f 9b 3d 78 bb 91 bd f2 63 80 3d 3d b7 10 be
       0.07595733 -0.07115835 0.06269063 -0.141324
000290 f2 90 e7 3b a4 00 36 bd 32 93 b1 bc b3 3b de 3d
       0.0070668394 -0.044434205 -0.021676634 0.108512305
0002a0 f8 1d 0c 3e d4 ef 67 bc 87 b4 07 3d de d1 11 be
       0.13683307 -0.014156301 0.03313115 -0.14240214
0002b0 da 2c a7 3d e1 ed 9e bb 6b fb 29 be 14 79 4c 3c
       0.08162852 -0.0048501347 -0.16599815 0.012480039
0002c0 33 be 02 be a0 49 d1 bb 1b 82 33 3e b3 c1 1f 3e
       -0.12767868 -0.0063869506 0.175301 0.15601234
0002d0 9e 18 6d 3d 4e 70 17 3d c2 99 e0 bd bc df d0 bd
       0.057884805 0.036972336 -0.10966827 -0.10198924
0002e0 fd 16 2c be 3f e6 c2 bd 79 a8 ff bd 0d f4 53 3d
       -0.16805644 -0.09516572 -0.124833055 0.051746417
0002f0 ff 13 49 3d df b0 dc bd 1d df d2 3d ee 8e e8 3d
       0.049091335 -0.10775923 0.10296462 0.11355387
000300 88 4a 0a 3e db e5 72 bc e2 63 17 be dd 27 d9 3d
       0.13504994 -0.01482531 -0.14784196 0.106033064
000310 6d f9 ac bc f8 5a 00 3e 7c ea 6d 3e 2f 1f ce 3d
       -0.02111503 0.12534702 0.2323398 0.100645415
000320 b7 38 f9 39 bc cd 3e 3d eb 38 39 bd b7 6b 44 be
       0.00047535237 0.046582922 -0.045220297 -0.19181715
000330 d5 ef 06 bd 6b af e0 bd 53 e0 91 3b 72 29 1f 3e
       -0.032943565 -0.10970958 0.0044517904 0.15543154
000340 4c 49 05 bd 55 7b 8e bd 3f 6f 6a 3e d7 37 04 3e
       -0.032540604 -0.069571175 0.22894 0.12911926
000350 53 ae b7 3e e6 4b 64 3d 8a 0d 51 3e 00 f8 12 3d
       0.35875186 0.055736445 0.20415321 0.035881042
000360 92 51 bb 3d a0 35 d5 bc bd 2e c7 bd 5c 22 60 bd
       0.09146418 -0.026026547 -0.097257115 -0.054720268
000370 53 20 5a bd 5c 27 67 be 17 31 02 3e 67 7a 40 be
       -0.053253483 -0.22573608 0.12714039 -0.18796693
000380 5a 12 72 3e 5e f8 73 bd 31 3e de 3c 85 93 03 3d
       0.23639813 -0.059563033 0.027129265 0.032123107
000390 91 d8 88 bd a5 8b b0 3e f7 f3 68 be 07 ca b8 bd
       -0.06681932 0.3448154 -0.22749315 -0.09022909
0003a0 4a 98 76 be 88 25 3b 3e cc 75 0b bd 8f 85 5d bd
       -0.24081531 0.18276036 -0.034047887 -0.05408245
0003b0 7c a9 ee 3e d5 b5 37 3d 42 07 84 be 02 09 cd bd
       0.4661368 0.044851143 -0.25786787 -0.10011484
0003c0 4b 99 20 3e 57 a1 2b 3d c4 fa 00 be 40 eb 29 bc
       0.15683477 0.041901913 -0.1259566 -0.010371029
0003d0 98 63 34 bd 28 de 5e 3d 13 8e 0e 3e 15 75 13 be
       -0.044040293 0.054411083 0.13921385 -0.14400132
0003e0 20 93 9c 3b 04 1d 15 3d 5e 68 ca 3d 1f 25 6b bc
       0.004778281 0.036404625 0.09883188 -0.014352112
0003f0 b9 0b 67 bd 41 8b dc 3d 02 de 0b bd b3 f7 fc 3d
       -0.056407664 0.10768748 -0.03414727 0.123519324

bias f4 [40]
000000 04 aa aa bb c2 b3 f3 bb bd 12 8d 3e 1d d4 72 3e
       -0.0052082557 -0.0074372003 0.2755336 0.23713727
000010 d9 97 99 3d d8 ff 97 3e e6 e6 b5 bd 7a 47 f3 3b
       0.07499666 0.2968738 -0.08881931 0.007424292
000020 ef 66 a2 be d9 18 01 be b1 b4 e6 3d b8 89 0c bd
       -0.31719157 -0.12607135 0.11264933 -0.034311026
000030 6e 5a fb 3d c8 9e a9 3d e2 b8 e0 ba d3 7f ee bd
       0.122731075 0.08282238 -0.0017144943 -0.11645474
000040 f1 79 1f bd 15 c8 90 3c 69 17 a9 bd ce ff 84 bd
       -0.03893465 0.017673532 -0.08256418 -0.06494103
000050 37 8a 62 bd c3 2e b9 bd 6e d6 65 3e 93 3c 0a be
       -0.055307593 -0.09042122 0.2244508 -0.1349967
000060 ea 61 bc bd bf 74 05 3e e9 ba 87 3c e1 6a 2e 3e
       -0.09198363 0.13032816 0.016568618 0.17032959
000070 89 b9 6d bd a9 7a 23 3e 50 eb 42 3c 25 4a 2e 3e
       -0.05803827 0.1596476 0.011896923 0.17020471
000080 b0 f0 46 3d c4 91 08 be 5f 29 31 bd 79 d3 0b 3c
       0.04856938 -0.13336855 -0.043252345 0.008534306
000090 aa b0 08 be 63 ab 62 bb 0b ca 93 3d db 20 5c bb
       -0.13348642 -0.0034587018 0.07216271 -0.003358892

weight f4 [1, 40]
000000 9f 0b c1 be 1a 68 96 3e 51 9f a3 bf 2e 1a fd be
       -0.3770418 0.29376298 -1.2782995 -0.49434036
000010 04 99 a1 3e 66 2a 5b bf a2 29 ac 3b 1e a7 45 bf
       0.31562054 -0.8561157 0.0052539865 -0.77208126
000020 9e 01 04 40 4a 0c 15 be f6 d7 36 be 5c 2e bb 3d
       2.0625987 -0.14555469 -0.1785582 0.09139702
000030 45 c8 74 be 85 89 d6 3c 89 ee 96 3e 89 04 d6 bd
       -0.23904522 0.026188621 0.29478863 -0.10450084
000040 a6 91 33 3e 3a 09 80 be 16 35 f3 bd d3 b9 ed 3e
       0.17536029 -0.2500704 -0.1187536 0.46430835
000050 a7 a0 18 be 46 f2 b8 3d 80 0e 0e 3f 66 1f 95 bb
       -0.14905034 0.09030585 0.55490875 -0.004550862
000060 8e 81 ef be 21 9d 0f be 7e 66 b4 bc 3a b0 8a 3e
       -0.4677853 -0.14024784 -0.022021528 0.27087575
000070 52 b1 e6 3d ad d2 12 bf 86 52 a0 3d 26 48 b0 be
       0.1126429 -0.57352716 0.0782824 -0.34430045
000080 19 9a 0c be f8 27 09 bf 03 e0 39 3e 3e 36 99 be
       -0.13730659 -0.5357661 0.1815186 -0.29924196
000090 39 d6 0e bd b3 84 13 3f 17 39 f1 be 2b 05 49 3e
       -0.034872267 0.5762436 -0.4711387 0.19630878
