learning/model3/dnn/model_3.pth (torch, 11163 bytes, 5 tensors)

weight f4 [40, 7]
0	0xbe6f349d	-0.23359914
1	0x3e1f4ff2	0.1555784
2	0xbc9202ee	-0.017823663
3	0x3ea459fd	0.32099906
4	0x3ef98d43	0.48740587
5	0x3ed8fec7	0.4238188
6	0x3ec55cce	0.38547367
7	0xbe879ca1	-0.26486686
8	0x3eb82069	0.35962227
9	0xbe161ba6	-0.14658985
10	0xbd89c69b	-0.06727334
11	0x3d0c4731	0.03424758
12	0xbe25e421	-0.16200306
13	0x3e93f584	0.2889825
14	0xbeca68fc	-0.39533222
15	0x3ec7deea	0.39037257
16	0xbe43f422	-0.19136098
17	0xbea53432	-0.32266384
18	0xbe595d21	-0.21226932
19	0x3e617b07	0.22019587
20	0xbd9dd9da	-0.077075675
21	0x3e923c37	0.28561565
22	0xbdad663b	-0.084667645
23	0xbe160b57	-0.14652763
24	0x3e92c418	0.28665233
25	0xbe87faa3	-0.26558408
26	0x3e5a0155	0.2128957
27	0xbe4331ac	-0.19061917
28	0xbe269ab8	-0.16269958
29	0xbd6b80b2	-0.05749578
30	0xbe0e2c49	-0.13884081
31	0x3dc34449	0.09534509
32	0xbd51430d	-0.051089335
33	0xbdbde394	-0.09271923
34	0xbe6e35c2	-0.23262694
35	0xbef365bc	-0.47538555
36	0x3f08758a	0.5330435
37	0xbeff0733	-0.4981018
38	0x3d6dc692	0.0580507
39	0x3d6d0394	0.05786474
40	0x3d20f884	0.039299503
41	0x3cbbfd49	0.022947924
42	0x3e2e7e76	0.17040429
43	0x3daacbf7	0.083396845
44	0x3e5e2337	0.21693121
45	0x3ec3abeb	0.382171
46	0x3e5b81cb	0.21436231
47	0xbde3ba04	-0.11119464
48	0xbe89d878	-0.26922965
49	0xbe99881e	-0.29986662
50	0xbe383f94	-0.17993003
51	0xbe7479f1	-0.23874642
52	0x3e9e3e25	0.30906788
53	0xbe8608bb	-0.26178536
54	0x3e6c9990	0.23105454
55	0x3eab20f7	0.33423588
56	0xbeb2ba5c	-0.34907806
57	0x3ea8aef0	0.32945967
58	0xbcda5ab8	-0.026654586
59	0x3e45f39f	0.19331215
60	0xbd690582	-0.05689002
61	0xbe95a0f1	-0.2922435
62	0x3e2f911e	0.17145202
63	0x3eda96dc	0.42693222
64	0xbeaa4dd4	-0.33262503
65	0x3e9cd746	0.3063299
66	0xbeb2450f	-0.34818313
67	0x3dd1d692	0.10246004
68	0x3e833a65	0.2563049
69	0xbe77ec71	-0.24211289
70	0xbecc5c4a	-0.3991416
71	0x3e071b2f	0.13193963
72	0xbd16fb32	-0.036860652
73	0xbeab6d3e	-0.33481783
74	0x3e6abe5d	0.2292418
75	0xbdb42bf1	-0.08797444
76	0x3e1ee7ec	0.15518159
77	0xbf197fab	-0.5996043
78	0x3f2b608e	0.66944206
79	0xbf1dce67	-0.6164307
80	0x3d90bcd7	0.07067268
81	0x3d8fbd82	0.070185676
82	0x3d9dc302	0.077032104
83	0x3c8ee615	0.017443696
84	0xbee41539	-0.44547442
85	0x3ea7829e	0.3271684
86	0xbe2dceb8	-0.16973388
87	0xbe65b855	-0.22433598
88	0xbd5ae35b	-0.05343948
89	0x3d8524ec	0.06501183
90	0xbe2f2291	-0.1710303
91	0x3d390567	0.045171168
92	0xbee9febd	-0.45702162
93	0x3eb5598c	0.3541988
94	0xbe99495e	-0.29938787
95	0x3e0aecf1	0.13566948
96	0xbea1bb9f	-0.31588456
97	0x3a90108e	0.0010991262
98	0xbd923b71	-0.07140244
99	0x3c8bfe12	0.017088924
100	0x3e3ebe03	0.18627171
101	0x3e4e386a	0.20138708
102	0x3c1520b9	0.00910204
103	0x3eac66e2	0.33672243
104	0xbda27405	-0.07932285
105	0xbe8ba068	-0.27270818
106	0x3e724901	0.23660661
107	0xbf0ec75f	-0.55772966
108	0x3e92782a	0.28607303
109	0x3eb6da8e	0.3571362
110	0x3e8575a5	0.26066318
111	0x3e1b1dd4	0.15148097
112	0x3e0b83be	0.13624474
113	0x3d8a454c	0.067514986
114	0xbe4eb5fd	-0.2018661
115	0xbd9dd524	-0.07706669
116	0x3d4cac68	0.049969107
117	0xbd7841a0	-0.06060946
118	0xbda03b94	-0.078238636
119	0x3e988653	0.2978998
120	0xbef837e1	-0.48480132
121	0xbe88dfd1	-0.26733258
122	0xbe8d7314	-0.2762686
123	0xbe2e1b61	-0.17002632
124	0x3eaf9640	0.3429432
125	0x3e6392a8	0.22223914
126	0xbeec5ccc	-0.46164548
127	0x3e22309e	0.15838858
128	0x3b96ae2f	0.004598401
129	0xbee3356d	-0.44376698
130	0xbeaed88f	-0.34149596
131	0xbe9dbd63	-0.30808553
132	0x3e5f7c63	0.21824794
133	0xbedbd1ab	-0.429334
134	0x3e05287c	0.13003725
135	0xbe317965	-0.17331465
136	0xbc93ce27	-0.018042637
137	0xbe7bcab9	-0.24589051
138	0x3d67f072	0.05662579
139	0x3ec48fa2	0.38390833
140	0xbca0eea0	-0.019645035
141	0xbe772db0	-0.24138522
142	0x3e69906e	0.22809002
143	0xbd4ccbd8	-0.049999088
144	0xbead8b6e	-0.3389544
145	0x3dce623c	0.100773305
146	0xbebd2a73	-0.3694645
147	0xbea25762	-0.31707293
148	0xbeb653d8	-0.35610843
149	0x3e9cf844	0.30658162
150	0xbe0aba6e	-0.1354768
151	0x3e8a0329	0.26955536
152	0x3eccab60	0.399745
153	0x3e843680	0.2582283
154	0x3e5a8b22	0.21342137
155	0xbd97620b	-0.07391747
156	0x3eefad68	0.46811986
157	0x3efdefc1	0.4959698
158	0x3b4aca9c	0.0030943519
159	0xbf073326	-0.5281242
160	0xbe8cfe75	-0.27537885
161	0xbebe068b	-0.37114367
162	0x3cd8d8da	0.02647059
163	0x3efea2d0	0.4973359
164	0x3dc9aae1	0.09847046
165	0x3ec32e1a	0.3812111
166	0xbd9ebfb2	-0.07751407
167	0xbe09cab4	-0.13456231
168	0x3e30fb7d	0.17283435
169	0xbd6d80c8	-0.057984143
170	0xbec6b079	-0.38806513
171	0x3ebba05f	0.3664579
172	0xbe809766	-0.25115508
173	0x3d07c617	0.033147898
174	0x3c20b053	0.009807664
175	0x3e9d0191	0.30665258
176	0x3e7b98bd	0.24569984
177	0xbec3eab2	-0.38264996
178	0x3ec2b8c8	0.38031602
179	0x3ec359b0	0.38154364
180	0x3e397ffc	0.18115228
181	0x3d02e5d4	0.031957462
182	0xbe477fde	-0.19482371
183	0xbe4738db	-0.19455282
184	0x3f81cc7c	1.0140529
185	0xbf52a949	-0.8228956
186	0xbf483674	-0.7820809
187	0xbd18be2f	-0.03729075
188	0xb9e865fa	-0.00044326467
189	0xbe2eedab	-0.1708285
190	0x3d0d2c0a	0.034465827
191	0xbe6f215c	-0.2335257
192	0xbe2cf46b	-0.16890113
193	0xbe45d17b	-0.19318192
194	0xbe3cb950	-0.18430066
195	0x3e01a127	0.12659131
196	0xbd127e63	-0.035765063
197	0xbe21cb9c	-0.15800327
198	0x3ebb0c50	0.3653283
199	0xbe79d215	-0.24396546
200	0x3eb71b21	0.35762885
201	0x3e8514bb	0.2599238
202	0x3e9209b7	0.28523037
203	0x3e77197a	0.24130812
204	0xbe8af574	-0.2714039
205	0xbe7f67f0	-0.24941993
206	0x3c9cd132	0.01914272
207	0x3d620e30	0.05518931
208	0xbdea1344	-0.11429456
209	0xbc6d3595	-0.014478107
210	0xbf0b321b	-0.5437333
211	0x3f02606e	0.5092839
212	0x3ed9746b	0.42471632
213	0x3cd18e48	0.02558054
214	0x3dba7db1	0.09106005
215	0xbd82250f	-0.063547246
216	0x3b6c2051	0.0036030004
217	0xbefce200	-0.49391174
218	0x3e86ff67	0.26366732
219	0xbf82d254	-1.0220437
220	0x3f178556	0.5918783
221	0x3f178a27	0.5919518
222	0x3e297ec2	0.1655226
223	0xb98580b2	-0.00025463622
224	0x3e55def6	0.20885834
225	0xbdbbf780	-0.09178066
226	0xbe027ed6	-0.12743697
227	0x3cff39d6	0.031155508
228	0x3e2630a2	0.1622949
229	0xbd47a791	-0.04874379
230	0xbe81bae5	-0.25337902
231	0xbdd5001f	-0.10400414
232	0x3e96529b	0.29359898
233	0xbe99f96d	-0.3007311
234	0x3d3d8e63	0.04627837
235	0xbe8c40ff	-0.27393338
236	0xbebf5442	-0.3736897
237	0xbe6fd8ce	-0.23422548
238	0x3ee961cc	0.45582426
239	0xbefb58ac	-0.4909109
240	0xbe05aba7	-0.13053761
241	0x3dcbb9b6	0.09947531
242	0x3e73f60c	0.23824328
243	0x3ea0a6c9	0.31377247
244	0x3e30bf13	0.17260389
245	0xbe95010c	-0.2910236
246	0xbe81e82e	-0.25372452
247	0xbe6d4589	-0.23171057
248	0xbe079e4e	-0.13243982
249	0x3e01b22d	0.12665625
250	0xbe1ee596	-0.15517268
251	0x3e5e19fd	0.21689601
252	0xbf239ac5	-0.63908035
253	0x3f2bc071	0.6709052
254	0x3ef83e22	0.48484904
255	0x3e3c321b	0.18378489

bias f4 [40]
0	0xbe16c63a	-0.14724055
1	0xbd99fa99	-0.07518501
2	0x3e254628	0.16140044
3	0x3ed7f7e8	0.42181325
4	0x3ec2c012	0.38037163
5	0x3ec177fe	0.3778686
6	0xbdb8f03b	-0.09030195
7	0xbe26db27	-0.16294537
8	0xbe6f9192	-0.23395374
9	0x3dd4df2c	0.10394129
10	0x3e728047	0.23681746
11	0x3ee73dfb	0.45164475
12	0x3ec9c36e	0.39406914
13	0xbd60a05b	-0.054840427
14	0xbe4827ca	-0.19546428
15	0xbe724388	-0.23658574
16	0xbeb82ca2	-0.35971552
17	0x3e3f0bcb	0.18656842
18	0x3edf91c6	0.43665904
19	0x3d0399b4	0.032129005
20	0xbeb15ff9	-0.34643534
21	0x3dc84036	0.09777872
22	0x3e48a633	0.1959465
23	0xbec74f82	-0.38927847
24	0x3dc23843	0.09483387
25	0x3e614caa	0.22001901
26	0x3e47736c	0.19477624
27	0x3e187a94	0.1489051
28	0x3ecf75d6	0.4051959
29	0x3d41a0a4	0.04727234
30	0x3db30152	0.08740486
31	0xbe871c3c	-0.2638873
32	0xbebc4137	-0.36768505
33	0x3ea0f71e	0.31438535
34	0xbec50998	-0.38483882
35	0xbeafe635	-0.34355322
36	0xbd04610c	-0.032319114
37	0xbe5b2b97	-0.21403347
38	0xbcf065fe	-0.029345509
39	0x3e05df42	0.13073447

weight f4 [40, 40]
0	0x3c538860	0.012910932
1	0xbe1d7edf	-0.15380429
2	0x3e0320ab	0.1280543
3	0xbdc7960c	-0.09745416
4	0xbdcb2562	-0.099192396
5	0x3c521890	0.012823239
6	0x3d8eb53a	0.0696816
7	0xbd9d42b3	-0.076787375
8	0xbc7d7f10	-0.015472189
9	0xbd8c152d	-0.068399765
10	0x3dc7cfa6	0.09756403
11	0xbe1764e2	-0.14784577
12	0xbd68304a	-0.056686677
13	0xbdfd9f64	-0.12383917
14	0xbd9ffc15	-0.07811753
15	0xbdf9d1bc	-0.12198207
16	0xbdd1f407	-0.10251623
17	0x3c7677d0	0.015043214
18	0x3de5597e	0.1119871
19	0xbdf79c42	-0.12090351
20	0xbda3161e	-0.07963203
21	0xbe066215	-0.13123353
22	0xbb4aa6c0	-0.0030922145
23	0x3d92e43c	0.071724385
24	0xbe010973	-0.12601261
25	0x3e0515d7	0.12996612
26	0xbd64ca6c	-0.055857107
27	0x3deaecba	0.11470933
28	0xbddea9ee	-0.10872255
29	0x3dfcfb82	0.12352659
30	0xbd5a2526	-0.053258084
31	0x3d456678	0.048193425
32	0x3de6dd32	0.112726584
33	0xbd37709e	-0.044785134
34	0x3d8c9150	0.06863654
35	0xbdc42576	-0.095774576
36	0x3ac89300	0.0015302598
37	0xbd96379e	-0.07334827
38	0x3d2febf0	0.042949617
39	0x3d04dfc0	0.032439947
40	0x3e177de9	0.14794125
41	0xbd882634	-0.06647912
42	0x3df16dcd	0.11788521
43	0x3d902d98	0.07039946
44	0xbd9fcb5a	-0.07802458
45	0xbdd60ec8	-0.10452038
46	0xbd3ca631	-0.04605693
47	0x3e094834	0.1340645
48	0xbdb12b61	-0.08650852
49	0xbc4822f3	-0.012215364
50	0x3dc3b520	0.09556031
51	0x3d82bf2c	0.063841194
52	0xbdb743e1	-0.08948494
53	0x3dc04603	0.09388354
54	0x3dc47f6b	0.095946155
55	0x3df43b6b	0.119253956
56	0xbdd2900c	-0.10281381
57	0xbe185955	-0.14877827
58	0xbe1dda50	-0.15415311
59	0xbdce4cbc	-0.1007323
60	0xbdfd2d4d	-0.12362156
61	0x3c9e6801	0.019336702
62	0xbd52a2a2	-0.05142463
63	0x3e1e15be	0.15437981
64	0x3d684c12	0.05671317
65	0xbe0a2b25	-0.13493021
66	0xbe049b6d	-0.12949915
67	0xbdfafc65	-0.12255172
68	0x3e101bb6	0.14073071
69	0x3c88c321	0.016694607
70	0xbd40e940	-0.047097445
71	0x3dbb7adc	0.09154293
72	0xbe20cecf	-0.15703891
73	0xbd8b71be	-0.06808804
74	0x3d010c3f	0.03150582
75	0x3e01b717	0.126675
76	0x3e15fed4	0.1464799
77	0x3b43ba55	0.0029865701
78	0xbce40eba	-0.027839053
79	0xbdfa68ff	-0.12227058
80	0xbcdce0ac	-0.0269626
81	0xbcea0204	-0.028565414
82	0xbd888732	-0.066664115
83	0xbdb09b8c	-0.08623418
84	0xbd097c78	-0.03356597
85	0x3cebd092	0.028785978
86	0x3e00ed10	0.12590432
87	0x3cebc5b7	0.028780801
88	0x3dc60a89	0.09669978
89	0x3d93a0a4	0.07208374
90	0xbd5edd65	-0.054410357
91	0x3e82d31c	0.2555169
92	0x3d2dbcf8	0.042416543
93	0xbda863e8	-0.082221806
94	0xbd0db658	-0.034597725
95	0x3e255e6f	0.16149305
96	0xbd45e54e	-0.048314385
97	0xbdb9a9e0	-0.09065604
98	0x3d6765b1	0.056493465
99	0xbd023e62	-0.031797774
100	0x3d2f0168	0.04272595
101	0x3d4c4d97	0.049878683
102	0x3e819406	0.25308245
103	0xbe080b68	-0.13285601
104	0xbb9b8ec9	-0.004747246
105	0xbe159adc	-0.14609855
106	0x3ece057e	0.40238565
107	0x3d600ebe	0.05470156
108	0x3d6c00c9	0.057617936
109	0x3daef64d	0.08543072
110	0xbe1ca2e9	-0.1529652
111	0x3ec305cf	0.3809037
112	0x3d9a8c76	0.07546322
113	0xbde0b90c	-0.10972795
114	0x3e128992	0.14310291
115	0x3d90c07e	0.07067965
116	0xbdcb0643	-0.09913304
117	0xbd245ea6	-0.040129326
118	0xbe0f536b	-0.13996665
119	0x3e127fed	0.14306612
120	0x3e287f98	0.16454923
121	0xbda82673	-0.082104586
122	0x3d31a7a8	0.04337278
123	0x3e23d9ab	0.16001002
124	0xbda8ba1b	-0.08238622
125	0x3d90163c	0.07035491
126	0x3c8f5e7b	0.017501106
127	0x3d7e6ed4	0.062117413
128	0xbddf4b68	-0.109030545
129	0x3e07c51c	0.13258785
130	0x3d994ff0	0.0748595
131	0xbd76e16f	-0.060273584
132	0xbe42bdcb	-0.19017713
133	0x3d877b16	0.06615274
134	0xbdbbfb57	-0.09178799
135	0xbe20e45e	-0.15712115
136	0xbbe19020	-0.006883636
137	0x3dbc2ba2	0.0918801
138	0xbe4d104a	-0.20025745
139	0xbd89fbf1	-0.06737507
140	0x3dd22426	0.10260801
141	0x3e0f5e64	0.14000851
142	0xbddb5dab	-0.10711225
143	0x3d46df82	0.048552997
144	0xbdbc3c62	-0.091912046
145	0xbbc38651	-0.0059669395
146	0x3d429fe3	0.04751576
147	0xbdc3b965	-0.095568456
148	0x3cd9a5e5	0.026568362
149	0x3dd5bf56	0.10436885
150	0x3df5eca1	0.12008024
151	0xbdb02872	-0.08601464
152	0x3cad30e8	0.021141484
153	0xbda405ae	-0.08008896
154	0x3d7886f9	0.060675595
155	0x3dcefd65	0.10106925
156	0x3c36dd67	0.011161185
157	0xbb14148c	-0.0022595255
158	0x3e29d858	0.16586435
159	0xbe3db92a	-0.18527666
160	0xbd4a3905	-0.049370784
161	0x3d863d28	0.065546334
162	0x3b8ce661	0.0042999242
163	0x3ded9141	0.115999706
164	0x3dc0be56	0.09411304
165	0x3ddd8657	0.10816639
166	0xbe0d7b56	-0.1381658
167	0x3ddee5b5	0.10883657
168	0xbe01a1a4	-0.12659317
169	0x3b84d66d	0.004053882
170	0xbe064968	-0.1311394
171	0xbdc89e5c	-0.0979583
172	0x3d491920	0.049096227
173	0xbdc5611e	-0.09637664
174	0x3e03146c	0.12800759
175	0xbe28c600	-0.16481781
176	0xbe03cb17	-0.12870441
177	0x3e02f562	0.12788919
178	0xbe25e7b1	-0.16201665
179	0xbe2dd7fc	-0.16976923
180	0x3dcf9f3e	0.10137795
181	0x3e06eb83	0.13175778
182	0xbd02d609	-0.0319424
183	0xbdb3f837	-0.087875776
184	0xbd625ff6	-0.055267297
185	0xbd432a7b	-0.047647934
186	0xbda9adfd	-0.08285139
187	0x3d1f5e5b	0.038908344
188	0x3dac9f5f	0.08428835
189	0x3dc2a487	0.09504037
190	0x3d93c670	0.07215583
191	0xbdd76e08	-0.10519034
192	0x3bc75712	0.0060833776
193	0xbe0fac32	-0.14030531
194	0x3da308d1	0.07960666
195	0x3e08445f	0.13307332
196	0x3dc0f023	0.094208024
197	0xbd97a476	-0.07404415
198	0xbd9d4fd8	-0.076812446
199	0x3d87700b	0.066131674
200	0x3ead8f92	0.33898598
201	0xbe27797e	-0.1635494
202	0xbd4062aa	-0.046969093
203	0x3d769796	0.060203157
204	0x3cd62136	0.026138883
205	0x3e029777	0.12753092
206	0x3db9c2a5	0.090703286
207	0xbd02f503	-0.031971943
208	0xbe16ba44	-0.14719492
209	0xbe5b9f11	-0.21447398
210	0x3d221df5	0.03957935
211	0x3db56d0f	0.08858692
212	0x3df19359	0.117956825
213	0x3e293e5e	0.16527697
214	0xbdc73031	-0.09725989
215	0x3e8be34e	0.27321857
216	0xbb127b80	-0.0022351444
217	0x3db456de	0.08805631
218	0xbe09749b	-0.13423388
219	0xbc539dd9	-0.012916052
220	0xbdc31bb9	-0.09526772
221	0xbd837038	-0.064178884
222	0x3e06a456	0.13148627
223	0xbdaec47e	-0.08533572
224	0xbd54e697	-0.05197772
225	0x3e454ea9	0.19268288
226	0xbc1325c5	-0.008981173
227	0xbdcea0ef	-0.100892894
228	0x3d543779	0.051810715
229	0xbe438a90	-0.19095826
230	0x3cb95e12	0.022627864
231	0x3e511a25	0.2042013
232	0xbddcf3c1	-0.1078868
233	0xbb8296ef	-0.003985278
234	0xbe1cab87	-0.15299807
235	0xbe03aa9e	-0.12858054
236	0xbe71120b	-0.23542039
237	0xbc84da4c	-0.016217373
238	0xbe9b0545	-0.30277458
239	0xbdac1b0f	-0.084035985
240	0x3dd42c5b	0.10360023
241	0xbe01c6c0	-0.12673473
242	0xbe0bc78c	-0.1365034
243	0xbc0d9372	-0.008641111
244	0x3dbb3697	0.091412716
245	0xbdc25058	-0.094879806
246	0x3ce84d99	0.028357314
247	0x3dfcbb0c	0.12340364
248	0xbd57518d	-0.052568007
249	0xbdc19c99	-0.09453697
250	0x3dbc0e1e	0.0918238
251	0x3a628b79	0.0008641999
252	0xbd801349	-0.06253678
253	0x3d8749fb	0.066059075
254	0xbe1413c4	-0.14460665
255	0xbdb34d1d	-0.087549426

bias f4 [40]
0	0xbe06d2c0	-0.13166332
1	0xbe037f06	-0.12841424
2	0x3de9a285	0.11407951
3	0xbdc4edf6	-0.096157
4	0x3e0f0961	0.13968422
5	0x3d9da5a5	0.0769761
6	0x3c0f9b32	0.008765029
7	0x3ad95b18	0.0016582934
8	0x3dceebc8	0.101035655
9	0xbde6bff8	-0.11267084
10	0xbe051f51	-0.13000228
11	0x3dbb0a99	0.09132881
12	0x3d3a10d7	0.045426216
13	0x3dd155d1	0.10221446
14	0x3e1375b6	0.14400372
15	0x3cf3253b	0.029680839
16	0xbe0837bb	-0.1330251
17	0x3e09cf90	0.13458085
18	0x3ed2dfd6	0.41186398
19	0x3dcf2841	0.101151
20	0x3d86c305	0.06580166
21	0x3e08e9e7	0.13370477
22	0x3e09742f	0.13423227
23	0xbd2a04c2	-0.041508444
24	0x3e27e8d2	0.16397408
25	0x3ab7474e	0.0013983042
26	0xbe08db4e	-0.13364908
27	0x3e159cf6	0.14610657
28	0x3d89b04f	0.06723081
29	0xbde08d05	-0.10964397
30	0x3d536a9e	0.05161535
31	0xbaf76bc8	-0.0018876726
32	0x3dde2237	0.1084637
33	0x3e7de79b	0.24795382
34	0x3d0a03ed	0.03369515
35	0xbd5a0788	-0.05322984
36	0xbba7bd28	-0.0051189847
37	0x3e24d1de	0.16095683
38	0x3e2e86c5	0.17043598
39	0xbb936598	-0.004498195

weight f4 [1, 40]
0	0x3d2607d0	0.040534794
1	0x3daa60da	0.08319254
2	0xbf27d2df	-0.6555614
3	0x3ea6be22	0.32566935
4	0x3e303241	0.1720667
5	0xbf2bd71e	-0.6712512
6	0xbd054424	-0.032535687
7	0x3e3c33aa	0.18379083
8	0x3ddcb300	0.10776329
9	0x3dd61c2f	0.10454594
10	0xbdfcbb9d	-0.12340472
11	0x3eea3905	0.45746627
12	0x3e3cc33d	0.18433852
13	0xbf899574	-1.0748734
14	0x3df23e37	0.11828273
15	0x3f020a53	0.50797004
16	0x3d4fd0b8	0.05073616
17	0xbf95c7d1	-1.1701604
18	0x3fa064d4	1.253077
19	0xbfc05b09	-1.5027782
20	0xbee6543f	-0.4498615
21	0xbf0b48bd	-0.54407865
22	0x3f06de41	0.5268288
23	0x3ccdd491	0.025125774
24	0xbf2007a3	-0.6251165
25	0xbf3ed55b	-0.74544305
26	0x3dc34ee2	0.0953653
27	0x3f830e0e	1.0238664
28	0xbec91cca	-0.39279777
29	0xbe5aee28	-0.21379912
30	0xbe024fe7	-0.12725793
31	0x3eed94cf	0.46402594
32	0xbe3e8fc9	-0.18609537
33	0x3f692ce2	0.9108411
34	0xbf22042d	-0.6328762
35	0x3eb5a644	0.35478413
36	0x3e3c0500	0.18361282
37	0xbf6cacb5	-0.9245103
38	0x3e6fab46	0.2340518
39	0xbf0072f6	-0.50175416
