learning/model3/dnn/model_9.pth (torch, 11163 bytes, 5 tensors)

weight f4 [40, 7]
00000000: e481 833e 6681 9dbe 65e8 fa3b 74ad c83e
00000010: 9022 a73e 4cab 54be 4e79 8cbe 04aa b8be
00000020: 9a3c 743e 88e7 d7bd 278e 21be 13cf b5be
00000030: 9409 83bd d9b0 b53e b5cd 863e e39b cdbe
00000040: 8b1a e0bd 173c 3bbe 4870 113e dd23 463e
00000050: d363 d33e 2c95 623e 3750 8dbe db82 b03d
00000060: 6d44 bf3d 06fb 9fbd 6a6f 4e3e 29bd 2ebe
00000070: 150b 47bd ed56 a63e 9b07 36be dd94 7bbe
00000080: f651 333e b118 99be b365 08be ef36 cbbe
00000090: cb4b fe3d b4ce c1bd a9af 853d 3c51 633e
000000a0: eba7 533e 119c a5bd 2482 003e 84b4 953e
000000b0: 7533 b23e 3585 2e3e a145 1c3d 5c95 bf3d
000000c0: 9cd4 1dbe 0b34 cebd 653b dd3d 6360 0e3e
000000d0: 07d1 6cbe 6e90 2e3e a32f 543e bf34 a53e
000000e0: d1e8 7c3d 30c7 a13e 4c5d 48be 34d3 243e
000000f0: ea2e 13bd f089 71be 3cce 49be bbdf a3bd
00000100: ff04 e2bd 467a 003e c9b4 39be 1228 9a3d
00000110: d9b8 bbbd 3fe6 06be ab35 d93d 7567 153e
00000120: bc89 aa3e 8243 c13e a108 91be 33d8 fdbd
00000130: 4b86 8fbe 0160 60be 6cb6 093e c2b5 903d
00000140: 448f bbbe 8376 5cbc 8962 9fbe 5fe8 acbe
00000150: a4ef e03d 3130 8dbe a07c 37bd d8a5 aabd
00000160: e0f5 1abd 72d5 61be 64d8 c43d 4966 7d3b
00000170: 2d55 56be 2962 8dbe 5ab3 393e 47c5 a8be
00000180: 16ae 68be 98c3 873e 1235 a8be 4bcc bdbe
00000190: 16e7 5fbe 1e49 003e d49c 453e ae3e 953d
000001a0: 1249 cbbd 2f25 4abe ba34 943e 6425 183e
000001b0: 4aa3 033e 7c70 233e f43c 363e 6b5c 283e
000001c0: 2a08 87bd f88c a7bd 15f7 29be c80a 3dbe
000001d0: 793e 6bbe 8470 ec3c 17b2 ac3d 947e b73e
000001e0: fdbe 39bd 478e 763e 813b 9d3e 3c1d 98bc
000001f0: 4844 9e3e 4bf0 563e 3cb8 35be 31c4 313e
00000200: 5d1c 043f 93c1 d43d 467c bb3e a7c2 503e
00000210: 007f 53bc 7819 b3be 17a1 a13e de31 3d3f
00000220: f031 d43e eec7 e03e 8881 033e c6ab 023e
00000230: f75a 01bf 79ff f23e ae83 b9be 8737 95bc
00000240: 37fe 0abd b372 c6bd 652e f1bc a1cf 1ebe
00000250: a982 933e 2514 8a3e e7d0 073e 57dc a63e
00000260: c557 9bbe 3db8 063e 6fcb a1be 54a6 ae3e
00000270: 0a55 9f3e 1f4a c33e 71ca 17be fdad a2be
00000280: d80c 3fbe 7ee6 053f 6095 f3be e566 0bbe
00000290: 31fa 073c 20e7 e93d 9e64 55bd 3e11 a03d
000002a0: 10af e1be f6c2 85bd e519 ab3e a897 9f3e
000002b0: 18be ab3d e94c a53c 072c deb9 a4f1 813d
000002c0: aad8 b33d 02c7 24bf d77a 0f3f fa2c c53e
000002d0: 1c7f 013e 3b5d d73d 205e ae3e 5f1c ccbe
000002e0: 839d 74bd 3d3d 4fbe f437 223e ea4d c23e
000002f0: 6644 b43d cde1 abbe faa5 443e 98f1 0f3f
00000300: 1ee8 813e 97fe c23d abc2 8f3e 3e5a 443e
00000310: 039e 31be a6b5 75be 04d5 26be 0d84 573e
00000320: 692a 0abe b0a9 d5bd b829 783e 0022 983c
00000330: fbd7 b4be e654 88be 8095 84bc 03b2 5dbe
00000340: 3053 8fbd d25d 383e 29b9 023e 72d7 953e
00000350: f2b1 21be 5fe2 96be c83f e1be be03 813e
00000360: 11e2 3f3e 6c6f d23d c01a b0be cc57 c33d
00000370: 20c3 3fbd bb2b bc3e 6bb2 afbe a6a3 46be
00000380: 6f35 38be d4b9 26be 0085 eabc 35a0 b2be
00000390: 5f20 24be b43f 7fbe 0a11 9ebe 446c b53e
000003a0: f1dc fdbe 23d7 953d d5f0 71be 607b 0a3e
000003b0: b00f 37bc 60a3 5cbc a997 273e f256 e4bd
000003c0: 4178 95be de17 503d ba6d 82be 8c98 993e
000003d0: 3f09 8e3e f8a3 31be 46c1 a43e 79c7 993e
000003e0: 2b0b 423e ef09 343e 5aca 8d3e a0d0 a23d
000003f0: 5de2 8ebd d594 10be bcda ac3e c62d 773e
0.25685036 -0.30762786 0.007657098 0.39194834 0.32643557 -0.2076847 -0.27436298 -0.36067212
0.23851243 -0.10542208 -0.15776883 -0.35509548 -0.06398311 0.35486487 0.26328817 -0.40157995
-0.10942563 -0.18284641 0.14202988 0.19349618 0.41287097 0.22127217 -0.27600262 0.08618709
0.09339223 -0.07811551 0.20159689 -0.17064346 -0.048594553 0.32488194 -0.17776339 -0.24568506
0.17511734 -0.2990165 -0.13320045 -0.39690349 0.124168 -0.094632536 0.06527645 0.22198957
0.20669524 -0.08086408 0.12549645 0.29239285 0.34804884 0.17043002 0.03815234 0.0935466
-0.15413135 -0.1006852 0.10802344 0.13903956 -0.23126613 0.17047283 0.20721297 0.32266805
0.06174547 0.3159728 -0.1956684 0.16096193 -0.035933413 -0.23587775 -0.19707578 -0.080016576
-0.11036109 0.12546644 -0.1813537 0.07527174 -0.09166116 -0.1317377 0.106059395 0.14590247
0.33308208 0.37746817 -0.28326896 -0.12394752 -0.28032145 -0.21911623 0.13448495 0.070659176
-0.3663274 -0.01345599 -0.31129864 -0.33771035 0.10983208 -0.2757583 -0.044796586 -0.083324134
-0.03783214 -0.22054079 0.09611586 0.0038665703 -0.2093093 -0.27613953 0.18134823 -0.3296301
-0.22722659 0.26516414 -0.3285299 -0.37069926 -0.21865496 0.12527892 0.19298106 0.07287346
-0.099260464 -0.19740747 0.28946477 0.14858013 0.12855259 0.15960878 0.1779669 0.16441505
-0.06593354 -0.081811845 -0.1659816 -0.18461144 -0.2297305 0.028862245 0.084324054 0.3583876
-0.045348156 0.24077712 0.3070946 -0.018568628 0.3091147 0.20990102 -0.17746061 0.17359997
0.5160578 0.10388484 0.3661825 0.20386754 -0.012908697 -0.3498037 0.31568214 0.73904216
0.4144435 0.43902534 0.12842381 0.12760839 -0.50529426 0.47460535 -0.36233276 -0.018214954
-0.033933844 -0.09689846 -0.029441068 -0.15508892 0.28810623 0.26968494 0.13263284 0.3258998
-0.303404 0.13156219 -0.3160052 0.34111273 0.31119567 0.38142487 -0.14823319 -0.31773368
-0.18657243 0.5230483 -0.47574902 -0.1361347 0.008299396 0.11421037 -0.05209791 0.07815789
-0.44078875 -0.065313265 0.33418193 0.31170392 0.08385867 0.020178275 -0.00042375943 0.063449174
0.0878156 -0.6436616 0.56046814 0.38510877 0.12646145 0.10515829 0.34056187 -0.39865395
-0.059720527 -0.20238204 0.15841657 0.3795007 0.088021085 -0.3357071 0.1920394 0.5622802
0.25372404 0.095212154 0.28078207 0.1917505 -0.17345433 -0.23995075 -0.16292197 0.21046467
-0.1349274 -0.10432756 0.24234664 0.0185709 -0.3532103 -0.26627272 -0.016184568 -0.21649937
-0.06998289 0.1800454 0.12765945 0.29265934 -0.15790537 -0.29469582 -0.43993974 0.25198168
0.18738581 0.10275158 -0.3439541 0.0953823 -0.046816945 0.36752114 -0.3431581 -0.19398364
-0.17989133 -0.16281825 -0.028627872 -0.34887853 -0.16027974 -0.24926645 -0.30872375 0.35434163
-0.49582627 0.07316425 -0.23627026 0.13523626 -0.011173174 -0.013466686 0.16366448 -0.11149396
-0.2919331 0.05080401 -0.2547434 0.29999197 0.2774143 -0.17347705 0.32178706 0.30034998
0.18949573 0.17581914 0.27693444 0.07949948 -0.06976769 -0.14119275 0.3376063 0.24138555

bias f4 [40]
00000000: 3342 b2bd d8ae 553d d0e6 d8bd 7fb1 afbe
00000010: bbe1 4cbe ef6d f03c 4dd3 c3be 149b 5b3e
00000020: 1672 363c 801e 54bd 4951 a2bd a434 05be
00000030: bc86 88be 6d20 80be d6a4 0abe 1437 c33e
00000040: 597d 11bd b9fc 62be 7fe1 ffbe 4346 55bf
00000050: 1ee2 053f 9de8 a63e e2d8 7bbd 8a0b 603d
00000060: 4bec 93be ba57 13be c111 863e fd34 223c
00000070: b616 c3be 7199 59be 0298 a73e c46c 38be
00000080: d849 63bd eb49 393e ae6b 7c3e d8ad 963e
00000090: 71f3 c83e ebef 2c3d 4675 90be adb1 a3bc
-0.08704033 0.052168697 -0.10590899 -0.34315106 -0.20007984 0.029349295 -0.38247147 0.21445876
0.011135599 -0.0517869 -0.0792566 -0.13008362 -0.26665294 -0.2502474 -0.13539442 0.3812796
-0.03551993 -0.22166719 -0.49976727 -0.83310336 0.5229815 0.32599345 -0.061486132 0.054698505
-0.28891215 -0.14388934 0.2618542 0.009900329 -0.38103265 -0.2124994 0.3273316 -0.18010241
-0.055490345 0.18094604 0.24650452 0.29429507 0.3924823 0.04222099 -0.28214473 -0.019982183

weight f4 [40, 40]
00000000: 6826 e0bd 088f 393c ce2b 383c eaa9 173e
00000010: 465a 1e3d 8c23 56bb 46e7 5c3b 2dc2 df3d
00000020: db8a 30bd 0b13 cfbd 432c 8a3d 0174 1d3e
00000030: 4650 a63d ba79 ba3d e1ab ffbc 45d9 443d
00000040: f633 06bd 3ca9 b53d fa9b 6dbd b5c9 25be
00000050: 3339 3e3e e8d3 743c 8118 203c af34 a1bd
00000060: 0f33 3dbd 691a cc3d aca0 97bb b7b9 34bd
00000070: 2843 8dbd a123 1f3e e96f d03d 7c1b 3dbd
00000080: 4239 02be 908e fbbd e87e 9fbc 126c 933d
00000090: 2f73 2e3e 61e3 02be 574f a8bd 1a15 0d3e
000000a0: 5905 4abe c823 d6bd bb5d 47be c7f9 9e3c
000000b0: 624f 98bc ed5e 003b 0c46 7b3d 10c5 253e
000000c0: bfac 083d ff7f 8f3d de23 ec3b e6f0 7f3d
000000d0: 3202 62bd dce7 0f3e bae1 3dbd 37f0 36bd
000000e0: 5c4b d0bd 6346 f03b 51da 743e 2a7f cb3e
000000f0: ae2a 1abe 9dd2 233e 06fa 483d 2cbc 8dbe
00000100: 02f2 0d3e b7d4 adbe 7a4b 91be b0d6 243e
00000110: 114f c33d a4fc 413d 4ee0 203d df9e 0cbe
00000120: 14e3 03bd 6b00 7bbd 4306 3abd a79c 313e
00000130: a003 e93d 3710 a63e 2752 e03d 5cc0 ecbd
00000140: cd36 07be 0040 d1bd 136f 583c 37d4 1bbe
00000150: 7fa5 f7bd 0f77 5cbd 54c5 213d 6bb6 6fbd
00000160: c327 0e3e 9cbd f7bd da6a b93c 1282 29bd
00000170: 138b 203e aa96 183e c25d cf3d bec0 83bd
00000180: 0008 1bbe 1e63 f73d c55f d2bd 749e 09bc
00000190: 4a94 723a b5e3 aa3d f658 243d 3958 50bd
000001a0: 72ff 6c3d 913d c0bc cd91 2f3b 572e a53d
000001b0: c38c 093c 08ab bdbc ffae 343c c02f 5abb
000001c0: 453a 1ebe 2fd2 15be 41ae 1abe 65ae ee3d
000001d0: ac60 4fbc 39a4 ae3d 8d2d da3d c3e9 c63b
000001e0: 9045 163c e03f 443c ec41 8cbd a666 b23d
000001f0: 28b6 d6bd 80a7 983c 38b1 dbbc 00d8 e2ba
00000200: f2df 07bd ee47 e03d 308c dcbc ea74 d03d
00000210: 81a1 9ebd cfae 1a3e 7030 8f3d 3ef3 cabd
00000220: 1ca1 76bd b50b 0c3e 0898 cbbc 809d 59bb
00000230: fd0d 163e d84e 993c 042d 91bd 5081 4a3d
00000240: 9017 853c ff2a bcbd 58e5 8d3d 9b5d 103e
00000250: c81e b23c f64a 23bd 484d 02be 3215 c53d
00000260: eab2 9c3d 5e59 f2bd ecfe 1ebe b6a2 d3bd
00000270: c49a 8f3d d659 f4bd 60d1 b1bc 30af 623c
00000280: 51aa bcbd d0e3 36bd 004e 523a 405e 243b
00000290: f0e4 80bc 0ed8 9ebd de33 18be 42cb ebbd
000002a0: b06b d6bc 80b1 003b 12a2 45bd bf10 0e3e
000002b0: 0310 093e c73f c1bd 1836 c33c 1176 a8bd
000002c0: 7096 b23c cca0 683d e073 a43b 6a63 eb3d
000002d0: e0ed 38bc 786d bfbd 70b5 0abe 19fc 8bbd
000002e0: 12e3 f43d f9d8 99bd 60d9 13be 409c b9bc
000002f0: 762d 03be e074 8a3d 5a83 a9bd 5e73 c73d
00000300: 2d98 b6bd 050b 1b3e 071a 0d3e 76a1 e4bd
00000310: a8de da3c f0f3 e23c 26ad e73d cac2 7dbd
00000320: b067 d4bd f582 fe3c a806 f73c 1160 913d
00000330: 1eca 163e 812d 5b3b 900a 533d 59a3 1dbd
00000340: 6c58 eebd 89e2 d2bd 0986 bf39 2a46 b1bd
00000350: a83b 9cbc 5a58 053e 7074 05be 2239 1e3e
00000360: e32e 49bd f63d 6cbd 033f 2fbd a8e9 01be
00000370: ee63 c33d 8134 d73c 7e33 3abe ad3e d0bd
00000380: 8875 c1bd 8bae 04bd a6bb fb3d a4ad 1e3e
00000390: 1b4f 93bc 1f82 9ebd 7c75 a33d a2c2 013e
000003a0: ee20 f33d 5305 bfbb 2760 1dbe f2a2 cf3d
000003b0: 7291 2a3e b7a4 873d c5e7 283d f017 943d
000003c0: 6b81 22bd ecdc 24be b678 263e 6eca 2abd
000003d0: ed1a e03b 30bb 51bd 4f71 b33d c897 54bd
000003e0: 7c31 04bc 784f ff3c 3899 44bc d7fe 203e
000003f0: a1fa 0a3e 306f a6bd dfbe a2bc 62cd 8fbd
-0.109448254 0.011325605 0.011240913 0.14810911 0.03866031 -0.0032674996 0.0033707186 0.10925708
-0.043101173 -0.10111054 0.067467235 0.15376283 0.0812078 0.09105249 -0.031209888 0.048058767
-0.032764398 0.088701695 -0.05801008 -0.16190226 0.18576507 0.0149431005 0.009771467 -0.07871377
-0.04619127 0.09965975 -0.004627308 -0.044122424 -0.06897575 0.15540935 0.10177595 -0.04616879
-0.12717155 -0.12283051 -0.019469693 0.07198347 0.17036127 -0.1278205 -0.08218258 0.13777581
-0.19728602 -0.104560435 -0.19469349 0.019406212 -0.01859254 0.001958783 0.0613461 0.16188455
0.03336787 0.07006835 0.007206424 0.062485598 -0.055177875 0.14053291 -0.046357848 -0.04466268
-0.10170624 0.0073326095 0.23911406 0.39745456 -0.15055344 0.15998311 0.049066566 -0.27682626
0.1386185 -0.3395135 -0.28377897 0.16097522 0.09536565 0.047360078 0.039276414 -0.1373248
-0.03219898 -0.061279695 -0.045416128 0.17344914 0.113776445 0.32434246 0.10953169 -0.11560127
-0.13204499 -0.10217285 0.013210076 -0.15217672 -0.12092113 -0.05382448 0.039494827 -0.058523577
0.13882355 -0.12096712 0.022633959 -0.04138381 0.15678053 0.14901224 0.10125305 -0.06433247
-0.1513977 0.12079452 -0.10272173 -0.008399595 0.0009253664 0.08344213 0.040123902 -0.050865386
0.0578608 -0.023466857 0.0026789785 0.08065479 0.008395377 -0.023152843 0.01102805 -0.0033292621
-0.15451916 -0.1463096 -0.15105535 0.11654357 -0.012657326 0.08527417 0.10653219 0.006070347
0.009171858 0.01197812 -0.06848511 0.08710985 -0.10483962 0.018634558 -0.026817903 -0.0017306805
-0.033172555 0.109512195 -0.026922315 0.101785496 -0.07745648 0.15105747 0.069916606 -0.09909676
-0.06021224 0.13676341 -0.024852768 -0.003320545 0.14653774 0.018714353 -0.07088664 0.04943973
0.016246587 -0.09187888 0.069285095 0.14098208 0.021743193 -0.03986641 -0.12724793 0.09623183
0.07651313 -0.11833452 -0.15526932 -0.10333769 0.07011941 -0.11931197 -0.021706283 0.013835713
-0.09212173 -0.044650853 0.0008022487 0.0025080591 -0.015734166 -0.07756053 -0.14863536 -0.11513378
-0.026174396 0.0019637048 -0.048250265 0.13873576 0.13385014 -0.09435993 0.023829505 -0.082256444
0.02180025 0.056793973 0.005018696 0.11493571 -0.011287183 -0.093470514 -0.13545775 -0.06835193
0.11957373 -0.075120874 -0.1443839 -0.022657514 -0.1281031 0.067605734 -0.082770064 0.097388014
-0.08915744 0.15140922 0.1377946 -0.11163609 0.026717499 0.02770421 0.11312322 -0.061953343
-0.10371339 0.031068305 0.030154541 0.07098401 0.14725539 0.003344387 0.051523745 -0.03848586
-0.11637959 -0.102971144 0.00036530223 -0.08655961 -0.019071415 0.13021985 -0.13032699 0.15451482
-0.04911698 -0.057676278 -0.042784702 -0.12686789 0.095405445 0.026270153 -0.18183705 -0.101682045
-0.094462454 -0.03239302 0.122916505 0.15495926 -0.017982056 -0.077396624 0.07981393 0.12671903
0.11871515 -0.005829492 -0.1536871 0.10138501 0.16657045 0.06623214 0.041236658 0.07231128
-0.039674204 -0.160999 0.16256985 -0.04169696 0.0068391473 -0.051203907 0.08761846 -0.051902562
-0.008068439 0.031165823 -0.011999421 0.15722214 0.1357217 -0.08126676 -0.019866405 -0.070215955

bias f4 [40]
00000000: 3660 e6bc 1ce2 06be 560e 7dbd 8b3d 13be
00000010: 48aa 36bd 5b48 003e 5fb7 953b 195e 423e
00000020: 2e27 29bc c997 313d 1f55 223d 46cd 173e
00000030: 33ce 843c 5a46 cb3d 807f c0ba 97b1 10be
00000040: 7702 1d3d a6a4 36bd 7c1e 9b3c 1035 c2bb
00000050: 78d3 803e 09c4 16bb 7c0b 1b3d 6e66 6fbd
00000060: 4cc3 8b3d e449 68bd f2b9 5a3e 4593 c6bc
00000070: 7525 86be c12b 99be ff6f a2bd 3f76 1abe
00000080: b993 5bbe 69ca 05be 612e 913c 1214 09be
00000090: 3367 f13d e0e9 613e fd23 1abe 39c7 42be
-0.028122049 -0.13172191 -0.06178125 -0.14378946 -0.044595987 0.12527601 0.0045689787 0.18981208
-0.010324283 0.043357644 0.03963196 0.148244 0.016211605 0.09925528 -0.0014686435 -0.14130245
0.03833243 -0.044590615 0.018935435 -0.0059267357 0.25161338 -0.002300503 0.03785275 -0.058447294
0.06824359 -0.056711093 0.21359995 -0.024240145 -0.26200452 -0.29916194 -0.07931518 -0.1508417
-0.2144307 -0.13065495 0.01772231 -0.13386562 0.11787262 0.22061872 -0.15052791 -0.1902131

weight f4 [1, 40]
00000000: 6606 29be 1a03 473f ebf3 c83d 66be 20be
00000010: 8477 3a3d a083 67be 59a9 b13e 336b 32be
00000020: 8650 a23e 7adf 99be 8858 ae3d 0e4a f6be
00000030: 99d9 60be c7fd febe f6c0 ebbd 66ac b5bd
00000040: d1ba 4abe 97aa 3f3f 1f07 e23d 0e77 5abc
00000050: d317 26bf 1233 c2bd 4382 01be 8470 433d
00000060: 6cf4 bfbd 33f9 043e d12a 39bf 7658 a13c
00000070: 351a 253f 46a8 363f 81b5 083d 8580 1d3e
00000080: 730b 773f 4087 aa3b 8dde 5ebe b80f 09be
00000090: 443e 0d3e f7d0 20bf e0e5 f83b 7480 f03e
-0.16506347 0.7773911 0.09812149 -0.15697631 0.045524135 -0.22608805 0.34699515 -0.17423706
0.3170206 -0.30053312 0.0851298 -0.48103374 -0.21958007 -0.49802992 -0.11511414 -0.08870773
-0.19797827 0.74869674 0.110365145 -0.013334049 -0.648801 -0.09482397 -0.12647347 0.047714725
-0.09372792 0.12985687 -0.7233096 0.019695502 0.64493114 0.71350515 0.03337622 0.15381058
0.96501845 0.0052041113 -0.21764584 -0.13384902 0.13793284 -0.62818855 0.0075957626 0.46973002
