learning/model3/dnn/model_15.pth (torch, 11163 bytes, 5 tensors)

weight f4 [40, 7]
0	0xbeb76693	-0.35820445
1	0x3eb86c9b	0.3602036
2	0x3e4de2a3	0.20105986
3	0xbe089922	-0.13339666
4	0xbd392462	-0.045200713
5	0x3e310abf	0.17289256
6	0x3e38b649	0.18038286
7	0xbea2a773	-0.3176838
8	0x3b5edb97	0.0034005397
9	0x3e1b4733	0.15163879
10	0xbdfcb5e0	-0.123393774
11	0x3e67ccda	0.22636738
12	0x3bf8b6f1	0.0075901677
13	0x3e689bbe	0.22715661
14	0x3dc9d771	0.09855545
15	0x3e8c474a	0.2739814
16	0xbc167bd2	-0.0091847945
17	0x3e641cbe	0.2227659
18	0xbdd9b840	-0.10630846
19	0x3e623146	0.22089109
20	0xbc2ae24f	-0.010429933
21	0xbebc94ef	-0.36832377
22	0xba0848e6	-0.0005198851
23	0xbea3e1cf	-0.32008216
24	0x3dc6e9fe	0.09712599
25	0x3d685922	0.05672563
26	0xbe02896b	-0.12747733
27	0x3e5b1560	0.21394873
28	0xbea44dee	-0.32090706
29	0x3e97629e	0.29567426
30	0x3e54c5a7	0.20778523
31	0x3dad7e2a	0.084713295
32	0xbb1295dc	-0.0022367155
33	0x3d85815d	0.06518815
34	0xbe34b2ec	-0.17646378
35	0x3d53cae9	0.051707182
36	0xbe276f8b	-0.16351144
37	0x3d646e42	0.055769213
38	0x3dac7584	0.08420852
39	0x3e619e9a	0.22033158
40	0xbe654954	-0.22391254
41	0x3eb13037	0.34607098
42	0xbe9c6b74	-0.3055073
43	0x3eb6ed7b	0.35728058
44	0xbe4dc484	-0.20094496
45	0xbebd9ef9	-0.3703535
46	0xbd69a8a5	-0.057045598
47	0x3d63bab5	0.05559798
48	0x3d83c1c6	0.06433444
49	0x3e0b4d3e	0.13603684
50	0x3dba6704	0.0910168
51	0x3e08b5fb	0.1335067
52	0xbd5494bc	-0.051899657
53	0x3e9b442f	0.30325457
54	0xbde76299	-0.11298103
55	0x3e993f3b	0.29931054
56	0x3e5558b7	0.20834623
57	0xbd885798	-0.06657332
58	0xbe92d56f	-0.28678462
59	0x3e226b9c	0.15861362
60	0x3e0cc504	0.1374703
61	0x3ea15599	0.31510618
62	0x3ea4b45b	0.3216885
63	0x3c56188e	0.013067378
64	0xbea4d2ea	-0.32192165
65	0xbe3fc366	-0.18726882
66	0xbe865c7e	-0.2624244
67	0xbeadee15	-0.33970705
68	0x3e809c4a	0.2511924
69	0x3eb30ed8	0.34972262
70	0x3e694d13	0.22783308
71	0xbe5e83ca	-0.21729961
72	0x3e6a0bc2	0.22856048
73	0x3c759bc6	0.014990753
74	0x3ea5cbe1	0.3238211
75	0xbea822fc	-0.3283919
76	0xbe98a3f2	-0.2981258
77	0x3e5a0770	0.212919
78	0x3ea6ed3f	0.3260288
79	0xbe3bb82b	-0.18331973
80	0x3e86e3b6	0.26345605
81	0xbc03f64b	-0.008054326
82	0xbe1e748c	-0.15474147
83	0xbe570afd	-0.21000285
84	0xbdf23e57	-0.11828297
85	0x3e987f65	0.29784694
86	0x3ede4241	0.43409923
87	0x3eb546ef	0.3540568
88	0xbe014e71	-0.1262758
89	0x3e914c31	0.28378442
90	0xbe326d1d	-0.17424436
91	0xbe209a49	-0.15683855
92	0xbe711a50	-0.23545194
93	0x3dd4d198	0.10391539
94	0xbe677e1d	-0.22606702
95	0xbd9b0c09	-0.07570655
96	0xbeb1d151	-0.34730008
97	0x3dbe091c	0.09279081
98	0x3e1a6542	0.1507769
99	0xbeb1aa69	-0.34700325
100	0x3ddd98ae	0.10820137
101	0x3e3f542e	0.18684456
102	0x3e335e68	0.17516482
103	0xbe22a413	-0.15882902
104	0xbc8312f5	-0.01600025
105	0xbe5bfcf7	-0.21483217
106	0xbce75bf6	-0.028242093
107	0xbdfa9648	-0.12235695
108	0xbe06b830	-0.131562
109	0xbea251c5	-0.3170301
110	0xbe926302	-0.28591162
111	0xbd997e4a	-0.07494791
112	0xbd9d03df	-0.07666754
113	0xbe13c6b4	-0.14431268
114	0x3db73694	0.08945957
115	0x3eb765a1	0.35819724
116	0x3e7b490a	0.24539581
117	0x3ce65b42	0.028119687
118	0x3e874054	0.26416266
119	0xbead518d	-0.3385128
120	0xbe087b0b	-0.13328187
121	0xbe86faac	-0.26363122
122	0xbe9cf2d6	-0.3065402
123	0x3ec0c4b4	0.37650073
124	0xbe944b96	-0.28963917
125	0x3e3fc757	0.18728386
126	0x3e91d756	0.284846
127	0x3eafb4ad	0.34317532
128	0xbe3496f3	-0.17635708
129	0xbe0f8dbe	-0.14018914
130	0xbeb04425	-0.3442699
131	0xbe42b320	-0.19013643
132	0x3e8d9a8e	0.27656978
133	0xbd9cc830	-0.0765537
134	0xbe1305a0	-0.14357615
135	0xbd1a4c98	-0.0376707
136	0x3ea4f966	0.32221526
137	0xbea9f7f5	-0.3319699
138	0x3dc7c2ac	0.097539276
139	0x3c7cb983	0.015425089
140	0xbe9730d6	-0.29529446
141	0x3c67bac4	0.0141436495
142	0xbe9b4043	-0.30322465
143	0xbcbe19cb	-0.023205658
144	0x3eb969ea	0.3621362
145	0x3e50f90d	0.20407505
146	0x3cb83cb0	0.022489876
147	0xbe615a25	-0.22007044
148	0x3e464114	0.19360763
149	0x3eae83b8	0.34084868
150	0xbebdb40d	-0.3705143
151	0x3eaa150b	0.3321918
152	0x3d1f537a	0.03889797
153	0xbe929cc3	-0.28635225
154	0x3ec8bd21	0.39206794
155	0xbd818855	-0.063248314
156	0x3ebf791f	0.37397096
157	0x3e83bdc0	0.25730705
158	0x3e2f47f8	0.17117298
159	0x3dd41d9f	0.10357212
160	0xbc9f8953	-0.019474661
161	0x3ec2777f	0.37981793
162	0xbe48fd53	-0.19627886
163	0xba4fc1f0	-0.0007925322
164	0x3e1197d7	0.14218079
165	0x3dfc79b1	0.12327898
166	0xbc7b269d	-0.01532903
167	0x3e873422	0.26406962
168	0x3bba2bd3	0.005681494
169	0x3cc14bb5	0.02359567
170	0x3eddf43a	0.43350393
171	0x3db01314	0.08597389
172	0xbe6651c9	-0.22492136
173	0xbe4c0b51	-0.19926192
174	0x3dc5756f	0.09641539
175	0x3e83cf8d	0.25744286
176	0xbe2b7eeb	-0.16747634
177	0xbea4ca0a	-0.32185394
178	0xbeb43bd3	-0.35201892
179	0xbde9ae27	-0.1141017
180	0x3eadb46b	0.3392671
181	0x3dda3593	0.1065475
182	0xbe8f71ab	-0.2801641
183	0x3eb6d793	0.35711345
184	0xbce5549f	-0.027994452
185	0xbe8fe1d3	-0.28101978
186	0xbdb2e0b7	-0.08734267
187	0xbec0f9cb	-0.37690577
188	0xbe598f0f	-0.21245979
189	0xbdd34aab	-0.10316976
190	0xbe8a8dae	-0.27061218
191	0x3ba1e3d6	0.0049404902
192	0x3e9e7141	0.3094578
193	0x3e888f2a	0.26671726
194	0x3e838a9d	0.2569169
195	0x3d63a3b6	0.05557605
196	0xbeb210ac	-0.34778345
197	0xbc95eb94	-0.018300809
198	0x3eda87ec	0.42681825
199	0x3d9990f3	0.0749835
200	0x3d9c57a0	0.07633901
201	0x3d4b2f2d	0.049605537
202	0x3e8afd7f	0.27146527
203	0x3dfc34c4	0.12314752
204	0x3e9f3a59	0.31099203
205	0xbf066b7f	-0.52507776
206	0x3e9b3a04	0.303177
207	0x3e892189	0.26783398
208	0x3e5130e7	0.20428811
209	0xbeb4483e	-0.35211366
210	0xbd1f851a	-0.038945295
211	0x3e3e3100	0.1857338
212	0x3aec238e	0.0018015967
213	0x3e4052c4	0.18781573
214	0x3eb2bb38	0.34908462
215	0xbe8006a2	-0.2500506
216	0x3d3d8d30	0.046277225
217	0xbe2c60fe	-0.16833875
218	0x3ea8a48f	0.32938048
219	0xbecc3154	-0.39881384
220	0x3ecaf5b5	0.39640585
221	0x3ebf4fd0	0.3736558
222	0xbd275f7b	-0.04086254
223	0xbd013d82	-0.0315528
224	0x3e7c89a1	0.24661876
225	0xbdca43ba	-0.09876199
226	0xbd35c381	-0.0443759
227	0x3dd8ca70	0.10585487
228	0x3d0c2596	0.034215532
229	0xbe4d9943	-0.20077996
230	0x3e26dbf5	0.16294844
231	0x3e12abe3	0.14323382
232	0x3d812ad2	0.063069955
233	0xbe84d6d1	-0.25945142
234	0x3e8ddf00	0.27709198
235	0x3e88f5ed	0.26750126
236	0xbe7a18a0	-0.24423456
237	0xbd9e2f0e	-0.07723819
238	0x3c7fee30	0.015620753
239	0xbca445e4	-0.020052858
240	0x3e2c3030	0.16815257
241	0xbe5bdc50	-0.21470761
242	0x3e90fb36	0.2831666
243	0x3e800203	0.25001535
244	0xbd2d6d81	-0.04234076
245	0xbbf7aa6b	-0.007558157
246	0xbe1e252c	-0.15443867
247	0xbdcecb49	-0.10097367
248	0xbd87903c	-0.066193074
249	0x3ebbac26	0.36654776
250	0xbe651c83	-0.22374158
251	0x3e94d8bc	0.29071605
252	0xbd916ff3	-0.07101431
253	0xbe5701e2	-0.20996812
254	0x3e3d0738	0.18459785
255	0x3de1fdbe	0.110347256

bias f4 [40]
0	0x3ea69986	0.32539004
1	0x3e8f6aaf	0.2801108
2	0xbe41bf84	-0.18920714
3	0xbe814e0d	-0.2525486
4	0x3e97b3a4	0.29629242
5	0xbc2c1674	-0.0105034
6	0xbe0d232f	-0.13782953
7	0x3dacef84	0.084441215
8	0x3df0e434	0.11762276
9	0xbeb88bdf	-0.36044213
10	0x3e965aba	0.29366094
11	0xbeb57802	-0.3544312
12	0xbe8748d3	-0.26422748
13	0x3e8a6027	0.27026483
14	0xbdfca522	-0.12336184
15	0x3e0f471e	0.13991973
16	0xbe8c8157	-0.27442428
17	0x3e817c92	0.25290352
18	0x3e7a1780	0.24423027
19	0x3dfc4d4e	0.12319432
20	0x3d331e85	0.043730278
21	0xbeb5704a	-0.35437232
22	0xbe892299	-0.26784208
23	0xbd7e5a6d	-0.062097955
24	0x3e9bce65	0.30430904
25	0xbe3fcf2e	-0.18731377
26	0xbd73c8ba	-0.0595176
27	0xbc1fed4d	-0.009761167
28	0x3e8c9105	0.2745439
29	0x3ec92e3a	0.3929308
30	0x3e8b15c0	0.2716503
31	0xbe1f2e81	-0.15545084
32	0xbd60a753	-0.054847073
33	0x3e43e88e	0.19131681
34	0xbd7c6d14	-0.061627463
35	0x3d1d663c	0.038427576
36	0x3e7ad0a7	0.24493657
37	0x3cca9e28	0.024733618
38	0xbeaf91ea	-0.3429101
39	0x3db2b048	0.08725029

weight f4 [40, 40]
0	0xbddd48ac	-0.10804877
1	0xbd3e465e	-0.046453826
2	0x3d34e5f7	0.044164624
3	0x3b60b28c	0.003428611
4	0x3d737b5b	0.059443813
5	0xbc807fbd	-0.01568591
6	0x3d848069	0.06469805
7	0x3d811258	0.06302327
8	0x3d7f86c4	0.062384382
9	0xbd846bcc	-0.06465873
10	0x3daceafa	0.08443256
11	0xbd4649c1	-0.04841018
12	0xbe0d6c88	-0.13810933
13	0x3d23ae2e	0.039961033
14	0xbc3cc476	-0.011521449
15	0x3d458e84	0.048231617
16	0xbe017c0e	-0.1264498
17	0xbdb29831	-0.087204345
18	0xbd1751da	-0.036943294
19	0xbe14e350	-0.14539838
20	0x3d29bf3f	0.041442152
21	0xbd05da65	-0.03267898
22	0xbdf2f11b	-0.118623935
23	0x3bf91d49	0.007602368
24	0x3dab18e0	0.08354354
25	0xbdc9ff3f	-0.098631375
26	0xbcd34580	-0.025789976
27	0x3dbdca2a	0.09267075
28	0x3dc015b2	0.09379138
29	0x3da37240	0.07980776
30	0xbc31ff42	-0.010864081
31	0x3daff16f	0.08590972
32	0x3d1677dc	0.0367354
33	0x3b735a78	0.003713278
34	0xbc9e7433	-0.019342517
35	0xbd3a612c	-0.045502827
36	0x3d729d88	0.059232265
37	0x3d84d73e	0.06486367
38	0x3d21729f	0.03941595
39	0x3e11b67b	0.14229767
40	0xbc59d30f	-0.013294949
41	0xbdf5c00d	-0.119995214
42	0xbd21f024	-0.039535657
43	0x3e135cab	0.14390819
44	0xbe02b06b	-0.1276261
45	0xbe206222	-0.15662435
46	0xbdd6d551	-0.104899056
47	0x3e20965f	0.15682362
48	0xbe0ea8ff	-0.13931654
49	0xbdb88a46	-0.090107486
50	0xbc71b7b9	-0.014753276
51	0xbcc3c728	-0.023898676
52	0xbe0a055d	-0.13478608
53	0xbe2149e8	-0.15750849
54	0xbdf6ce39	-0.120510526
55	0x3e1d9912	0.15390423
56	0x3d7314b9	0.059345935
57	0x3dac0414	0.08399215
58	0x3db957ae	0.09049927
59	0xbd3b9287	-0.045794036
60	0xbc920bbc	-0.017827861
61	0x3dd9b6a0	0.10630536
62	0x3a21e04c	0.00061750854
63	0x3c16889e	0.0091878455
64	0xbe1c7a4a	-0.15281025
65	0x3dbf7028	0.09347564
66	0x3e15e83b	0.1463937
67	0x3b7dcb05	0.0038725745
68	0x3d9a8981	0.07545758
69	0x3e0e88dd	0.13919397
70	0xbc721085	-0.014774446
71	0xbc2dfd0b	-0.010619412
72	0x3c626274	0.013817418
73	0xbde0311c	-0.10946867
74	0xbdc5847b	-0.09644409
75	0x3cec19b1	0.028820844
76	0x3daf0697	0.08546179
77	0xbd3440c5	-0.04400708
78	0xbe128ce4	-0.14311558
79	0x3d95ad1e	0.0730841
80	0x3dedba7c	0.11607835
81	0x3e0458ad	0.12924452
82	0x3d9fbdd6	0.0779988
83	0x3bd90e75	0.006624038
84	0x3e109914	0.14120895
85	0xbe218064	-0.15771633
86	0xbcbb6f86	-0.022880327
87	0xbd6ed1ea	-0.05830566
88	0x3d8d30c0	0.06894064
89	0x3dc27daa	0.09496625
90	0x3d9d0867	0.07667618
91	0xbe271eaa	-0.16320291
92	0x3df843ee	0.121223316
93	0x3c2cc951	0.010546044
94	0xbe121992	-0.14267567
95	0x3d0531a8	0.03251806
96	0x3e1151ad	0.14191313
97	0xbdd4cc83	-0.1039057
98	0x3cf7a463	0.030229753
99	0x3e0a8326	0.13526592
100	0x3d28fda0	0.0412575
101	0x3dda859c	0.10670015
102	0x3ce77bbe	0.028257247
103	0x3df02d3d	0.117273785
104	0x3d6a8806	0.05725863
105	0x3e242537	0.16029821
106	0x3d0cc152	0.034364052
107	0x3da7230e	0.08160983
108	0x3c990ccd	0.018682862
109	0xbce6d7b5	-0.028179029
110	0x3d44eff9	0.04808042
111	0xbd92d475	-0.07169429
112	0xbe16026e	-0.14649364
113	0x3d9f7aed	0.07787118
114	0x3e2ee40b	0.17079179
115	0xbc759c48	-0.014990874
116	0x3bd79439	0.006578949
117	0x3d09f8f8	0.0336847
118	0x3d0e69f2	0.034769006
119	0xbd85fd69	-0.06542475
120	0xbd264082	-0.040588863
121	0xbd21a5b6	-0.039464675
122	0xbdcc61e9	-0.099796124
123	0x3de828cb	0.11335906
124	0x3da84c40	0.082176685
125	0x3e1f05b2	0.15529516
126	0x3cda3e4b	0.026641032
127	0x3d57fc8e	0.05273109
128	0x3d3b794e	0.045769982
129	0x3e16f0af	0.14740251
130	0xbd24f4b6	-0.040272437
131	0x3d8eb162	0.06967427
132	0xbd25d080	-0.040482044
133	0xbe1aa51c	-0.15102047
134	0x3c70d0be	0.0146982055
135	0x3db85458	0.09000462
136	0x3e15d66f	0.14632581
137	0x3e13e307	0.14442073
138	0x3df28e58	0.11843556
139	0x3d1b2873	0.037880372
140	0x3dd4faec	0.10399422
141	0xbc62236e	-0.013802392
142	0x3e0e1362	0.13874581
143	0xbd91da48	-0.07121712
144	0x3c358231	0.011078403
145	0xbd84ac41	-0.06478167
146	0x3e19c451	0.15016295
147	0x3dcfe115	0.10150353
148	0xbe0354c7	-0.12825309
149	0xbbe9adca	-0.007131313
150	0xbceb4bb2	-0.028722618
151	0x3d3c5c90	0.045986712
152	0xbc017179	-0.007900589
153	0xbcdd6a70	-0.027028292
154	0xbe038093	-0.12842016
155	0x3db291d8	0.08719224
156	0x3beeba18	0.0072853677
157	0x3d8a616b	0.06756862
158	0x3db2fcd9	0.08739633
159	0x3dc5073a	0.09620519
160	0x3c3837d0	0.0112437755
161	0x3de1caea	0.11025031
162	0xbd8ae4a1	-0.06781889
163	0x3e05785b	0.13034193
164	0xbdbb1dce	-0.09136544
165	0xbd8ec3c7	-0.06970935
166	0x3d60487c	0.054756626
167	0xbb7f93c0	-0.0038997978
168	0xbd89ea44	-0.06734136
169	0x3dcbd832	0.09953345
170	0x3c10dee0	0.0088422
171	0xbd6be28a	-0.05758909
172	0x3b271dc0	0.002549991
173	0x3c8f31e0	0.017479837
174	0x3db5cf5e	0.08877443
175	0xbdd2e548	-0.10297638
176	0x3d94f830	0.072739005
177	0xbd029844	-0.031883493
178	0x3d9b1faa	0.07574399
179	0xbdff56be	-0.12467717
180	0x3d3d5aa4	0.04622902
181	0xbd622524	-0.0552112
182	0xbd81db44	-0.0634065
183	0xbdfededc	-0.12444851
184	0x3e0076fd	0.1254539
185	0xbde1551d	-0.11002562
186	0x3d7f5724	0.062338963
187	0xbd2a74b0	-0.041615188
188	0xbdbf914e	-0.093538865
189	0xbdae3884	-0.08506873
190	0xbdfac1c6	-0.122439906
191	0xbe1fde7b	-0.15612213
192	0x3df8e502	0.12153055
193	0xbc6945b0	-0.014237806
194	0xbbc9dae0	-0.006160125
195	0x3d8e0a9e	0.06935619
196	0xbd24166e	-0.040060453
197	0xbded3df6	-0.11584084
198	0xbd68e91e	-0.056862943
199	0x3c4918b0	0.012273952
200	0xbdb139c1	-0.08653594
201	0xbd902997	-0.07039183
202	0x3d954dd8	0.07290238
203	0xbdd4ffd4	-0.10400358
204	0x3cd717d3	0.026256477
205	0xbe089f7f	-0.13342093
206	0x3c2ee8f2	0.010675656
207	0xbd8b35d0	-0.06797373
208	0xbd7f9d5b	-0.062405925
209	0x3de59b86	0.11211304
210	0x3e04292a	0.12906328
211	0x3cb7c00c	0.022430442
212	0x3e016fda	0.12640324
213	0x3e08b7b0	0.13351321
214	0xbde6026c	-0.11230931
215	0x3ded24f2	0.115793124
216	0x3e01e5b2	0.12685278
217	0xbd37b0be	-0.04484629
218	0xbe0e64db	-0.13905661
219	0x3dba9042	0.09109546
220	0xbe07bbab	-0.13255183
221	0x3de075d3	0.10959973
222	0xbdf893fa	-0.12137599
223	0xbdb4ffd5	-0.088378586
224	0x3d95ed84	0.07320693
225	0xbcadd419	-0.0212193
226	0x3d6fb122	0.058518536
227	0xbd9a7ef7	-0.07543748
228	0xbe1e2312	-0.15443066
229	0xbd8fd2f2	-0.070226565
230	0xbd01c278	-0.0316796
231	0x3de27418	0.110572994
232	0xbd56313e	-0.052293055
233	0x3defc44c	0.117073625
234	0x3d825a95	0.063649334
235	0x3e06a717	0.13149677
236	0xbde7d492	-0.113198414
237	0xbd859add	-0.065236785
238	0x3d672d80	0.056439877
239	0xbe13bf31	-0.14428402
240	0x3b0e3819	0.0021700917
241	0x3e22bf72	0.15893343
242	0x3cc73320	0.02431637
243	0xbd95a4cb	-0.073068224
244	0x3de4f038	0.111786306
245	0xbce16b67	-0.027517034
246	0x3d19748b	0.03746466
247	0x3e000d08	0.12504971
248	0xbd964b7a	-0.07338615
249	0x3bff4fa3	0.007791476
250	0x3d6dc571	0.058049623
251	0x3d92ce72	0.071682826
252	0x3d9b071e	0.07569717
253	0xbd804d23	-0.06264713
254	0xb98060a2	-0.0002448606
255	0x3dc1cde5	0.094630994

bias f4 [40]
0	0x3d6eb41b	0.05827723
1	0x3c01111a	0.0078776125
2	0xbe34059a	-0.17580262
3	0x3dc50627	0.09620314
4	0xbc9cf588	-0.019160047
5	0x3e1b8f1c	0.1519131
6	0xbdf637c8	-0.12022358
7	0x3e04b1d8	0.12958467
8	0x3d1008c6	0.035164617
9	0x3d9d387c	0.07676789
10	0x3e2daae6	0.16959724
11	0x3e35aef0	0.17742515
12	0xbdaa8fad	-0.08328185
13	0xbd70d4d9	-0.058796737
14	0x3dc8eb7c	0.0981054
15	0x3e497ab2	0.19675711
16	0x3e13d100	0.14435196
17	0xbd1dfb2a	-0.038569607
18	0x3d65e6e7	0.05612841
19	0x3a98560f	0.0011622327
20	0x3d74f865	0.0598072
21	0x3e16b65c	0.14718002
22	0xbd87b4df	-0.06626295
23	0x3d141400	0.036151886
24	0xbdfc8526	-0.123300835
25	0xbd89e39e	-0.06732868
26	0xbc4c687b	-0.012476082
27	0xbdcbe97a	-0.099566415
28	0x3e21d172	0.15802553
29	0x3e239576	0.15974984
30	0xbdefa8f3	-0.117021464
31	0xbd0da13f	-0.034577604
32	0xbe1b09fc	-0.15140527
33	0xbd8617f1	-0.06547535
34	0x3e891a06	0.26777667
35	0x3db57ac0	0.08861303
36	0x3ded3036	0.11581461
37	0xbc91a1bd	-0.017777318
38	0x3d38f6e8	0.045157343
39	0x3d8394b3	0.064248465

weight f4 [1, 40]
0	0xbdd74f05	-0.10513119
1	0xbd20a42c	-0.039219067
2	0x3e574fda	0.21026555
3	0xbdb00b4f	-0.08595907
4	0x3d920e02	0.07131578
5	0x3d6ea49c	0.058262452
6	0x3e8b1b26	0.2716915
7	0xb787a52c	-1.6170168e-05
8	0xbd850dc4	-0.06496766
9	0xbd7cd671	-0.061727945
10	0xbea44d4b	-0.3209022
11	0xbea1a32b	-0.315698
12	0xbeca1dec	-0.39475954
13	0x3bdb9346	0.006700906
14	0x3d987abb	0.07445284
15	0xbebcb464	-0.36856377
16	0xbd5243ee	-0.051334314
17	0xbd2064ce	-0.039158635
18	0xbd68ba61	-0.05681837
19	0x3dd85e45	0.105648555
20	0xbe6907dc	-0.22756904
21	0xbd3e2c82	-0.046429165
22	0xbd54254e	-0.05179339
23	0xbcd21818	-0.025646254
24	0x3df926fe	0.1216564
25	0x3e160593	0.14650564
26	0xbc22b2a6	-0.009930288
27	0x3e529a03	0.20566563
28	0xbe426493	-0.18983679
29	0xbdbbcc7a	-0.0916986
30	0x3d1f3e08	0.038877517
31	0x3e0f3cd4	0.13988048
32	0x3c1190c0	0.008884609
33	0x3e7a1014	0.24420196
34	0xbecd5d50	-0.40110254
35	0xbe0274ed	-0.12739916
36	0xbdd8fd27	-0.1059516
37	0x3d1a78d8	0.0377129
38	0x3e2d3c48	0.16917527
39	0xbd155d21	-0.036465768
