learning/model3/dnn/model_2.pth (torch, 11163 bytes, 5 tensors)

weight f4 [40, 7]
0	0x3d12fe4d	0.03588705
1	0x3eabdc3b	0.3356646
2	0x3e01f55b	0.12691252
3	0xbcc83def	-0.024443595
4	0xbe167ab6	-0.14695248
5	0x3c498d7a	0.012301797
6	0x3ea93ff1	0.33056596
7	0xbd8fc629	-0.07020218
8	0x3d759204	0.059953704
9	0xbcfde6d8	-0.030993864
10	0x3eaf6c40	0.34262276
11	0x3e9405ef	0.28910777
12	0xbe93262c	-0.2874006
13	0xbe0ef967	-0.13962327
14	0xbd47bc9f	-0.048763867
15	0x3eb69d79	0.35667017
16	0xbe85d576	-0.2613942
17	0x3e80f036	0.25183266
18	0x3df66859	0.120316215
19	0x3e6194c2	0.22029403
20	0x3e82eaac	0.25569665
21	0x3e9cac6e	0.30600303
22	0x3e953535	0.29142156
23	0x3ea6020e	0.32423443
24	0x3e970ee4	0.29503548
25	0xbc7774c2	-0.015103521
26	0x3e1b2fd6	0.15154967
27	0xbe00016e	-0.12500545
28	0xbea950ca	-0.3306945
29	0x3eadda3c	0.33955562
30	0x3ef2d5a6	0.47428626
31	0xbcca1f59	-0.02467315
32	0xbe2c7680	-0.16842079
33	0x3e67dda5	0.22643144
34	0xbe49ad8b	-0.19695108
35	0x3e9a4708	0.30132318
36	0x3e2be0bf	0.16784953
37	0x3e9092c0	0.2823696
38	0x3e92ffea	0.28710872
39	0x3e74ab70	0.23893523
40	0x3e081d74	0.13292485
41	0xbd00b788	-0.03142503
42	0xbe29e453	-0.16591005
43	0xbd78dfd2	-0.060760327
44	0x3eb80a75	0.35945478
45	0xbec66097	-0.38745567
46	0x3e57a463	0.21058802
47	0x3d825377	0.06363576
48	0xbe3a9015	-0.18219025
49	0xbc70e35a	-0.014702642
50	0xbe7670aa	-0.24066415
51	0x3dc191c4	0.09451631
52	0xbe4622c7	-0.19349204
53	0xbebdbaf0	-0.37056684
54	0x3eb64c0e	0.356049
55	0x3e6bac6e	0.23014995
56	0xbe3cf550	-0.18452954
57	0xbead2bc7	-0.33822462
58	0xbe51cee1	-0.20489074
59	0xbe6d0aee	-0.231487
60	0x3ddcf26e	0.10788427
61	0x3e524f25	0.20538004
62	0x3e6b318b	0.22968118
63	0xbe12b040	-0.14325047
64	0x3ea6fb9d	0.3261384
65	0xbe4d7c36	-0.20066914
66	0xbeb0bd20	-0.3451929
67	0xbeaf8b1f	-0.34285828
68	0x3e06aa08	0.131508
69	0x3d8df22c	0.06930956
70	0xbea2793d	-0.31733122
71	0x3eb0c3cf	0.3452439
72	0x3e337c90	0.17527986
73	0x3e2976c1	0.16549207
74	0xbe95aebe	-0.2923488
75	0xbdac36f4	-0.08408919
76	0xbd97a975	-0.07405368
77	0xbeb1ac8a	-0.3470195
78	0x3cb4642c	0.022020422
79	0x3ec1a9a8	0.3782475
80	0xbe6f497b	-0.23367874
81	0x3eb71d4d	0.35764542
82	0xbeb6100a	-0.35559112
83	0x3de44bda	0.1114728
84	0x3e94efa4	0.2908908
85	0xbe9a2954	-0.30109656
86	0xbe9597e2	-0.2921744
87	0x3dd1e7f3	0.10249319
88	0x3d904112	0.07043661
89	0x3e921eeb	0.28539214
90	0x3e5e9961	0.21738197
91	0xbec10a9a	-0.377034
92	0x3de00569	0.10938532
93	0x3dedbf73	0.11608782
94	0x3d25b2ab	0.040453594
95	0x3dc18ec9	0.09451062
96	0x3d24daea	0.040247835
97	0x3dca8aac	0.09889731
98	0x3e31dfa6	0.17370471
99	0xbe100fcd	-0.14068528
100	0xbe50dba6	-0.20396289
101	0x3ea2e4e5	0.31815258
102	0x3dfca9b8	0.12337059
103	0x3ea8ab99	0.3294342
104	0xbd78ae62	-0.06071318
105	0x3d7c1967	0.061547663
106	0x3d816769	0.06318552
107	0x3e5ad6f6	0.21371064
108	0x3e9a68a3	0.30157956
109	0xbdc8804e	-0.09790097
110	0x3e83155c	0.25602233
111	0xbea2ec95	-0.31821123
112	0xbe8b75bb	-0.2723826
113	0x3dd3a9fe	0.10335158
114	0x3ed051af	0.4068732
115	0xbd1558da	-0.03646169
116	0x3e4af6a2	0.19820645
117	0x3e714639	0.23561944
118	0x3cb3eab4	0.021962501
119	0xbc1e8078	-0.009674184
120	0xbd27ca1f	-0.040964242
121	0x3dff6031	0.12469519
122	0x3e1e6d00	0.15471268
123	0xbdd1acef	-0.102380626
124	0x3eb043a1	0.34426597
125	0x3dff28b0	0.124589324
126	0xbe78adcc	-0.24285048
127	0x3ea002fd	0.3125228
128	0xbea4de9e	-0.32201093
129	0xbe966980	-0.29377365
130	0xbdcfb4cc	-0.10141906
131	0xbd3194e0	-0.04335487
132	0xbe97c4b0	-0.29642248
133	0x3e877f9e	0.26464552
134	0x3e65d744	0.22445399
135	0x3e151a52	0.14560822
136	0xbe2883f3	-0.16456585
137	0x3d534d86	0.051587604
138	0xbdcaacf5	-0.0989627
139	0x3e5f05d2	0.21779564
140	0x3e71bb98	0.23606718
141	0x3e707fe2	0.23486283
142	0xbb074f5e	-0.0020646672
143	0x3b467219	0.003028041
144	0x3eab318b	0.33436236
145	0x3e0ac12f	0.13550256
146	0x3eb3d4ee	0.3512339
147	0x3e403b34	0.18772584
148	0x3dfef171	0.12448395
149	0xbec77ae5	-0.3896095
150	0x3e41a093	0.1890891
151	0x3d70259b	0.058629613
152	0x3e220947	0.15823852
153	0x3e02cb97	0.12772976
154	0x3e419ee6	0.18908271
155	0xbe8c276d	-0.2737383
156	0x3ee7f13b	0.45301232
157	0x3e0e332e	0.13886711
158	0x3e6ea54e	0.23305246
159	0xbe737c56	-0.23777899
160	0x3e860482	0.26175314
161	0xbe7709c1	-0.24124815
162	0x3ea6a6f6	0.32549256
163	0x3ec4a741	0.38408855
164	0xbd8788e2	-0.06617905
165	0x3dcf153d	0.10111473
166	0xbe7f09f1	-0.24906136
167	0x3e16a607	0.14711772
168	0x3ddbf235	0.10739557
169	0x3c322f8b	0.010875593
170	0xbe54c1c0	-0.20777035
171	0xbd0d79f3	-0.034540128
172	0xbe7c051e	-0.24611327
173	0x3ea3c812	0.3198858
174	0x3c715bf7	0.014731399
175	0xbe9505c5	-0.29105964
176	0x3e5846fd	0.2112083
177	0x3e310103	0.17285542
178	0xbe4c6a2f	-0.19962381
179	0xbe3b6098	-0.18298566
180	0x3e7eb140	0.24872303
181	0xbe14ad64	-0.14519268
182	0x3e97a093	0.29614696
183	0x3d598f48	0.05311516
184	0x3cd22533	0.025652504
185	0xbe9c4011	-0.3051763
186	0xbebddbd4	-0.37081778
187	0xbea420d7	-0.32056305
188	0xbe86af46	-0.26305598
189	0x3e905c1a	0.28195268
190	0x3ec6f664	0.38859856
191	0x3eb27fbe	0.34863085
192	0x3ea50723	0.32232007
193	0xbe0a18da	-0.13486043
194	0x3df8dc47	0.121513896
195	0x3e8b6ea3	0.27232847
196	0x3e1b4d32	0.15166166
197	0xbe93cde7	-0.2886803
198	0xbe41f018	-0.18939245
199	0xbe5243c8	-0.20533669
200	0x3c5a7197	0.013332746
201	0x3def53df	0.11685919
202	0x3e116510	0.14198709
203	0x3eb10a32	0.3457809
204	0x3ea28d3f	0.31748387
205	0x3e3ee8e9	0.18643536
206	0x3cbce95f	0.023060499
207	0xbdb1b5ef	-0.08677279
208	0xbe2a2ca0	-0.16618586
209	0x3e8a1480	0.26968765
210	0xbe010fdc	-0.12603706
211	0x3d1020c0	0.035187483
212	0xbca65da0	-0.020308316
213	0xbec07cab	-0.37595114
214	0xbeb2198c	-0.34785116
215	0xbe738ba6	-0.2378374
216	0x3bededc0	0.007261008
217	0x3e5a8cbd	0.2134275
218	0x3eacfe11	0.33787587
219	0x3d33adbc	0.043866858
220	0x3d758bee	0.0599479
221	0x3e4e1533	0.20125274
222	0x3dcb3e7f	0.099240296
223	0x3ea14a44	0.31501973
224	0xbd88890f	-0.06666767
225	0xbe1fc393	-0.1560195
226	0xbeabe33e	-0.3357181
227	0x3e66a76d	0.22524805
228	0x3d9a7a0b	0.07542809
229	0xbe340823	-0.17581229
230	0xbe5cd21a	-0.21564522
231	0x3dc36e44	0.09542516
232	0xbea37890	-0.3192792
233	0x3e02e096	0.12780985
234	0xbe2abea6	-0.16674289
235	0x3e87ed68	0.26548314
236	0x3e157586	0.14595613
237	0x3ea819fa	0.3283232
238	0xbebb0048	-0.36523652
239	0x3de073f0	0.10959613
240	0x3ee1ba32	0.44087368
241	0xbd9986f1	-0.07496441
242	0x3e88dd81	0.26731494
243	0xbe72c8f1	-0.23709466
244	0xbe32609a	-0.17419663
245	0xbdd41689	-0.10355861
246	0xbe2e193d	-0.17001815
247	0xbe0b4048	-0.1359874
248	0x3ea9b67d	0.3314704
249	0x3da48fa4	0.0803521
250	0x3e75e378	0.24012554
251	0xbea1e530	-0.3162017
252	0xbd8129b4	-0.06306782
253	0xbebe2524	-0.3713771
254	0x3e926d02	0.2859879
255	0x3b215c3b	0.0024621624

bias f4 [40]
0	0xbe1f0277	-0.15528284
1	0xbe842289	-0.25807598
2	0xbea4a064	-0.32153618
3	0xbd50a688	-0.050940067
4	0x3d59f4e1	0.05321205
5	0x3e52c1a5	0.20581682
6	0x396dbcb6	0.00022672382
7	0x3ea5ed84	0.32407773
8	0xbdbb8252	-0.09155716
9	0x3ed31050	0.41223383
10	0xbe9a3fe7	-0.3012688
11	0xbe6bfd51	-0.23045851
12	0x3e6be5f3	0.23036937
13	0x3eac7928	0.33686185
14	0xbe34e916	-0.1766704
15	0xbe976c09	-0.29574612
16	0xbdb5dd3f	-0.0888009
17	0xbe3c87c2	-0.18411162
18	0xbe71b308	-0.23603451
19	0x3ea4eb76	0.32210892
20	0x3ecd5f82	0.4011193
21	0x3d1b78e4	0.037957087
22	0x3e177e73	0.1479433
23	0xbde27bbc	-0.11058757
24	0xbe4e662a	-0.2015616
25	0xbd5359e1	-0.051599387
26	0xbc932cd0	-0.017965704
27	0xbe9d022d	-0.30665722
28	0x3ef7dc7a	0.48410398
29	0xbe05114a	-0.12994877
30	0xbe5ec9d9	-0.21756686
31	0x3d3b36c0	0.04570651
32	0x3e8c59ed	0.27412358
33	0xbe770ee1	-0.2412677
34	0x3adf3e1a	0.0017032058
35	0xbe30d724	-0.1726957
36	0x3e83a68b	0.25713
37	0x3c512b22	0.012766631
38	0xbc3825b4	-0.011239458
39	0xbec3ac9b	-0.38217625

weight f4 [40, 40]
0	0x3daae613	0.083446644
1	0x3dd37320	0.10324693
2	0x3db826fa	0.08991809
3	0x3d7dcd1a	0.06196318
4	0xbe2d863e	-0.1694574
5	0x3d2026ef	0.03909963
6	0x3e15e66e	0.14638683
7	0x3d87682d	0.06611667
8	0xbe131972	-0.14365175
9	0x3e2b193c	0.16708845
10	0x3df9a3f1	0.121894725
11	0xbe0cceac	-0.13750714
12	0x3e006aba	0.12540713
13	0x3dd9cdc4	0.1063495
14	0x3dcafaf6	0.09911148
15	0x3d8098f3	0.06279173
16	0xbe28050d	-0.16408177
17	0xbd8a28a0	-0.0674603
18	0x3d2f0247	0.04272678
19	0xbcf5b7a6	-0.029994797
20	0x3ca8ae5f	0.02059096
21	0x3cbee48c	0.023302339
22	0xbe3f1a43	-0.18662362
23	0xbdf30011	-0.11865247
24	0x3d9d397e	0.076769814
25	0x3e18dfc4	0.1492911
26	0x3c22eaf8	0.009943716
27	0x3d929614	0.071575314
28	0x3e2c5e9d	0.16832967
29	0xbda24df7	-0.07925027
30	0x3e10a0cb	0.14123838
31	0xbca1d676	-0.019755583
32	0x3dad6dff	0.08468246
33	0x3ddbf558	0.10740155
34	0x3cc5432b	0.02407988
35	0x3dd6b68e	0.10484038
36	0x3cade068	0.02122517
37	0xbdc4790c	-0.095934
38	0x3e2060b0	0.15661883
39	0x3e051c6d	0.12999125
40	0x3d0593c7	0.032611635
41	0x3d952cfd	0.072839715
42	0x3d9883da	0.07447024
43	0x3e18c306	0.14918146
44	0xbd18e3d1	-0.037326638
45	0xbdbad257	-0.091221504
46	0x3d8e9911	0.06962789
47	0xbdb249aa	-0.087054566
48	0xbc1b5131	-0.009479807
49	0x3de3d981	0.1112547
50	0x3dde8267	0.10864716
51	0xbb5a4372	-0.003330436
52	0xbda3c8f5	-0.07997314
53	0xbd5dbd63	-0.05413569
54	0x3cdd4f8d	0.027015472
55	0x3de128d4	0.109941155
56	0x3e06a919	0.13150443
57	0xbdc16aa1	-0.09444166
58	0x3cdb74d4	0.026789106
59	0xbd656931	-0.05600852
60	0x3e08cefb	0.13360207
61	0x3dd2a628	0.10285598
62	0x3d4c371e	0.04985725
63	0x3d0dc4d6	0.034611546
64	0x3cf114c1	0.029428842
65	0xbd6a5ba4	-0.0572163
66	0x3d4355ea	0.047689356
67	0x3d9b54d2	0.075845376
68	0xbe190fcd	-0.14947434
69	0xbe15dd19	-0.14635123
70	0x3e00a3b3	0.12562446
71	0x3b9b69cf	0.004742838
72	0xbde837e8	-0.11338788
73	0xbdae847b	-0.085213624
74	0x3db4cb1b	0.08827802
75	0xbc445af5	-0.0119845765
76	0x3e1c53b9	0.15266313
77	0xbcf7b87e	-0.03023934
78	0x3de00289	0.109379835
79	0x3e11e124	0.1424604
80	0x3e0a537b	0.13508408
81	0x3df2fac7	0.11864238
82	0xbd977c2d	-0.073967315
83	0x3daa8a6a	0.08327182
84	0x3e69a79f	0.22817849
85	0x3e29b97d	0.16574664
86	0x3d57e0b5	0.05270453
87	0xbd19e889	-0.03757528
88	0x3e0934d4	0.13399059
89	0xbe391338	-0.18073738
90	0x3dd8b719	0.10581798
91	0xbdd23adb	-0.10265132
92	0xbe600a2d	-0.21878882
93	0x3e0dda3a	0.13852778
94	0xbca6a421	-0.020341935
95	0x3de4d9c3	0.11174347
96	0x3d8e0aaa	0.06935628
97	0xbdbf8d61	-0.09353138
98	0x3e2122b1	0.1573589
99	0xbd982943	-0.07429745
100	0xbd127022	-0.03575147
101	0xbe4290a1	-0.19000484
102	0x3de8c34c	0.11365375
103	0x3e1830d3	0.14862375
104	0xbd547090	-0.05186516
105	0xbd3023b8	-0.043002814
106	0x3d5ff53f	0.054677244
107	0x3e7fd4e0	0.24983549
108	0xbd5aacd0	-0.053387463
109	0xbd68642c	-0.056736156
110	0x3e12e8d7	0.14346634
111	0x3dc81c4f	0.097710244
112	0xbdb43915	-0.0879995
113	0xbd70253e	-0.058629267
114	0x3e480ea4	0.19536835
115	0x3da60b4b	0.08107623
116	0xbd5a5478	-0.053303212
117	0xbd92c147	-0.07165771
118	0xbe110d4a	-0.14165226
119	0xbd63da3e	-0.055628054
120	0xbd9828dd	-0.07429669
121	0x3d54d516	0.051961027
122	0xba4ffc37	-0.0007934006
123	0xbdeb0677	-0.114758424
124	0xbd30b4c1	-0.04314113
125	0x3e28b4e3	0.16475253
126	0xbd6cfd94	-0.05785902
127	0xbb3b0c9e	-0.0028541456
128	0xbe24e45a	-0.16102734
129	0xbe28f5ce	-0.16500017
130	0xbd035916	-0.03206738
131	0xbdddc3a7	-0.10828333
132	0x3d867b38	0.06566471
133	0xbcdfa9f5	-0.027302722
134	0xbb75ad24	-0.0037487233
135	0x3e1abaf7	0.15110384
136	0xbda421ca	-0.08014257
137	0x3dc94744	0.09828046
138	0x3d93ce4b	0.07217082
139	0xbe0a072e	-0.13479301
140	0x3d9c911c	0.07644865
141	0xbca54a27	-0.02017696
142	0x3d81fa8c	0.06346616
143	0x3dfb67ce	0.122756585
144	0xbe035119	-0.12823905
145	0x3e16fcd5	0.14744885
146	0x3dc3c888	0.09559733
147	0xbd3bc3bd	-0.045840967
148	0x3d91de6c	0.07122502
149	0x3d5724db	0.052525382
150	0xbd93b6a8	-0.07212573
151	0x3dafda55	0.085865654
152	0xbde98c24	-0.11403683
153	0xbc288104	-0.010284666
154	0x3e153dab	0.14574306
155	0x3c8994f6	0.016794663
156	0x3d4f1490	0.05055672
157	0x3d845373	0.06461229
158	0xbd956bbf	-0.072959416
159	0x3d8ca29a	0.06866951
160	0xbd569580	-0.052388668
161	0xbc309458	-0.010777555
162	0x3c1b7fd4	0.009490926
163	0x3e0701fb	0.13184349
164	0xbe1fee7e	-0.15618321
165	0x3d8587e7	0.06520062
166	0x3e02abf8	0.12760913
167	0x3d1a2125	0.037629265
168	0x3de85577	0.11344426
169	0xbdd81078	-0.10550016
170	0xbda41d8c	-0.08013448
171	0xbcb48050	-0.02203384
172	0xbdec493e	-0.11537407
173	0x3d6089fc	0.054819092
174	0xbb31d07f	-0.002713233
175	0xbe11fdce	-0.14256975
176	0x3ae5d6ec	0.0017535365
177	0xbcfca7dc	-0.03084176
178	0x3d35fa74	0.044428304
179	0xbd73170d	-0.059348155
180	0xbe1bf832	-0.15231398
181	0x3bf63536	0.0075136675
182	0xbdff43de	-0.124641165
183	0xbd977614	-0.073955685
184	0xbe1ef6a9	-0.15523781
185	0x3e03bd4d	0.12865181
186	0xbc304d30	-0.01076059
187	0xbd8eeacc	-0.06978378
188	0xbd34ce1a	-0.044141866
189	0x3c76a20f	0.015053286
190	0xbdc25ae4	-0.09489992
191	0x3db2f3b8	0.08737892
192	0xbcaedd5d	-0.021345789
193	0x3da8ee15	0.082485355
194	0xbd53e57c	-0.051732525
195	0xbdf33eae	-0.118771896
196	0x3c11e832	0.008905457
197	0xbc976264	-0.018479533
198	0xbdb005db	-0.08594867
199	0xbd156b4e	-0.036479287
200	0xbdc83264	-0.09775236
201	0xbd5d8623	-0.054083
202	0x3d6464a3	0.055760037
203	0xbd6ff62f	-0.05858439
204	0xbd9497fa	-0.0725555
205	0xbda8296c	-0.082110256
206	0x3dfbb85b	0.122910224
207	0xbd822f52	-0.06356682
208	0x3d962900	0.07332039
209	0xbb77dfda	-0.0037822635
210	0x3dba2c55	0.09090487
211	0x3d90dfa2	0.070739046
212	0x3c90bfa1	0.0176695
213	0xbdcf21f9	-0.10113902
214	0x3d829dec	0.063777775
215	0x3e1d7e11	0.15380122
216	0xbdab482d	-0.08363376
217	0x3dc6d447	0.097084574
218	0x3cb134b0	0.021631569
219	0x3e01ab41	0.12662984
220	0xbcb6929d	-0.022286708
221	0x3df37a80	0.118885994
222	0xbd88ef61	-0.06686283
223	0x3dc2e98c	0.09517202
224	0xbd05a6e2	-0.032629855
225	0xbd8bdbb1	-0.06829012
226	0xbd846eb0	-0.064664245
227	0x3dd9304b	0.10604914
228	0xbd7076d5	-0.058707077
229	0x3d16f2b8	0.03685257
230	0xbdcb1940	-0.099169254
231	0x3d4727d9	0.048621986
232	0xbddea80e	-0.10871898
233	0xbe1f00b9	-0.1552762
234	0x3dd28dc2	0.102809444
235	0x3d21a7da	0.039466716
236	0x3d74742d	0.059681106
237	0xbda5abef	-0.08089434
238	0xbd179c53	-0.037014317
239	0x3da17905	0.07884411
240	0xbbf8de73	-0.0075948774
241	0xbe200326	-0.15626201
242	0x3d90127f	0.07034778
243	0xbd578367	-0.05261555
244	0x3dc23234	0.09482232
245	0x3dbf1d10	0.09331715
246	0x3d12dbe9	0.035854254
247	0x3b94d9e8	0.004542578
248	0xbd9fdafa	-0.07805438
249	0x3dc32479	0.09528441
250	0xbcf077a4	-0.029353924
251	0xbd5af62a	-0.053457417
252	0xbddc5fbf	-0.107604496
253	0xbd10d0b3	-0.03535528
254	0xbd991478	-0.07474607
255	0xbdc59b7a	-0.096487954

bias f4 [40]
0	0x3e072e28	0.13201201
1	0x3e072edc	0.13201469
2	0xbd232899	-0.03983364
3	0x3d8fbcb3	0.070184134
4	0x3d49133a	0.0490906
5	0xbd746c51	-0.05967361
6	0xbe16b1d6	-0.14716277
7	0xbd350418	-0.044193357
8	0x3d6c041c	0.057621107
9	0x3e343264	0.17597347
10	0xbdf4c77b	-0.119521104
11	0xbd149481	-0.036274437
12	0xbd874bc5	-0.06606249
13	0xbd3d5f00	-0.046233177
14	0xbdb55425	-0.0885394
15	0x3e4f097b	0.2021846
16	0xbcc790b0	-0.024360985
17	0xbcf6a7d2	-0.03010932
18	0x3db5e60d	0.08881769
19	0x3bcd8605	0.00627208
20	0xbd45faff	-0.04833507
21	0xbd553582	-0.052052982
22	0xbdc00e96	-0.09377782
23	0x3dc34833	0.09535255
24	0xbb12bea6	-0.0022391467
25	0x3d9eb7cb	0.077498995
26	0xbd88c39f	-0.06677937
27	0xbe02a376	-0.12757668
28	0x3e033562	0.12813333
29	0xbc5600ad	-0.013061685
30	0xbdc7aee6	-0.09750156
31	0x3db363e1	0.08759285
32	0xbd9d3831	-0.07676733
33	0xbde63b2e	-0.112417564
34	0xbdbe1fb5	-0.092833914
35	0xbdfb243a	-0.12262769
36	0xbc901e68	-0.017592624
37	0x3c3d2e5d	0.011546698
38	0x3e0d52d3	0.13801126
39	0xbe13ce87	-0.14434253

weight f4 [1, 40]
0	0xbec2dcbb	-0.3805903
1	0x3d537664	0.051626578
2	0x3ee682de	0.4502172
3	0x3dc2c071	0.095093615
4	0xbe0b1c74	-0.13585073
5	0xbc84ed9f	-0.016226588
6	0xbd697072	-0.056992
7	0xbd6aa081	-0.057281975
8	0xbdd1bbde	-0.10240911
9	0xbefdd183	-0.49573907
10	0x3dd655b6	0.10465567
11	0x3de4e6f7	0.111768655
12	0xbe08c1ac	-0.1335513
13	0xbe171fe7	-0.14758264
14	0x3db1fc60	0.08690715
15	0xbe5152ec	-0.20441788
16	0xbe11e76e	-0.1424844
17	0xbda1e296	-0.07904546
18	0x3e16e3a7	0.1473528
19	0xbdb2850c	-0.08716783
20	0x3d8ecf17	0.06973093
21	0x3e04ca67	0.12967835
22	0x3d2310a0	0.039810777
23	0x3dc41235	0.09573785
24	0xbd280b18	-0.041026205
25	0x3dd4d610	0.10392392
26	0x3d1320fb	0.035920125
27	0xbe0e7934	-0.13913423
28	0x3de0de9a	0.10979958
29	0xbe46bdea	-0.19408384
30	0xbd84f7a0	-0.06492543
31	0x3dd8927d	0.105748154
32	0xbdafdbf1	-0.08586872
33	0xbd487fd2	-0.048950024
34	0x3dc92dbc	0.09823176
35	0xbe065579	-0.13118543
36	0x3c3319d0	0.010931447
37	0x3c721046	0.014774388
38	0xbef84a5e	-0.48494238
39	0x3c777170	0.015102729
