learning/model3/dnn/model_5.pth (torch, 11163 bytes, 5 tensors)

weight f4 [40, 7]
000000 5f 20 86 3d 26 4e 8c 3e 5f e9 7b be 55 f9 23 3d
       0.06549143 0.27403373 -0.24600743 0.040032703
000010 32 7c b0 3e 1d 9b 8d be 7f 94 ad 3b 2e 57 25 be
       0.34469754 -0.27657405 0.005297243 -0.16146538
000020 56 ff 80 be e5 ab 47 3d 6d 30 aa be 95 8a 92 3e
       -0.25194806 0.048747916 -0.3324007 0.28621355
000030 41 d6 bd 3d 05 4e 54 3e 5d 26 8a be 4b 0b 26 3f
       0.09269381 0.20732887 -0.26982394 0.6486098
000040 d0 91 a8 3e f2 96 c2 3e 91 3e d3 3e 75 b0 6b be
       0.32923746 0.38005787 0.41258672 -0.23016532
000050 07 56 67 3e 06 2a 91 be 6d bb ce 3d 89 0c 86 3e
       0.2259141 -0.28352374 0.100943424 0.2618144
000060 4c 92 90 3e ee e4 4b bc 39 d0 58 be 39 2d 4b 3e
       0.28236616 -0.012444718 -0.2117318 0.1984147
000070 ed 01 e9 3a a7 77 61 3e e1 a1 25 bd 73 1f 6e be
       0.0017777063 0.220183 -0.040437583 -0.23254184
000080 6b 3a a0 3e d5 34 ff bd bc fe 49 3e 16 14 e5 3c
       0.3129457 -0.12461249 0.1972608 0.02796368
000090 9f 61 04 3f 77 db 7b 3e 21 b2 ea bd 45 33 3e 3e
       0.5171146 0.24595438 -0.11459757 0.18574245
0000a0 f1 e6 8d be 16 36 e3 3d 29 f3 99 be e6 67 68 be
       -0.27715257 0.110943004 -0.3006833 -0.22695884
0000b0 09 22 a7 3b 28 bf 70 be 22 25 b4 3c 68 0a dc 3e
       0.005100493 -0.2351042 0.021990363 0.4297669
0000c0 2e c2 32 bd 10 88 82 3a 78 59 bb 3e 22 cc d5 be
       -0.043642215 0.0009958763 0.36591697 -0.41757303
0000d0 0c d7 15 be f5 30 37 3e 6a 7b 33 be c3 38 5b be
       -0.14632815 0.1788977 -0.17527547 -0.21408372
0000e0 5a 67 ca bd 74 da c1 bd 6b 2d 8d bc 9a 5f a8 3e
       -0.09882994 -0.09465495 -0.017233571 0.32885438
0000f0 8f 99 92 3c b4 a5 78 be 0a 46 aa be 78 1a 66 be
       0.017895488 -0.2428196 -0.3325656 -0.22471035
000100 d6 e1 91 be df 8e c0 be b1 97 50 3e 52 e9 88 be
       -0.28492612 -0.37609002 0.20370366 -0.2674051
000110 de ec 46 be 72 a2 f2 3d e0 57 8f be 70 98 93 be
       -0.19426295 0.1184739 -0.2799673 -0.28827238
000120 d6 3e fe bb 64 10 59 be de ae 02 3e 74 ea 8a 3e
       -0.0077589555 -0.21197659 0.12762019 0.27132
000130 41 ce 97 3d ba 96 f8 be 31 ef fb 3e 05 57 08 3f
       0.07412387 -0.48552495 0.49205926 0.5325778
000140 c4 9e 9c 3e 7d 92 75 3e e4 f2 aa 3c ba 74 6d 3e
       0.3058988 0.23981662 0.020867772 0.23189059
000150 f4 1b 30 bd 7f d9 08 3f 69 86 ac be e4 3f b2 b8
       -0.04299541 0.5345687 -0.33696297 -8.499602e-05
000160 26 2f 0a be 49 5f 80 3d 29 56 be 38 09 2b 4c 3e
       -0.13494548 0.06268174 9.0759546e-05 0.19938292
000170 07 2b c2 3e 48 88 c7 be 8b e8 dc 3d 81 6a 71 be
       0.37923452 -0.38971162 0.107865416 -0.23575784
000180 d2 23 d3 3a 49 96 90 bd b2 8c 34 be 25 8c 74 3e
       0.0016108698 -0.070599146 -0.17631796 0.23881586
000190 1c 37 b6 3e b5 3d cd be 81 f5 91 be 96 a5 a2 3e
       0.3558892 -0.4008614 -0.28507617 0.31766957
0001a0 6b 4f 70 bc 99 6b 64 bc 83 b2 c7 3e a9 2d 21 3f
       -0.014667372 -0.013941669 0.3900338 0.62960297
0001b0 d2 0a 9a be c7 3f 51 be 47 aa 8f 3d a1 37 6f be
       -0.3008638 -0.20434485 0.070149 -0.23361064
0001c0 10 24 00 3f 0e ef 55 be 6a ed 44 bf 0b 50 6f be
       0.50055027 -0.20891973 -0.76924765 -0.23370378
0001d0 36 72 56 be 8b 5f 92 b9 b1 e8 11 3a d5 fe 0a bd
       -0.20942006 -0.00027918475 0.0005565985 -0.033934433
0001e0 f2 b8 85 ba 2f 80 e2 3d 2c 33 12 be 18 f3 e2 3d
       -0.0010202213 0.11059605 -0.14277333 0.11081523
0001f0 65 f4 b7 3e ea 4e 96 be 79 21 24 be 73 1c 8a 3e
       0.35928646 -0.29357082 -0.16028394 0.2697483
000200 48 f7 47 3c b8 f7 a1 be b6 88 7a be 28 39 bf bd
       0.012204953 -0.31634307 -0.24466214 -0.093370736
000210 ae d7 dc bd 17 f6 a5 bd fe 40 94 3e c9 5d 14 be
       -0.10783325 -0.081035785 0.28955835 -0.14488901
000220 e6 e1 0b be 48 d9 a3 be 32 85 14 3e c7 26 78 3e
       -0.13660392 -0.3200171 0.14503935 0.24233542
000230 c2 1d 2b 3e a7 27 4c be 98 98 5d be 03 85 59 3e
       0.1671057 -0.19937001 -0.21640241 0.21242146
000240 71 36 b9 3e 1c de 8b be 4a cf bf 3e 03 43 96 3d
       0.36174348 -0.27317894 0.37462837 0.07337
000250 b9 38 89 bd 52 e9 c2 be 00 df f4 3e 26 c6 f4 3e
       -0.06700272 -0.38068634 0.47826385 0.47807425
000260 ff 91 43 b9 31 53 dc 3b 0b 0c 6f be 62 38 4d be
       -0.00018651037 0.0067237844 -0.23344438 -0.2004104
000270 8f b6 b0 3d a6 bb 5d 3e 22 df 95 be 06 fc 8b 3e
       0.0862857 0.21653613 -0.292718 0.27340716
000280 85 9d 45 bd fa ba ae 3e 0b fa 8f be cb c8 e7 be
       -0.048245925 0.34127027 -0.28120455 -0.4527038
000290 fd 0b 66 be 1a 83 5a 3d d7 94 a9 bd ef 12 2c bd
       -0.2246551 0.053347684 -0.08280342 -0.042010244
0002a0 c4 f8 b5 3e 0f 45 4c be 51 78 b3 3e 56 34 0f be
       0.35541356 -0.19948219 0.35052732 -0.13984808
0002b0 6f 95 4a be 82 c4 b2 be 9a 77 0a be ee 0e c2 be
       -0.19783567 -0.3491555 -0.13522187 -0.37902015
0002c0 38 86 03 3f f0 f6 55 3e 8e 9f f6 3e 05 04 1b be
       0.51376677 0.2089498 0.48168606 -0.15138252
0002d0 c2 64 75 3e 0f b7 d1 bd d0 1d 9e be 82 32 b5 3e
       0.23964217 -0.10239994 -0.3088212 0.35390097
0002e0 5e 88 82 be 01 48 c5 3e b5 77 bc 3e fc e4 1b be
       -0.25494665 0.38531497 0.3681008 -0.1522407
0002f0 61 de 8b be 69 81 71 3e 3f 03 55 be f6 a2 2a 3e
       -0.273181 0.23584522 -0.2080202 0.16663727
000300 78 1b bb 3d e0 5b 23 3e 79 de 85 3e 0e 02 27 bd
       0.091360986 0.15953016 0.26146296 -0.040773444
000310 b7 4e 96 3d b3 d0 ae 3e e9 97 89 be e7 80 1d 3e
       0.073392324 0.341436 -0.2687371 0.15381204
000320 85 ee 98 be f4 53 83 be 4e cb e5 bd 44 45 09 bf
       -0.29869476 -0.2564999 -0.11220418 -0.53621316
000330 d6 a5 fc 3e 40 c1 fc be 2a 70 be 3c aa 6b bd 3c
       0.49345273 -0.49366188 0.023246843 0.023122627
000340 44 28 44 3c 60 de 47 3c 2f 23 f2 3e 30 1f 30 be
       0.011972491 0.012199014 0.47292468 -0.17199397
000350 fe 40 ba bd 3f 3c a6 be 4c 2a 8f be ac 1c 88 3e
       -0.090944275 -0.3246784 -0.27961957 0.26584375
000360 a3 e1 8e 3e f3 88 fc 3d cc 62 ac 3e 12 59 82 be
       0.27906522 0.123308085 0.33669126 -0.2545858
000370 bc 2c e6 ba 65 1f 5f 3e 06 b5 be 3e e0 0c 77 be
       -0.0017560939 0.2178932 0.37247485 -0.24126005
000380 d4 eb cd 3e f3 70 c2 be 12 8f 22 be 05 cd 8a 3e
       0.40218985 -0.37976798 -0.1587489 0.27109542
000390 7f 09 b4 bd 9d 53 bb bc 94 2c 9c bd 08 08 30 3e
       -0.08790874 -0.022867018 -0.0762569 0.17190564
0003a0 f5 f2 da bd f7 e6 bb 3e 91 7e e2 3d b4 6b bb 3e
       -0.106908716 0.3669965 0.11059297 0.36605608
0003b0 0e 9f 48 3e 1a 02 f9 bd 97 1a 8d be ce 17 b1 be
       0.19591925 -0.12158604 -0.2755935 -0.34588474
0003c0 80 2a 54 3d b6 01 03 be 2c 76 a5 bd 88 27 39 bd
       0.051798344 -0.12793621 -0.0807918 -0.045203716
0003d0 9d 62 39 be 75 87 41 be 40 2c 8c 3e 57 2a 0e bf
       -0.18104024 -0.18899329 0.2737751 -0.55533355
0003e0 17 42 a2 3e 62 52 9e 3e aa ef 23 3e 72 52 15 be
       0.31691048 0.30922228 0.16009393 -0.14582232
0003f0 bb b3 3d 3e 73 a2 e7 bd cc 24 29 bd 86 91 7a 3e
       0.18525593 -0.113102816 -0.041294858 0.24469575

bias f4 [40]
000000 04 d9 08 be 97 b5 37 3e ab 7b a9 bd 1c 5d 7f be
       -0.13364035 0.17940365 -0.08275541 -0.24937862
000010 fd 50 ea bd 65 20 4c be e8 63 83 3e e8 4c 9f 3e
       -0.114412285 -0.19934233 0.2566216 0.31113362
000020 66 03 01 be 41 ef b0 3d 52 19 4c be 43 25 0a bf
       -0.12598953 0.08639384 -0.19931534 -0.53963107
000030 1e b8 a0 bc 21 96 3e 3e e5 23 d4 bb 7e bb cb 3e
       -0.019619044 0.18611957 -0.0064740055 0.39791483
000040 50 7d f4 3e 3f e4 74 3e ff 7a ce 3e 44 12 a2 3e
       0.47751856 0.23915194 0.40328214 0.3165456
000050 47 eb 16 3e 57 68 d5 bd fb 1d 23 be e6 a8 e3 3e
       0.14738189 -0.10420292 -0.15929405 0.44464797
000060 7d b8 2f be 19 69 6d bd d3 ae b2 3e 6b 32 77 bd
       -0.1716022 -0.057961557 0.34899005 -0.060350817
000070 6b b4 68 be 1e 38 00 3f d3 34 eb 3d b8 70 ac be
       -0.22725074 0.5008563 0.11484685 -0.33679748
000080 71 0b b1 3e c1 de 0d be 2c 3f c9 bd b6 37 03 be
       0.34579042 -0.13854505 -0.09826502 -0.12814221
000090 77 9b a6 be d1 15 45 bd e4 3e b7 be a6 b2 eb 3e
       -0.32540485 -0.04811651 -0.3579017 0.46034735

weight f4 [40, 40]
000000 b3 90 52 3d 87 80 18 be 64 08 fd bc 2d 29 94 3d
       0.051407527 -0.1489278 -0.03088779 0.07234416
000010 59 50 f8 bd 61 1e 12 3e e6 0a 17 be e8 4e 20 bd
       -0.121247 0.14269401 -0.14750251 -0.03913775
000020 cf 28 b9 3d 1d 37 97 bd 04 a8 de bd 5a 67 f7 3d
       0.09040987 -0.07383559 -0.1087189 0.120802596
000030 f7 33 e1 3d c0 42 c9 3d cb 60 00 be 05 1a b7 3b
       0.1099624 0.09827185 -0.12536924 0.0055878186
000040 b4 1b a8 3b 39 a8 0c be 60 e3 d2 3d 23 67 94 3d
       0.0051302556 -0.13736047 0.102972746 0.07246234
000050 7b 82 11 3e 11 85 b3 bd d1 23 52 35 44 12 f8 3d
       0.1420993 -0.08765615 7.8283216e-07 0.12112859
000060 76 de 26 be 81 dc e8 3d 03 c9 11 3e 3a cc b8 bd
       -0.162958 0.11370183 0.14236836 -0.09023328
000070 36 21 51 bd 12 2d d0 bd 09 be 72 bc f0 ce 02 3e
       -0.051057063 -0.101648465 -0.014815816 0.12774253
000080 f4 82 24 3e 9d 51 55 bd c9 58 03 be 13 28 36 bd
       0.1606558 -0.052079786 -0.12826838 -0.04447181
000090 1b 8e 1e be 65 39 0e be 02 db b2 bc 31 0b 30 3e
       -0.15483896 -0.13889082 -0.021832947 0.17191769
0000a0 bf f6 04 be d4 67 bf 3c 33 a9 cc 3d e9 62 78 bd
       -0.12984751 0.023364939 0.0999321 -0.060641203
0000b0 d1 b5 df 3d 3b ef 30 bd 90 e7 b2 bd 77 63 f4 bd
       0.109233506 -0.043196898 -0.08735573 -0.11933034
0000c0 cc f1 71 3d 10 ec 40 3d 90 4f 9c 3d 60 f0 d1 bd
       0.059068486 0.047100127 0.07632363 -0.10250926
0000d0 f8 b0 a9 bd da 54 02 be a4 8f e5 bd d6 02 16 be
       -0.08285707 -0.12727681 -0.11209038 -0.1464952
0000e0 9e 32 ce 3c 83 3a 9d 3d 24 59 f3 bd 13 48 98 bd
       0.02517062 0.07677176 -0.118822366 -0.07435622
0000f0 77 5b 05 3e ba 74 c7 bd ad 05 88 bd 8f 89 f0 3a
       0.13023172 -0.09739061 -0.066417076 0.0018351543
000100 0e 76 c2 3d 96 5c 1b be 72 46 7f 3d 26 b5 6b 3d
       0.094951734 -0.15172037 0.06232304 0.057545803
000110 b8 5d 3e bd 31 23 06 3e 55 e4 ee bd 73 1b 0d 3e
       -0.046476096 0.13099362 -0.11664645 0.13780002
000120 06 ce 94 bc 6b 92 01 be 40 7f 0b be 74 07 a5 bc
       -0.018164646 -0.1265351 -0.13622761 -0.020145155
000130 6e dc a4 bd 90 de c7 3d 95 5d 18 be 6c ac c1 3d
       -0.08049856 0.09759247 -0.14879449 0.09456715
000140 1b 9d bf bc 16 9c 95 bd 4f c6 c1 bd b3 f1 f5 bd
       -0.023390343 -0.07305162 -0.094616525 -0.12008991
000150 ab 42 c7 3d f9 4f 0f be ae a4 b3 bd c1 e1 df 3d
       0.09729513 -0.13995351 -0.087716445 0.10931731
000160 21 ab 7e 3d f7 61 9c bd 3d 61 87 bd d1 46 28 3d
       0.06217492 -0.07635873 -0.066103436 0.04108316
000170 59 d6 1d bd 3f 06 f4 3d 2b 33 32 3e ad 16 06 3e
       -0.038534496 0.11915254 0.17402332 0.13094588
000180 5f 3d 44 3d 6f ea ec bc 05 c6 cc 3c f6 b4 d8 3d
       0.04791009 -0.02892038 0.024996767 0.105813906
000190 42 1c ee bd b2 e5 93 bd 73 1b bd 3d 98 02 0a 3d
       -0.116264835 -0.07221545 0.09233751 0.03369388
0001a0 6c bc 7b bd 66 58 b9 bd 0a 62 de bd 9d 1f ac 3d
       -0.06145899 -0.09050064 -0.10858543 0.08404467
0001b0 ef ba ef 3c bb ea 19 be f4 2a 06 be dc d7 c1 3d
       0.029263942 -0.15030949 -0.13102323 0.09465
0001c0 d4 2a 4e bd 7b f8 8b 3d 18 8f 94 bd c3 57 14 be
       -0.050333813 0.06834503 -0.072538555 -0.14486603
0001d0 aa 58 6c bc 52 4d 14 3e 72 5f 6d bd cd 90 6a 3d
       -0.014425436 0.1448262 -0.057952352 0.057267
0001e0 5e 35 f0 bd 4b c6 aa 3d a0 8b 33 3c d7 b1 42 3d
       -0.11728929 0.08338603 0.010958582 0.047532883
0001f0 2c 48 00 3e 0e dd 65 3d 3c 62 22 be 58 78 86 bc
       0.12527531 0.056119017 -0.15857786 -0.016414806
000200 fc 6a 13 3e 88 f1 d6 bc c8 5f 04 3e 2e 7d 9f bd
       0.1439628 -0.026238218 0.12927163 -0.07787548
000210 2d 68 05 be d0 53 be bd 76 e5 0e bd b6 b4 67 3d
       -0.13028021 -0.0929333 -0.0348868 0.056568824
000220 7c d4 2a bd f4 f8 ba 3d e0 c4 3a bd c1 b9 28 be
       -0.041706547 0.09129515 -0.04559791 -0.1647711
000230 33 ab e7 3d a3 d3 e8 3d eb 90 ea bb 52 65 f0 bc
       0.113119505 0.113684915 -0.007158389 -0.029345188
000240 e3 05 08 3e 4b 67 4e 3d 24 b6 03 be 43 bd 74 3d
       0.13283496 0.050391477 -0.1286245 0.059750807
000250 68 4d bc bc 14 a7 00 3d 63 6b 90 bd d9 0c 8b 3d
       -0.022986129 0.031409338 -0.070517324 0.0678956
000260 cd 5c 35 bd 1d ee 48 3c f1 ad a2 bd 34 9d 88 bd
       -0.044277955 0.012263802 -0.07943333 -0.06670609
000270 9d d1 76 3d 31 03 32 be 43 06 ec bb 46 0e eb 3d
       0.060258497 -0.1738403 -0.007202895 0.11477332
000280 00 0a 45 3e ff 06 6f 3d 06 f7 6c bd 76 84 12 3d
       0.19242096 0.05835628 -0.057852767 0.035770856
000290 99 3a bf bd 3e 74 2b be 86 a3 32 3e dd 5c 23 3e
       -0.093373485 -0.16743562 0.17445192 0.15953393
0002a0 5a 4e e5 bd 10 fd 8a 3d 42 10 cd bd 27 63 38 bd
       -0.11196585 0.06786549 -0.100128666 -0.045016434
0002b0 ee aa 3e 3e 52 41 e8 3d 63 53 c0 bd 32 40 7c bd
       0.18619892 0.11340584 -0.09390905 -0.06158466
0002c0 2c be ff bd 43 5a c5 3d b7 e0 ee 3d 63 0d eb bc
       -0.12487444 0.09636357 0.11663955 -0.028692907
0002d0 f2 6c d0 bd cb 40 cf bd 68 3d 13 be 1b 41 1e be
       -0.1017703 -0.1011978 -0.14378893 -0.15454523
0002e0 6f 09 19 bc 3c f3 19 3d 30 70 f7 3d 51 8d 26 bd
       -0.009340628 0.037585482 0.12081945 -0.040662114
0002f0 d3 69 70 bd 34 b1 7e 3e f4 ff de 3d d8 5a 07 3e
       -0.05869467 0.24872285 0.10888663 0.13218248
000300 9d 26 3c bd 12 b0 d3 3d de 0e 15 be cb 26 37 3e
       -0.045935262 0.10336317 -0.14556453 0.17885892
000310 31 c1 72 bd 61 36 e7 bc 61 1e 0d be b5 e6 27 3d
       -0.059266273 -0.028224172 -0.1378112 0.040991504
000320 2c 9f b6 3c 6d ba 12 3d 89 f7 5a bd c7 0c 18 3e
       0.022292696 0.03582232 -0.053458724 0.14848624
000330 2c 64 1d bd 5b 08 11 bc ae 6b 9e 3c b6 9c 0a be
       -0.03842561 -0.00885209 0.019338455 -0.13536343
000340 98 4f b3 bd cd 3a 3d bd 67 4d 31 3d 90 7c 08 3c
       -0.08755416 -0.046198655 0.043286707 0.008330479
000350 97 85 9e bd d2 77 03 be d5 6a d0 bd 86 6d b6 bc
       -0.07740324 -0.12838677 -0.101766266 -0.022269022
000360 38 bf dd 3d cd 4b 0f bd 74 06 84 3d 34 65 05 be
       0.10827488 -0.0349844 0.06446543 -0.13026887
000370 ac df 8c bd 91 d0 09 3e 62 b8 d3 3d dc bc 77 3d
       -0.068785995 0.13458468 0.103379026 0.060482845
000380 73 6c 19 bd e3 ed ad bd e5 46 bd bd 33 6f f6 bd
       -0.03745694 -0.08492639 -0.09242038 -0.12032928
000390 fc 11 42 3d 2c 72 6b 3d 3e 3f e9 3d 06 36 b6 bc
       0.047380432 0.05748193 0.113890156 -0.022242557
0003a0 12 aa 26 bd a9 0d 06 3d 48 8b f0 bd 5c 1e 18 3e
       -0.040689535 0.03272787 -0.11745316 0.14855331
0003b0 f5 fc 84 bd 46 01 c3 3a 35 29 81 bd 6f 96 81 3d
       -0.0649356 0.0014877699 -0.06306688 0.06327521
0003c0 4e 6d a6 3d b3 ea 87 bd bb ed d4 3d e7 1f c6 3b
       0.08126317 -0.06636562 0.10396906 0.0060462835
0003d0 b1 24 00 3e ec 04 2d 3d a2 92 15 3d 44 8a 48 bd
       0.12513997 0.042241022 0.036516793 -0.048959985
0003e0 37 e1 0a 3c c9 c8 75 3d 1e 02 93 3d 7e d0 46 bd
       0.008476547 0.060005937 0.07178138 -0.048538677
0003f0 eb 3d b7 3d 6a e4 03 3e 7b 9f 15 be 03 5d fa bd
       0.08947357 0.12880102 -0.14611618 -0.12224772

bias f4 [40]
000000 52 b9 d8 3d b1 8c 1e be 61 d3 10 bd de 7c 06 bd
       0.10582222 -0.15483357 -0.035357837 -0.032833926
000010 77 11 97 3d 8c 36 c9 bd f2 51 78 bd 67 66 9f 3e
       0.07376378 -0.09824857 -0.060625024 0.31132814
000020 65 29 fa bc 5f 18 ac 3e 8e ad 79 bd c5 e8 e1 3d
       -0.030537317 0.33612344 -0.06095653 0.110307254
000030 f9 4b 0b be bd e3 63 3e 50 82 6b 3e 42 50 e3 bd
       -0.136032 0.22254844 0.22998929 -0.11099292
000040 bc 2c 97 bc 84 5c 84 3e 3e f2 a2 3d 28 99 2b 3e
       -0.018453948 0.25851834 0.0795636 0.16757643
000050 8b 3a 54 3d 77 91 17 be 4d f6 f7 3d 86 91 22 3e
       0.051813643 -0.14801584 0.12107525 0.15875825
000060 ee d4 6b 3d fe 5c 14 be a5 a6 1e 3e 32 aa c8 bd
       0.057576112 -0.14488599 0.15493257 -0.09798087
000070 bc fb fb bd b3 a3 49 bd 0f d0 27 be 63 a9 22 3e
       -0.12303874 -0.04922838 -0.16387962 0.15884928
000080 fd b9 74 bd 02 36 3e 3e 8b 35 16 3e 78 a3 92 3d
       -0.059747685 0.1857529 0.14668863 0.071600854
000090 35 22 d6 3d f1 5e 59 bd 8d 88 eb bd ab a5 9d bd
       0.10455743 -0.05306906 -0.11500654 -0.07697614

weight f4 [1, 40]
000000 6d a0 2f 3e 2e c2 17 bc d2 c1 1a be 8a 8f 3a be
       0.17151041 -0.009262605 -0.15112999 -0.18218818
000010 fc a3 ad be 58 84 0a bd df 2e b2 bc f6 f1 49 bf
       -0.33914173 -0.03381762 -0.021750866 -0.7888483
000020 cb e2 85 bd 23 3e 80 bf 5c 31 73 bd 6d 60 33 be
       -0.06537398 -1.0018963 -0.059373245 -0.17517252
000030 7f e6 a6 bd c6 ad fe be d0 91 fe be dd 73 4e 3c
       -0.081494324 -0.49741954 -0.4972062 0.012600866
000040 48 ba 8e be cc 62 81 bf ea 55 d1 3d 49 6c 79 be
       -0.27876496 -1.0108275 0.10221465 -0.24357714
000050 d1 cd 3c 3e 90 2d ca bc e7 81 35 3e 8a de dd be
       0.18437888 -0.024679929 0.17725335 -0.43333846
000060 90 f6 12 bf ca a2 94 bd 2c f9 6a 3e 96 ce e6 be
       -0.57407475 -0.07257612 0.22946614 -0.45079488
000070 b1 01 69 bd f1 63 db bc 77 c9 24 3f 66 c3 a1 be
       -0.05688638 -0.026781054 0.6436991 -0.3159439
000080 f0 6e 0c be 5a fc 6e be d3 dc ba 3e 1b 58 60 3e
       -0.13714194 -0.23338452 0.364966 0.2190861
000090 9c 1e 8b 3e 4b 8c e1 3e b8 c0 a1 3c 33 49 c6 3f
       0.2717179 0.44052348 0.019745216 1.5491089
