learning/model_10_input/model_10.pth (torch, 11611 bytes, 5 tensors)

weight f4 [40, 10]
00000000: a169 2f3f 5a04 ec3e b12f 6a3d 1209 3e3f
00000010: c074 8dbf a647 36bf 5d3a adbe cbe2 d7be
00000020: 46fc 6ebe 0b53 69bd 42d9 2bbf c0cd 8cbf
00000030: 7dcc 623f 24d8 873d a7f7 c53e b69d 81be
00000040: a90b 1bbe ae90 fb3d 2ab9 c6bc 834f 743e
00000050: 21df 9a3e a473 ba3f aadd 683f 7b23 93bf
00000060: ea5e aebe 5836 09bf 6288 b13d 348a 33be
00000070: 9030 a63c 086e ba3d 3916 d0be d43c 7c3e
00000080: 7da7 843f 2b6e 043e 2878 85bb 949d 003e
00000090: 548f 23bf 0587 cbbe 7e5e c0be 3830 a5be
000000a0: ef48 50bf 0595 d5be bd45 963e 0b13 fbbe
000000b0: 0d39 3c3f d545 3bbf b6dc e03e 71c3 f63c
000000c0: 97bf 763d da71 e6bd b20a 93be 9ffb e2be
000000d0: ada2 5fbf b5cf 863e 25f7 573f 80a9 763e
000000e0: 175f 283f 51cb d6be 9aa0 83be 4473 5abe
000000f0: 6b2b 86be eb8e 56bd 582f 903f fde5 353f
00000100: bf69 80bf 9de7 95be 36a3 24bf ceef 56be
00000110: 7a1a ddbe f54b fdbd d24e 2a3f 3f9e 15bf
00000120: 25eb 3f3e 5a33 53be b564 8a3f 63e4 b73f
00000130: f737 d1be 6232 b2be 6c02 40be b0c4 46bd
00000140: 603e 24be f608 06bf ac1b 01bf 0720 4b3e
00000150: 6d2a 113f 2fe3 333f 0ed0 ba3e bd2e ae3e
00000160: a7e1 ac3e 2afc 3d3e 2f47 953e f1d1 25be
00000170: 63e5 15bd deb0 d13e 71b6 4ebd df80 e83e
00000180: 3596 e1bd 103d 2d3d 2da1 76be 9fc6 9fbe
00000190: dbde 9bbd bd19 1e3b 53be c3bc 2cc8 c0bd
000001a0: 5c17 a9bc a7c2 373c c11b 07be 8df9 f9bd
000001b0: bce7 f1bc 7f4a 443d 0a71 5c3d 733b 943c
000001c0: 7d95 e63c a060 fcbd da77 c4bd d857 51be
000001d0: 8d8c f9bd 7d33 19be 9256 61bc 287d 75bc
000001e0: f52e a53e a405 013e 040e 01be 5e2d 9d3e
000001f0: c355 a33e 3634 603d 37fe 5c3f 41c2 2ebf
00000200: e9be 2ebf 5073 35be 9ca5 d3be 55a7 1cbf
00000210: b757 503e fa2d 2f3e c121 503e fcf5 2b3f
00000220: 2b86 11bf 725d 5abe 8f2d 74bd ca33 1abe
00000230: 151b ed3e 77b8 84bd 96ae 69be b50f 523f
00000240: 700b 52bf e153 a23e 6ad3 cb3e 3ce9 c63c
00000250: fc21 11be f1bb 143d 6d57 4d3f 1e0d 49bf
00000260: a5c6 2c3e d0bc 96be ad83 efbe 1612 753e
00000270: 6b5a d7be 29d1 02bf c148 bcbe 758d bf3d
00000280: 09d8 e33e 6909 1dbf 2cf0 c33e 88e0 37bf
00000290: dc38 b83a 6faf 7f3f d141 8e3e d40d 2b3e
000002a0: 90ee 1a3e f7da 883d 21db 323f aee2 f83e
000002b0: fcf0 b6bd 8bf4 1b3f 21c1 1ebf 057f eabe
000002c0: bfa9 afbe f133 25be 8cd7 a4bd 2c76 5dbe
000002d0: 3d2d d43e 5b95 21be dc12 1ebe 2d86 a3be
000002e0: f5bd d03d 388a 21be de22 02be e8ed cbbd
000002f0: aa49 6c3e 0bab 59be 8d8a 903e ab30 cc3e
00000300: 5edd 63bf 27aa 77bf f7c2 90bf c3a4 663e
00000310: 92fc 683f c645 173f 6c1f a93e cb42 d43e
00000320: e2cc 8ebf e398 193f 9448 803e 2010 003f
00000330: b4c8 1d3f 696e bbbe 7266 cbbe e90c 803e
00000340: 36de ec3d bf67 183e fb3d 893f 2eeb d13f
00000350: 64e7 d1bf e048 87bf 2785 873f b525 f13e
00000360: 02b9 583e 23a8 243e 40db 72bc 3fb9 0ebd
00000370: 62da c03e 4eee 9fbd cce1 983e 4eb9 cd3d
00000380: 0002 21bf a328 88bd 78a4 0f3f 1425 ae3e
00000390: 4276 633e 3097 633e 4b1f 2d3f 6999 1dbe
000003a0: 6272 75be 4538 4e3f 88d2 b63e ab0e a0bd
000003b0: a1be 83be c9a4 a5bd 8a00 213e ba5c cfbd
000003c0: 6674 473f 8234 98be dd53 ba3e 2f40 96bf
000003d0: 2582 a33f 919d d93e c732 333f c6b0 8cbe
000003e0: 4b4b 2c3d f3a5 463e 3871 5a3f dc3b 6a3e
000003f0: db8e 34bf 3844 6abe d282 a53d da35 4b3f
0.6852055 0.4609707 0.05717439 0.7423259 -1.1051254 -0.71203077 -0.3383359 -0.42165217
-0.23338422 -0.05696396 -0.67128384 -1.100029 0.88593274 0.066330224 0.38665506 -0.25315636
-0.15141167 0.12283455 -0.024258215 0.23858456 0.3024836 1.4566541 0.9096323 -1.1495203
-0.3405679 -0.53598547 0.08668591 -0.17533189 0.020286828 0.09103018 -0.40641955 0.24632579
1.0363613 0.1293265 -0.0040731616 0.12560111 -0.63890576 -0.3975145 -0.37572092 -0.3226335
-0.8136129 -0.41715255 0.2935008 -0.49037966 0.7352455 -0.7315343 0.4391839 0.03012249
0.060241308 -0.11252184 -0.28719097 -0.44332597 -0.873576 0.26330343 0.8436149 0.24088097
0.65770096 -0.41951993 -0.25708467 -0.21333033 -0.26205 -0.05238239 1.1264448 0.7105406
-1.0032271 -0.2927827 -0.6431154 -0.20989916 -0.43184263 -0.12368003 0.6652652 -0.5844459
0.18742044 -0.20625058 1.0811983 1.4366573 -0.4086301 -0.34804064 -0.18750924 -0.04852742
-0.16039419 -0.52357423 -0.5043285 0.19836436 0.5670536 0.7026853 0.36486858 0.34020033
0.3376591 0.18553224 0.2915587 -0.16193368 -0.036595713 0.4095525 -0.05046696 0.4541082
-0.11014978 0.042294562 -0.24084921 -0.31206223 -0.07610866 0.0024124228 -0.023894465 -0.0941318
-0.020641021 0.011215842 -0.13194181 -0.12205801 -0.029529445 0.047922608 0.05381874 0.018094754
0.028147453 -0.12323117 -0.09593172 -0.20443666 -0.12185011 -0.14961047 -0.01375355 -0.014983453
0.32262388 0.12599808 -0.12603003 0.30698675 0.31901368 0.054737292 0.863254 -0.6826516
-0.68260056 -0.1771977 -0.41337287 -0.6119283 0.2034596 0.17107382 0.20325376 0.6717222
-0.5684535 -0.21324709 -0.05961376 -0.15058818 0.46309724 -0.064804964 -0.22820505 0.8205522
-0.820487 0.3170462 0.39809734 0.024281137 -0.1417312 0.036312047 0.80211526 -0.7853564
0.16872652 -0.29440928 -0.46780148 0.2393268 -0.4206117 -0.51100403 -0.36774257 0.09353153
0.4450076 -0.61342484 0.38269174 -0.7182698 0.0014055031 0.99877065 0.2778459 0.16704494
0.15130067 0.06682389 0.69865614 0.48610443 -0.08932683 0.6092002 -0.6201344 -0.45800033
-0.34309193 -0.16133095 -0.08048925 -0.2162711 0.41440764 -0.15779631 -0.15436882 -0.31938305
0.101924814 -0.15775383 -0.12708613 -0.099574864 0.23074976 -0.21256654 0.28230706 0.3988088
-0.89009655 -0.96744007 -1.1309499 0.22523789 0.9101039 0.5909084 0.33031785 0.4145721
-1.1156275 0.5999891 0.25055373 0.50024605 0.61634374 -0.36607674 -0.39726597 0.2500985
0.11565821 0.14883326 1.072204 1.6399896 -1.639874 -1.0569115 1.058751 0.4709908
0.21164325 0.16079764 -0.014822781 -0.034844633 0.37666613 -0.07809125 0.2985977 0.1004511
-0.62893677 -0.06648376 0.56110334 0.34012663 0.2221308 0.22225642 0.67625874 -0.15390553
-0.23969415 0.8055461 0.35707498 -0.07815298 -0.25731376 -0.08088071 0.15722862 -0.10125108
0.77911985 -0.2972756 0.36392108 -1.1738337 1.2774092 0.42503026 0.69999355 -0.27478617
0.042063992 0.19399242 0.8532901 0.22874397 -0.7053048 -0.22877586 0.080815926 0.79379046

bias f4 [40]
00000000: 10af 9d3e 56e9 473f 211b 753e aa28 a73e
00000010: d942 e03e ea2c 863e 657b 203f 592a 0f3e
00000020: 0138 cebe 97b3 8b3c 9429 03bd a3fb 7cbe
00000030: 98cf 00bf de96 3a3f e9d0 b5bd cb6f 703e
00000040: 188c 54bf 9672 443e 1a4c cb3c 0076 66be
00000050: f6fb b3be 99e0 21bf 6caa 6dbe 1570 4f3f
00000060: 57f8 49bf ee58 b5bd 6ab8 7e3e 4b8f 0e3f
00000070: fed2 c33c 9817 9c3e 8996 533f 2f5f 81be
00000080: 7908 db3e 3829 44be 23bc 993d 26ca be3e
00000090: 0aaa babd 5492 91bf 09e7 06bf 1158 21be
0.30797625 0.7809042 0.2393613 0.32648212 0.43801 0.26206142 0.62688285 0.13980998
-0.40277103 0.017053409 -0.032022074 -0.24705367 -0.5031676 0.72886455 -0.08877737 0.23480146
-0.83026266 0.19184336 0.024816561 -0.22505951 -0.35153168 -0.63233334 -0.23209542 0.810304
-0.7889456 -0.088548526 0.24875036 0.556874 0.02390432 0.3048675 0.82651573 -0.25267932
0.42779902 -0.19156349 0.07506587 0.37263602 -0.091144636 -1.1372781 -0.5269628 -0.15756251

weight f4 [40, 40]
00000000: b949 afbd 49d2 b9bd cad0 c43c 720b 853d
00000010: 4e88 0a3e d8ef c9bd 3a79 71be 7ff6 89bd
00000020: 3aec 0b3c 3fdb 903c 129f fabc 07af 50bd
00000030: 8464 40be 9771 a1bd 27db aabc 4ffc 31bd
00000040: 6b6b a13d 9759 3dbd 288c 8b3e 85ef dbbc
00000050: 274c 08be 55b5 49bc 4728 963c c775 39bd
00000060: d979 a0bd b5f6 52ba e09a 813c db94 10be
00000070: 3671 0ebd f64d 2ebd 7e5b ab3a 0d59 163e
00000080: 63e5 46be eece 8fbd 02f1 7abd 9817 7ebd
00000090: 8b88 ff3d b56f b1bd 6b2d ba3d 32b7 bfbd
000000a0: 7c51 d93d fb34 13be 64a8 d63d 7454 3c3e
000000b0: 2a5b d93d b835 0c3d 5ca0 2c3e 5bb4 54be
000000c0: bccf 93be 10a6 bbbd 01d2 843d 0373 d73a
000000d0: 9c50 f7bd 6525 1b3d 73bd cdbb 2f64 32bc
000000e0: 515f 81bc 9bf4 263d c951 87bd ba85 94be
000000f0: 7b10 bd3c 0773 3abc 2c33 22bd 8269 363e
00000100: 1f69 50be 6827 2a3d 7e0d 61bd c305 a63d
00000110: 98dd fbbd 53ba 8d3e e516 023d cfa7 f1bc
00000120: 356a 1d3e a4d6 84bc a945 bebb 6e60 303d
00000130: 2477 2b3d 5595 93bd 6374 c9bd 229c 97bd
00000140: 9958 2ebf 9948 403d 7db9 ebbd 7b8d f93e
00000150: 7244 8c3e 76b1 06bf 5c19 663e 004b c9be
00000160: dc0f fe3c 13fe 10bb 6973 d93d 464a a33d
00000170: f3e5 bb3d 0bda 693e 31e6 773e 6293 b2be
00000180: 06b9 673e 50b0 debe e3cb 93bd 2d9b c63e
00000190: 3a28 b4bd aedd a83e 1d27 b73e 8857 8bbc
000001a0: ea9a 603d 6795 463e 0096 19bf 9e8f 183f
000001b0: 2d38 5abe 4aae 79be ae66 7dbe f990 223e
000001c0: 4d3c 103e 8897 113e 2a80 63be 900c 66be
000001d0: e801 37be b75f 47be 5406 273c f224 a33c
000001e0: 24c6 8cbd 0a14 253e 55e4 cc3d 8504 05be
000001f0: c635 fbbc 07de 783e b3cd 8ebe 78da ab3e
00000200: 71e2 2b3e ab71 3b3e 7ee5 20bd e07d a8bd
00000210: 72ee 23be 6de8 9d3d d0d3 5cbe b528 a93e
00000220: e76a d6bd 9cc5 c73d ae09 353c 8fbe 873e
00000230: 868f 89bd 8227 513e 2438 3cbc d1fd 4f3e
00000240: 9bb6 0b3e 367f 14be 63b0 eebd c873 4ebe
00000250: 07dd 323e feb7 983d 2d16 1b3e 8c1e 203d
00000260: b9b8 4fbe 1227 c53d aae2 a33d d265 babc
00000270: 4ffb 47bc bee5 863d 1270 a73d 32a8 163c
00000280: 5702 9a3e 1236 af3e 3798 12bd 1983 bfbe
00000290: a7c9 7abd 58d1 f83e dc53 dabe 1681 303f
000002a0: eba1 a03e 471c c83e 1518 9b3d 40dc bfbd
000002b0: 8da1 53be cd2c 023e 57e7 973d e6f4 9d3e
000002c0: b573 bbbe ab96 333e cebc 1c3e 01d9 433e
000002d0: ad7a df3e 5592 453d 7ffb 97be 2f38 ab3e
000002e0: 247a f43e 07f7 79be 86e8 893e 4eb8 1dbe
000002f0: d8be 273f 5639 0cbd 5a99 193f abfd 833e
00000300: 9e07 b2be dca2 46bb 9637 833e e71b 333e
00000310: 3a7a d93d 4a8c e73e fb11 9e3e 144f 0e3e
00000320: 3561 7b3c 68fe b2be b1d8 253f d883 913e
00000330: bf94 2abe 3c5b 80be 76bc 5a3e c49b 37be
00000340: f947 373e 1c93 cfbd 046a 723d a120 be39
00000350: 4372 533d 2ca2 213d 3943 29be 9e66 bfbd
00000360: 95ba 99bd 909c 42be 9e0b 1b3e 6b48 d43e
00000370: cd12 0abf d8b4 57be 4b35 e13e 983e 93be
00000380: 3545 00bf 6f74 873d 321e f1bd 0fa6 95be
00000390: 9b80 e4be 5583 253f 189c 08bf ff55 c8be
000003a0: 028c 913e cd98 2b3e 5313 66be 6332 99bd
000003b0: 91cd 22bd 4578 57be 54b0 753e 9d5c 053c
000003c0: 3a2b 97bd 944d 793e bc9e 99be 2894 bc3c
000003d0: 2c38 863c ec4d 92bd f6f8 403e 8aff 3fbd
000003e0: 6ebe a3be 0c61 0abe 7a0a 563d 66f4 04bd
000003f0: 4ffa 4d3c e548 483e bf52 933e 8445 08be
-0.08558983 -0.09073312 0.02402534 0.06496324 0.13528559 -0.098602 -0.235814 -0.067364685
0.0085402075 0.01768267 -0.030593429 -0.05094817 -0.18788344 -0.07882994 -0.020856453 -0.04345351
0.078818165 -0.046228018 0.27255368 -0.02684761 -0.133103 -0.012311299 0.018329753 -0.045278337
-0.078357406 -0.00080476265 0.01582092 -0.14119284 -0.034775935 -0.042554818 0.0013073531 0.14682408
-0.19423442 -0.070218906 -0.061265 -0.06203422 0.124772154 -0.086638846 0.09090694 -0.093611136
0.10611245 -0.14375679 0.10481337 0.18391591 0.10613091 0.034230918 0.16858047 -0.20771925
-0.28869426 -0.09162533 0.064853676 0.0016437474 -0.12075922 0.03787746 -0.0062786876 -0.010888143
-0.01579252 0.040760618 -0.06607396 -0.29008275 0.023079148 -0.011379964 -0.039599583 0.17813686
-0.203526 0.041541487 -0.054944508 0.08106568 -0.12298125 0.27681217 0.031760115 -0.029498963
0.15372546 -0.01621563 -0.005806644 0.043060713 0.04186167 -0.07206217 -0.09836652 -0.07402827
-0.6810394 0.046944235 -0.115099885 0.48740754 0.2739597 -0.52614534 0.22470611 -0.39315033
0.031013422 -0.0022124096 0.10617716 0.07973151 0.09174719 0.22837083 0.24208905 -0.3487807
0.22629175 -0.4349389 -0.07216623 0.38790265 -0.08796735 0.32981628 0.3577203 -0.017009512
0.054835238 0.1939293 -0.59994507 0.5959414 -0.21310492 -0.24382892 -0.247462 0.15875615
0.14085503 0.14217961 -0.2221686 -0.2246573 -0.17871821 -0.19470106 0.01019438 0.019915078
-0.0687373 0.16120926 0.100044884 -0.12990005 -0.03066529 0.24303447 -0.2789131 0.33565116
0.167856 0.1830508 -0.03928136 -0.08227134 -0.16008928 0.07710347 -0.21565175 0.3303887
-0.10469609 0.09754488 0.011049671 0.26512572 -0.06716828 0.20425227 -0.011487994 0.20311667
0.13643877 -0.14501652 -0.11654737 -0.20161355 0.17467128 0.07456969 0.15145178 0.03909163
-0.2028531 0.09626593 0.08002217 -0.02275363 -0.012205913 0.065867886 0.081756726 0.009195374
0.3007991 0.3422094 -0.035789695 -0.37404707 -0.061227467 0.48597217 -0.42642105 0.6894697
0.31373534 0.39084074 0.07572953 -0.09368181 -0.20667095 0.12712403 0.074171714 0.30850905
-0.36611715 0.17537944 0.15306398 0.19125749 0.43648282 0.048235256 -0.29684064 0.33441302
0.47749436 -0.2441064 0.26935214 -0.15402338 0.6552558 -0.034234367 0.5999962 0.2577947
-0.34771436 -0.0030309474 0.25628346 0.17491113 0.10619016 0.4522422 0.30873093 0.13897353
0.015343 -0.34959722 0.6478377 0.284209 -0.16658305 -0.25069606 0.21360955 -0.17930514
0.17898549 -0.10135481 0.059183136 0.00036263934 0.05162264 0.0394613 -0.1652955 -0.093457446
-0.07506291 -0.19005036 0.1514115 0.414615 -0.5393494 -0.2106508 0.43985972 -0.28758693
-0.501056 0.06614005 -0.117733374 -0.29228255 -0.44629368 0.6465352 -0.5336318 -0.3912811
0.2842713 0.16757508 -0.22468309 -0.07480314 -0.039746825 -0.21041973 0.23993045 0.0081397565
-0.07381292 0.24346 -0.30003917 0.023019865 0.016384207 -0.07143769 0.18844971 -0.04687456
-0.31981224 -0.13513583 0.052256085 -0.03245964 0.012571885 0.19559057 0.28774068 -0.13307768

bias f4 [40]
00000000: 9d16 c9bd 48f1 32bd 2685 9e3e eb32 9e3b
00000010: 1b3c a03e e08c 90be 400a b23e c599 fd3d
00000020: afc7 a93d d400 0b3f af96 533d 639a a5bd
00000030: 40dc 22be 5fa7 553e b139 a6bd 87fa e03e
00000040: 3447 59be 3ab3 813e 80ee 67bd 2f44 813e
00000050: 3000 15be 7594 083f fef0 61bb 0441 793e
00000060: 39c0 3d3e 0de0 3d3e a401 a3bc 0201 b0bd
00000070: 77b6 533d 7e9a 8b3e 2d7c c73e fc58 8fbd
00000080: 33f3 49be 9dbe e83e 0dcd 223d 2fea ac3d
00000090: 35b2 18bd 20df 19bd d1ca 803e fd67 923e
-0.09818766 -0.043687135 0.3096096 0.0048278472 0.31295857 -0.2823248 0.34773445 0.12382845
0.0829004 0.5429814 0.051657375 -0.080860876 -0.15904331 0.20864628 -0.081164725 0.43941137
-0.21218568 0.25332052 -0.056623936 0.25247332 -0.14550853 0.5335153 -0.0034475918 0.24341208
0.18530358 0.185425 -0.019898243 -0.08593942 0.051687684 0.27266306 0.38961926 -0.06999394
-0.1972168 0.45457926 0.039746333 0.084431045 -0.037279326 -0.037566304 0.25154737 0.28594962

weight f4 [1, 40]
00000000: 3767 e9bc 607a 11bf 7b8e e1bf 56bb 473f
00000010: 508e fb3f 1565 e2bf cb5e 95bf a10b 8c3f
00000020: 8f74 f2be daff 86c0 06cc 273d 75e5 233e
00000030: e191 dcbf 2b74 e3bf eb23 333e 02c7 22c0
00000040: 7d15 3dbd 7403 abbf b235 02be 7a8e 29c0
00000050: bc1c 233e bbd1 48c0 7319 74be 1334 f1bf
00000060: db8e 26be f30f 7e3f 789d 043d 4e71 883f
00000070: 7f5b 483f 1c97 ba3f 3fce eabf 6427 f4be
00000080: 74f6 3b3f e132 5fc0 36ec e7be 07f5 6340
00000090: 4593 2fbe 80e4 2fbe d9d8 ba3f 7e1a d03f
-0.0284916 -0.56827354 -1.7621607 0.78020227 1.9652805 -1.7687098 -1.1669554 1.0941049
-0.47354552 -4.218732 0.040966056 0.160055 -1.7232019 -1.7769827 0.1749417 -2.5433965
-0.04616307 -1.3360429 -0.12715796 -2.649321 0.1592893 -3.137801 -0.23837833 -1.8844017
-0.16265433 0.99243087 0.032376736 1.0659578 0.7826461 1.4577365 -1.8344191 -0.47686303
0.7342293 -3.4874804 -0.45297402 3.5618303 -0.17146023 -0.1717701 1.4597427 1.6258085
