learning/model_10_input/model_2.pth (torch, 11611 bytes, 5 tensors)

weight f4 [40, 10]
0	0x3ec4a198	0.38404536
1	0x3ef8dd1b	0.4860619
2	0x3e71e330	0.23621821
3	0xbec3e1b4	-0.38258135
4	0xbd18fef7	-0.03735253
5	0xbe888a88	-0.2666819
6	0xbe4dfa68	-0.20115054
7	0x3d34ce40	0.044142008
8	0xbd9948e9	-0.0748461
9	0xbd9699c6	-0.07353549
10	0xbe1db42a	-0.15400758
11	0x3d84eb56	0.06490199
12	0xbedfc7ee	-0.43707222
13	0x3d4de57e	0.05026769
14	0x3eea199d	0.45722666
15	0x3dbc306e	0.09188925
16	0x3e0c8295	0.13721688
17	0x3d81c999	0.0633728
18	0x3e0c7000	0.137146
19	0xbe40fee6	-0.18847236
20	0x3f0d051a	0.5508591
21	0x3eb82334	0.35964358
22	0x3f350e12	0.70724595
23	0xbe3d219e	-0.18469855
24	0xbe7d6b8b	-0.24748056
25	0x3d51acd1	0.0511902
26	0x3e72ded0	0.23717809
27	0x3e70ed13	0.23527937
28	0x3e9878f6	0.29779786
29	0x3e554669	0.2082764
30	0xbe3f6347	-0.18690215
31	0xbf01ace5	-0.5065444
32	0x3eb36e1b	0.3504494
33	0xbccd709e	-0.025078114
34	0x3e0f0c0f	0.13969444
35	0x3ea7acc1	0.32748988
36	0xbe2ab001	-0.16668703
37	0x3e95ffdc	0.29296768
38	0xbcd27999	-0.025692748
39	0xba176069	-0.0005774559
40	0xbe462066	-0.19348297
41	0xbe8ffd1d	-0.28122798
42	0x3f1e0bb2	0.61736596
43	0xbf4d7ead	-0.80271417
44	0xbebcc133	-0.3686615
45	0xbea2fb7c	-0.31832492
46	0xbd3dbed2	-0.04632456
47	0xbbf53f16	-0.007484327
48	0xbd486dea	-0.048932947
49	0xbc91d9ef	-0.017804114
50	0xbeb75ab1	-0.3581138
51	0xbbe31822	-0.006930367
52	0xbe0ade7b	-0.13561432
53	0x3e785dbd	0.24254508
54	0xbcbe5578	-0.023234114
55	0xbe9dd76a	-0.3082841
56	0x3e80246f	0.25027797
57	0x3d4bf52b	0.049794357
58	0xbe3dc5eb	-0.18532531
59	0x3e859041	0.2608662
60	0x3ebb704b	0.3660911
61	0x3f3b0aa3	0.73063105
62	0x3ec6a346	0.38796443
63	0xbf397bbc	-0.7245443
64	0xbf214b80	-0.6300583
65	0xbf114484	-0.5674517
66	0xbe604847	-0.21902572
67	0xbd79cf00	-0.060988426
68	0xbd9f8755	-0.077894844
69	0x3d52a0c5	0.051422853
70	0x3df74913	0.12074485
71	0xbe60dab5	-0.2195843
72	0x3ee630a2	0.4495898
73	0x3ed6c93f	0.41950414
74	0xbd56df1e	-0.052458875
75	0xbdc8324d	-0.09775219
76	0xbdc86a46	-0.09785895
77	0x3e8fcda1	0.2808657
78	0xbdff6990	-0.12471306
79	0x3e6c84b9	0.23097505
80	0xbec84d72	-0.39121586
81	0x3eb67444	0.3563558
82	0xbe9a88bb	-0.30182442
83	0x3e84099b	0.25788578
84	0x3d7ed5ea	0.062215723
85	0x3e9e191f	0.3087854
86	0x3e35977b	0.17733566
87	0x3cbf95a0	0.023386776
88	0xbdb80b39	-0.089865156
89	0xbde79db5	-0.11309377
90	0x3bb71661	0.0055873846
91	0xbedf759d	-0.4364442
92	0x3ee43197	0.44569084
93	0x3ee070a8	0.4383595
94	0x3ec29867	0.380069
95	0x3f261c8f	0.64887327
96	0x3e8047e5	0.2505485
97	0x3d2cf7e4	0.042228594
98	0x3e62b9c0	0.2214117
99	0x3cf63954	0.030056633
100	0xbe8796da	-0.26482278
101	0xbd55378a	-0.05205492
102	0x3e8e69b0	0.27815008
103	0xbe3964d1	-0.18104865
104	0x3d6a5d28	0.057217747
105	0xbe8e72e5	-0.27822033
106	0xbe498d0d	-0.19682713
107	0xbe484778	-0.19558513
108	0x3e858484	0.26077664
109	0xbb825e65	-0.003978538
110	0x3e9ad427	0.30239984
111	0xbe581397	-0.21101223
112	0xbe54354f	-0.2072346
113	0xbdb9c0e0	-0.09069991
114	0x3d4c7685	0.049917717
115	0x3e7d8c6a	0.24760595
116	0xbd014d33	-0.031567764
117	0xbe7c7db0	-0.24657321
118	0xbe7c7eb3	-0.24657707
119	0x3c6919e8	0.014227368
120	0x3e955986	0.29169863
121	0xbe006c87	-0.125414
122	0xbea3e066	-0.3200714
123	0x3ed36c81	0.4129372
124	0x3ef69106	0.4815752
125	0xbebc91ff	-0.36830136
126	0x3e5b0be8	0.2139126
127	0x3e2ae116	0.16687426
128	0x3d55d84c	0.05220823
129	0x3e1fcd47	0.15605651
130	0x3e641b68	0.2227608
131	0xbf07c96b	-0.53041714
132	0x3eececbc	0.46274364
133	0x3e6c872d	0.2309844
134	0x3df99ddc	0.121883124
135	0x3e237b4b	0.15965001
136	0x3e2f5db8	0.17125595
137	0xbe099a43	-0.13437752
138	0xbe560ee7	-0.20904122
139	0x3ca534c1	0.020166757
140	0x3ee2776a	0.4423173
141	0x3ed14370	0.40871763
142	0x3ea78881	0.32721332
143	0xbe9fcae8	-0.31209493
144	0xbe98545c	-0.2975186
145	0xbe1cc543	-0.15309624
146	0xbd8cdaf8	-0.068777025
147	0x3e405bbb	0.18784992
148	0xbe1a4508	-0.15065396
149	0x3d91757d	0.07102487
150	0xbed8daf7	-0.42354557
151	0xbd7640e8	-0.060120493
152	0x3ee63ff1	0.44970658
153	0xbec60060	-0.3867216
154	0xbe6381b0	-0.2221744
155	0xbd8bc651	-0.06824935
156	0x3e288c1d	0.16459699
157	0xbe2a074b	-0.16604345
158	0x3e726baf	0.2367389
159	0xbd7702dc	-0.06030546
160	0x3bdf0cd8	0.006806951
161	0x3eda84e1	0.42679504
162	0xbea26ebd	-0.31725112
163	0x3e4b851c	0.19874996
164	0xbe605699	-0.21908034
165	0xbe79c5ad	-0.24391814
166	0xbe999fc4	-0.30004704
167	0xbea06067	-0.3132355
168	0x3cd0ef25	0.025504658
169	0x3e0a52a5	0.13508089
170	0xbef51df9	-0.4787443
171	0x3e24e70c	0.16103762
172	0xbebb0eb2	-0.3653465
173	0xbebd3acb	-0.36958918
174	0x3e88914f	0.26673362
175	0x3f011ba1	0.50432783
176	0xbe2a0dd6	-0.1660684
177	0xbb039fec	-0.0020084335
178	0xbb3869ec	-0.0028139306
179	0x3d8e96e8	0.06962377
180	0xbdaba1ef	-0.08380496
181	0x3e67f03f	0.2265024
182	0xbe89727f	-0.26845166
183	0x3e00224c	0.12513083
184	0xbe656abb	-0.22403996
185	0xbe91f7d4	-0.2850939
186	0xbe3da04c	-0.1851818
187	0x3e86ce08	0.26329064
188	0xbe9a006b	-0.30078444
189	0xbe21a401	-0.15785219
190	0xbe35d67f	-0.17757605
191	0xbeeb64fd	-0.45975485
192	0xbd2f4c69	-0.04279748
193	0xbee60a8b	-0.4492992
194	0x3e31d7aa	0.17367426
195	0x3ea84aeb	0.32869658
196	0xbe46d3fc	-0.19416803
197	0x3d84362d	0.06455646
198	0xbd68cb7c	-0.056834683
199	0x3e1f8a65	0.15580137
200	0xbea00332	-0.31252438
201	0xbe0e123b	-0.13874142
202	0x3f0c1c44	0.5473063
203	0xbec24b8e	-0.3794827
204	0xbecd6961	-0.4011946
205	0xbe406eb4	-0.1879223
206	0x3e59a3fc	0.21253961
207	0x3db84a2a	0.08998521
208	0xbd95f90c	-0.073228925
209	0xbe4debe7	-0.20109521
210	0xbe09833a	-0.13428965
211	0xbe12862b	-0.14308994
212	0xbe8f265f	-0.27958962
213	0xbe157b28	-0.14597762
214	0xbdf2a930	-0.11848676
215	0xbc1765e8	-0.009240605
216	0xbd6db3f0	-0.05803293
217	0x3cccf161	0.025017442
218	0x3d8a4b59	0.06752653
219	0xbe955526	-0.29166526
220	0x3eab5f6c	0.3347124
221	0xbd840ac8	-0.06447369
222	0x3daad8b2	0.083421126
223	0x3da665ce	0.081248865
224	0x3d9cb966	0.076525494
225	0x3e952996	0.2913329
226	0x3d99923b	0.074985944
227	0xbdbc61b9	-0.091983266
228	0x3e284140	0.16431141
229	0x3dc358c1	0.09538413
230	0x3ecf315d	0.4046735
231	0xbf69b20c	-0.912873
232	0x3f2fdfaa	0.6870066
233	0x3f8754cd	1.0572754
234	0xbef8cab9	-0.48592165
235	0xbe6e3f6a	-0.23266378
236	0xbd88978d	-0.06669531
237	0xbd07e941	-0.033181433
238	0xbc41cff6	-0.011829367
239	0x3cb91ba4	0.022596188
240	0xbd9d4194	-0.07678524
241	0x3e158de4	0.14604908
242	0x3d6b7976	0.05748888
243	0x3e7d7ff4	0.24755841
244	0xbea823aa	-0.3283971
245	0xbe4f6aad	-0.20255537
246	0xbe7e32e7	-0.24824105
247	0xbe0e099d	-0.13870855
248	0x3e82a794	0.25518477
249	0xbc664e7f	-0.014056801
250	0xbe06c6d4	-0.13161784
251	0x3ea83de7	0.32859728
252	0x3c951422	0.018198077
253	0x3ecebbce	0.4037766
254	0x3ec7b982	0.3900872
255	0x3d12260c	0.035680816

bias f4 [40]
0	0x3e4522c8	0.19251549
1	0x3eb00574	0.3437916
2	0xbedb0f47	-0.42785093
3	0xbdb572c9	-0.08859784
4	0x3f1114c8	0.56672335
5	0x3ec2f264	0.38075554
6	0xbe807c13	-0.2509466
7	0xbeb6ad2e	-0.35679
8	0xbee1a0d5	-0.44068018
9	0xbe3a36ad	-0.1818492
10	0xbda34d75	-0.07973758
11	0xbe6cabf4	-0.2311247
12	0x3db84395	0.08997265
13	0xbe921fd2	-0.28539902
14	0xbd58fc64	-0.052975073
15	0x3e66461d	0.22487684
16	0xbdd0333c	-0.10166022
17	0x3eb15601	0.34635928
18	0x3e09cfd5	0.13458188
19	0x3dc8ea26	0.09810285
20	0x3e936bf7	0.28793308
21	0xbca7f65b	-0.020503214
22	0x3ebb94f3	0.36637077
23	0x3e029405	0.12751777
24	0x3e0c71c2	0.1371527
25	0xbe22c7d6	-0.15896544
26	0xbe8a2e62	-0.26988512
27	0xbe06ed6f	-0.13176511
28	0x3f4100b1	0.7539168
29	0xbf356924	-0.70863557
30	0x3f86e520	1.0538673
31	0x3d0a1d92	0.033719607
32	0xbdccd4e4	-0.10001543
33	0x3e72c4d3	0.23707895
34	0xbf5b6602	-0.85702527
35	0x3f59846b	0.8496768
36	0x3ec53401	0.38516238
37	0x3f7602a2	0.9609777
38	0x3ef838b3	0.48480758
39	0x3dc65fff	0.096862786

weight f4 [40, 40]
0	0xbccede29	-0.025252419
1	0x3e2614ee	0.16218922
2	0xbe1025cd	-0.1407692
3	0x3d8461a3	0.06463935
4	0xbe4a6ff0	-0.19769263
5	0x3dba6c1f	0.09102654
6	0xbecfe07e	-0.4060096
7	0xbe6bda03	-0.23032384
8	0x3dce6db7	0.1007952
9	0xbe1e43db	-0.15455572
10	0xbd11a1d9	-0.03555474
11	0x3df8ae90	0.1214267
12	0x3e25a37f	0.1617565
13	0x3d619ad7	0.055079307
14	0xbbfc48ec	-0.0076991227
15	0x3c804dab	0.015662035
16	0x3de5a480	0.112130165
17	0x3ebe8b28	0.37215543
18	0x3da1f8ac	0.079087585
19	0x3dde980a	0.10868843
20	0xbe685d63	-0.22691874
21	0xbc87a511	-0.016558202
22	0xbcb04082	-0.021515135
23	0xbd625970	-0.055261075
24	0x3b21acb2	0.0024669585
25	0x3d7c2367	0.0615572
26	0x3d83821a	0.06421299
27	0xbeb058ca	-0.3444274
28	0x3eb1cfcf	0.34728858
29	0x3e2cb210	0.168648
30	0xbef869ef	-0.4851832
31	0x3d16babf	0.03679919
32	0x3e4559c9	0.19272532
33	0xbd888c93	-0.066674374
34	0xbe341c18	-0.17588842
35	0xbdd8fd13	-0.10595145
36	0xbde2e7c1	-0.1107936
37	0x3f2becbd	0.6715811
38	0x3ebdf2d3	0.37099323
39	0x3be8b875	0.007102067
40	0xbd799bd9	-0.060939644
41	0x3d7c2a2d	0.06156366
42	0x3d2b715e	0.041856162
43	0xbb07dda8	-0.0020731483
44	0xbe063aa1	-0.13108303
45	0xbe0746b4	-0.13210565
46	0xbe2bbc80	-0.16771126
47	0x3dc3a48b	0.095528685
48	0xbe0eef99	-0.13958587
49	0x3e100674	0.14064962
50	0xbe2f0ccd	-0.17094727
51	0xbe1b79d8	-0.15183198
52	0x3d65869b	0.056036573
53	0x3e18b092	0.14911106
54	0xbbd38011	-0.0064544757
55	0xbd3f49f0	-0.04670137
56	0x3d965d92	0.07342066
57	0x3e278028	0.16357481
58	0x3d87defb	0.06634327
59	0xbce0f97a	-0.02746271
60	0xbe3526cd	-0.17690583
61	0xbc3f95ab	-0.0116933985
62	0x3e4b148a	0.19832054
63	0x3ed7ae97	0.4212539
64	0xbce71993	-0.028210437
65	0x3d43271e	0.047644727
66	0xbde2aef0	-0.11068523
67	0xbd17a121	-0.0370189
68	0xbcd11e5e	-0.025527176
69	0x3eb48a4e	0.35261768
70	0xbe9571a2	-0.29188257
71	0xbdd1c3d2	-0.10242428
72	0xbd24ce9c	-0.0402361
73	0xbe1dc3e2	-0.15406755
74	0x3e772f13	0.24139051
75	0xbdabdb6d	-0.083914615
76	0xbc8633df	-0.016382156
77	0x3e92fa9e	0.2870683
78	0x3e83bdda	0.25730783
79	0xbdbeb214	-0.093113095
80	0xbe03e380	-0.12879753
81	0xbca9b21b	-0.02071481
82	0x3d4a821e	0.049440496
83	0x3dc38bbf	0.09548139
84	0x3df10e76	0.11770336
85	0xbe1fa41e	-0.1558995
86	0x3e1e3b93	0.15452413
87	0xbcfd6a97	-0.030934615
88	0x3da42474	0.080147654
89	0xbbe3db83	-0.006953658
90	0xbb3881a9	-0.0028153455
91	0xbdff8b8d	-0.12477789
92	0x3d90af79	0.07064719
93	0xbdb9fd2e	-0.09081493
94	0xbe0c616b	-0.13709037
95	0xbbd5df7d	-0.006526886
96	0x3dec108c	0.115265936
97	0xbdf9bd06	-0.121942565
98	0xbd8fd405	-0.070228614
99	0xbdb5bd5d	-0.08874009
100	0xbda75e99	-0.0817234
101	0xbe1fdc64	-0.15611416
102	0x3dadef47	0.08492904
103	0xbe082327	-0.1329466
104	0x3df45942	0.11931087
105	0xbd39d75a	-0.04537139
106	0x3e0b4f4e	0.13604471
107	0xbd016b4b	-0.031596463
108	0x3dce7ff7	0.10083001
109	0xbc5ae69e	-0.0133606475
110	0xbd7d4267	-0.061830904
111	0x3d9e292b	0.07722696
112	0x3e0e53c8	0.13899148
113	0xbda1c316	-0.07898538
114	0x3d42d80f	0.04756933
115	0xbcd44ce9	-0.02591558
116	0x3dae699d	0.08516238
117	0xbda5f146	-0.0810266
118	0xbd6fd857	-0.058555927
119	0xbd178950	-0.036996186
120	0xbdadc24a	-0.08484323
121	0xbde782e5	-0.11304263
122	0x3db43d10	0.08800709
123	0x3e12c39b	0.1433243
124	0xbdd3a814	-0.10334793
125	0xbdd6675e	-0.104689345
126	0xbc7a68b0	-0.0152837485
127	0xbcefbc20	-0.02926451
128	0x3d6dbb0c	0.05803971
129	0xbe17471b	-0.14773218
130	0xbbaaa780	-0.005207956
131	0xbd92be95	-0.07165257
132	0x3d91e8ce	0.07124482
133	0x3e0a63bb	0.13514607
134	0xbdc7dd44	-0.09759
135	0x3d8ffe18	0.070308864
136	0x3e182bef	0.1486051
137	0xbdd33354	-0.103125244
138	0x3d57ab38	0.05265352
139	0x3d73f58c	0.059560344
140	0xbe11d6e1	-0.14242126
141	0x3da6f78c	0.081526846
142	0xbda26987	-0.07930284
143	0xbe02dab7	-0.12778746
144	0xbc8d9310	-0.017282039
145	0xbd908f35	-0.070585646
146	0x3d1819c0	0.037133932
147	0x3d668228	0.05627647
148	0x3c9f4ff8	0.019447312
149	0x3c8b3e38	0.016997442
150	0xbc545670	-0.012960061
151	0x3e195a65	0.14975889
152	0x3dc859b6	0.09782736
153	0xbdcb77a5	-0.0993493
154	0xbd9bf02b	-0.07614168
155	0xbdd14ee8	-0.10220128
156	0xbd46b586	-0.048512958
157	0xbd727ea8	-0.05920282
158	0xbdaf187c	-0.08549592
159	0xbc6e6d80	-0.014552474
160	0xbc9af5b5	-0.01891599
161	0xbceb3031	-0.028709503
162	0xbdc812b9	-0.09769196
163	0xbda567e0	-0.08076453
164	0x3db63a45	0.08897833
165	0x3b5765b8	0.0032867026
166	0x3b45713f	0.0030127314
167	0x3e039c12	0.12852505
168	0xbdd8b05a	-0.105805114
169	0xbda6b03f	-0.08139085
170	0x3de8ffb6	0.11376898
171	0xbd02b77c	-0.031913266
172	0x3d40f18c	0.047105357
173	0x3e1a50ec	0.15069932
174	0xbde6189b	-0.11235162
175	0x3e21111d	0.15729184
176	0x3e1c886f	0.1528642
177	0xbd81380b	-0.063095175
178	0x3d3df865	0.046379466
179	0x3d14f1aa	0.03636328
180	0x3da89882	0.082322136
181	0xbcabc310	-0.020967036
182	0x3e0b7eea	0.13622633
183	0xbe193bf8	-0.14964283
184	0xbdc9ae01	-0.09847642
185	0xbd964739	-0.073378034
186	0xbd96c450	-0.073616624
187	0x3cd1da06	0.025616657
188	0xbe21fbdb	-0.15818731
189	0x3a748cc1	0.00093288353
190	0xbde3ebee	-0.111289844
191	0xbd927e08	-0.07152945
192	0x3e15f549	0.1464435
193	0xbdc489f4	-0.09596625
194	0x3e1b1731	0.15145566
195	0xbddcabe7	-0.10774975
196	0x3de29f1b	0.11065503
197	0x3daa4fce	0.08316003
198	0x3d0c71cc	0.034288213
199	0xbde4a060	-0.111634016
200	0x3c11d608	0.008901127
201	0x3d4cf955	0.05004247
202	0xbd9fbc57	-0.07799595
203	0x3d6af76a	0.05736486
204	0x3d5de2c5	0.054171342
205	0xbe1d6819	-0.15371741
206	0xbdf52a01	-0.11970902
207	0xbd97808b	-0.073975645
208	0x3e1e13d2	0.15437248
209	0xbd625df2	-0.055265374
210	0x3c5fd5b9	0.013661795
211	0xbdf67d42	-0.1203561
212	0x3bcf7e13	0.006332168
213	0xbda4a90c	-0.08040056
214	0x3e18901e	0.14898726
215	0x3e0b1c20	0.13584948
216	0x3d02547f	0.031818863
217	0x3e003499	0.12520064
218	0xbc9263d0	-0.01786986
219	0x3dd36bef	0.10323321
220	0xbe0f7cd3	-0.1401246
221	0x3d968dd9	0.07351274
222	0xbd0f822e	-0.03503626
223	0x3cb14aad	0.021642053
224	0xbe018d69	-0.126516
225	0x3da276e2	0.07932831
226	0x3dd143e0	0.10218024
227	0x3d458527	0.048222687
228	0x3e0a0e1c	0.13481945
229	0x3dc39c18	0.09551257
230	0xbe1a8425	-0.15089472
231	0x3decf322	0.115698114
232	0xbd7b393b	-0.061333876
233	0xbd61fbb3	-0.05517168
234	0xbdd0065b	-0.10157462
235	0xbe0da888	-0.13833821
236	0x3d8b67b5	0.0680689
237	0xbd867488	-0.06565195
238	0xbd3bbfda	-0.04583726
239	0xbe1fe3aa	-0.1561419
240	0x3e0ecfc4	0.13946444
241	0xbd57a7e4	-0.052650347
242	0xbdf462c9	-0.11932904
243	0x3e0efc7e	0.13963506
244	0x3e139515	0.14412339
245	0x3e039062	0.12848046
246	0xbc55fec6	-0.013061231
247	0x3e143558	0.14473474
248	0xba9e41db	-0.001207407
249	0x3b683558	0.0035432186
250	0xbd8af5d7	-0.067851715
251	0x3df6fb01	0.12059594
252	0xbe22cfef	-0.15899633
253	0x3d3d47ed	0.046211172
254	0xbd544b00	-0.051829338
255	0xbd923977	-0.07139867

bias f4 [40]
0	0x3dd79209	0.10525901
1	0xbd5f4600	-0.054510117
2	0xbd4de87e	-0.05027055
3	0xbe0ebc34	-0.13938981
4	0xbd9172fd	-0.071020104
5	0x3d16ac19	0.03678522
6	0x3d1cb14c	0.03825502
7	0x3cc6a312	0.02424768
8	0xbdb2b840	-0.08726549
9	0x3eae741c	0.3407296
10	0x3ed5728d	0.41688958
11	0xbe08962b	-0.13338535
12	0x3e88337c	0.2660178
13	0x3e560e50	0.20903897
14	0xbd587a9f	-0.052851316
15	0x3d148cfb	0.036267262
16	0x3baa520d	0.0051977695
17	0x3dac32c4	0.0840812
18	0x3f2c6e8a	0.6735617
19	0xbe129f29	-0.14318527
20	0x3db7664f	0.08955061
21	0xbe21c3a6	-0.1579729
22	0x3e63aab4	0.22233087
23	0x3c1f277d	0.009714005
24	0xbe20182d	-0.15634222
25	0xbca29adb	-0.019849231
26	0x3d11cc97	0.035595503
27	0xbddf5f5f	-0.109068625
28	0xbcde97de	-0.027172025
29	0x3e70a793	0.23501424
30	0xbd41ae63	-0.04728545
31	0xbc6e92d8	-0.0145613775
32	0xbd1ddd72	-0.038541265
33	0xbe2e6355	-0.1703008
34	0x3e222036	0.158326
35	0x3e9e2488	0.30887246
36	0x3d92812d	0.071535446
37	0x3cb75d8c	0.022383474
38	0x3da9f029	0.0829776
39	0x3cfeecb4	0.031118728

weight f4 [1, 40]
0	0x3f9c3828	1.2204638
1	0x3f580ac0	0.84391403
2	0xbd679f70	-0.056548536
3	0xbc370710	-0.011171117
4	0x3aa6dbb7	0.0012730275
5	0x3d5650af	0.05232304
6	0xbc72b46f	-0.0148135265
7	0x3e4f9011	0.202698
8	0x3ed41d89	0.41428784
9	0xbfce3bf6	-1.6112049
10	0xbfd0d55c	-1.6315112
11	0x3f4efa6a	0.8085085
12	0xbf333e7b	-0.7001721
13	0xbea83034	-0.32849276
14	0x3ddfbb3b	0.10924383
15	0xbf224b81	-0.6339646
16	0xbe7cabf1	-0.24674965
17	0xbf71d710	-0.94468784
18	0xc03d13e7	-2.9543397
19	0x3f039474	0.51398396
20	0x3f771453	0.9651539
21	0xbd119e59	-0.035551403
22	0xbe01b5de	-0.12667033
23	0xbd4506d5	-0.04810222
24	0x3f965397	1.174426
25	0x4025c5f8	2.590208
26	0x3f0196e0	0.5062084
27	0x3fd0f2db	1.6324114
28	0xbd502ca4	-0.050823823
29	0xbf1cf60d	-0.61312944
30	0x3d906802	0.07051088
31	0xbf1eaf31	-0.6198607
32	0xbea4e5b8	-0.32206511
33	0xbec22b44	-0.37923634
34	0x3e38a00b	0.18029802
35	0xbf67f161	-0.9060269
36	0x3f20c341	0.62797934
37	0xbd87780f	-0.06614696
38	0x3d575305	0.052569408
39	0x3e0fbc69	0.14036717
