learning/model_10_input/model_9.pth (torch, 11611 bytes, 5 tensors)

weight f4 [40, 10]
00000000: 53c3 62bd fd69 073c e7f2 7b3d 7f36 20bc
00000010: b6e9 75be f5cc 933d d995 2e39 b0e7 3c3e
00000020: 9303 813d 9a54 fb3c 6330 273d 670b 563d
00000030: 89b0 3a3e 6bcf 9c3d 9062 09bd e9a3 9cbd
00000040: 31c9 633d 36ef a73d b3a9 5bbd b4b1 76be
00000050: aa72 d63d bf59 313e fb2c e83b c7a6 c23b
00000060: 2555 113d cc0f 2abd 8010 de3c ae6c 273e
00000070: b436 0d3e 214a 3dbe 530d c3bd 17fb 1f3d
00000080: f431 15be 36cb e2bc 0b3e 013e 8c14 8b3c
00000090: 6787 b5bd c550 723d e388 8c3d 3e38 0abe
000000a0: 550f 8ebc 94ec ff3d ef04 27bd 91e3 95bd
000000b0: 6256 87bd d25a 0abd 1d1d b53d cba2 06be
000000c0: 59c3 223c f5fb b1bd 249c bfbc 192a 033e
000000d0: 8063 10be 709a 3f3c bc21 17be 7a46 123e
000000e0: 5ace 273e 4d7f b9bd c3b9 0dbe e80c 293e
000000f0: ce26 47bd dcb5 043e 32a0 b23d cb07 84bd
00000100: b4cd 44bd 91ce d93c c855 d53d b882 b6bc
00000110: f682 5b3d a12c 873d 80e9 b03d 75f8 d53d
00000120: fe23 343e 1c07 503e 6834 26be 4881 dfbd
00000130: f79f 993d 4b8c 9abd a1ea 98bd 26fc 3dbe
00000140: 9a34 0fbe 3848 a8bd 2c7e abbd b23b a4bd
00000150: 4451 b9b8 7384 323e fb92 fabd 23e8 0cbe
00000160: 56bf e13d f515 ad3b 7524 dbbd 02dd 3bbe
00000170: 3573 bc3d ab6d 463d d74f 01be 0b70 9dbd
00000180: d152 483c 757a 90bc 3408 043e 2cb6 dc3b
00000190: 0fe7 db3d 4d6e 3c3d cf22 883d 0d73 433e
000001a0: e193 b63d b2c5 db3d e461 03be 2833 c3bb
000001b0: 8b9c 6f3d 4cd4 37bd 24a6 fa3d 9b1f 363d
000001c0: 36ca 6bbc 2850 e03c f853 2f3d 93d5 75bd
000001d0: 3d1c 31bd e516 343e 0f03 16bd 357d a83d
000001e0: 33d2 39be 0e49 a43d d2af e13c 4a9d 8bbd
000001f0: 37c4 b43d 7198 ffbd a419 b53c 9765 8ebe
00000200: e920 683c 8d12 26bc 9096 493d 98a4 043e
00000210: 7f45 a1bd 9b49 86bd ffde 6dbd 0d71 9abd
00000220: 87f8 abbd 581b 9abc e28d 17bd f590 c6bd
00000230: 19b2 d53a 90ea 99bd 36ee ca3d e075 363e
00000240: 1e93 3d3e e11f 81bd 7a75 09be 7a6d 143e
00000250: f609 e73d acdf a03d 9348 6a3d 5c9d 583d
00000260: 3527 27bc e805 bf3d 8815 8abc 9c4b fa3d
00000270: 44d9 243d 9a28 4abc ffcd 9bba 53ff 81bd
00000280: d42d 47bd 6c55 363e 6663 693c aef7 81bd
00000290: aab6 d43c 1258 d5bc 059b 8b3d 4ae1 05bc
000002a0: 85c0 dd3d 409b bc3c 7bf9 f0bd 9f2d 413d
000002b0: 3f8e e83c 6cc9 0a3e a594 263d bea1 863d
000002c0: 58a1 0e3d 2217 c33d 97ce 3cbb ab4e 2abd
000002d0: 1179 32bd 79d3 6c3e 66e9 00bd e4aa ac3b
000002e0: f05a 26bd 7285 1fbc f8d8 953a 80ab 993d
000002f0: ea20 9d3c f05c 16be b1e9 ffbc a0ea 9bbd
00000300: 9d09 b93d 4d4c 6abe c65b fcbd 52df d33d
00000310: 3131 513c b91f a83c 3e13 563d 2c73 cebd
00000320: 1e8a 5dbe 6784 b93d 23b7 adbd 927e 413d
00000330: dae9 b63d f3b9 aabc e287 1a3c d5f7 14be
00000340: 6005 463c 318e 813a 6cf8 6abc c143 f5bb
00000350: 48a6 e9bd 03cc 9b3e 0012 49bd 5d2a 993d
00000360: f80f f9bc c4f3 c93d b6c3 26be 6598 89bd
00000370: 4665 e53d aced f13b 45a2 f8bc 2885 543e
00000380: 2c79 86bc bb92 8f3c 3dea f23d 724a 82bd
00000390: 5f87 2cbd 9157 44be db0b 25bd 0374 753c
000003a0: 3dab cfbd 4689 28be d807 c53d 2ecb 923d
000003b0: 0e8d 233d 6076 acbd 0910 2dbe eccc d13d
000003c0: b045 18be 285e 02be 8eb8 1ebd 97e4 40be
000003d0: ccd9 7e3c 3ab5 1d3e 6924 013d 210c 233e
000003e0: 7e66 623c 764d 5d3d e27e 39be 11ab 11bd
000003f0: 29ce 8fbd fc58 333d 7a73 b6bd 7897 f4bd
-0.055362057 0.008265016 0.061510947 -0.009778618 -0.24014935 0.07216827 0.00016649756 0.18447757
0.0629951 0.03067999 0.04081763 0.052256968 0.18231405 0.07656749 -0.033541262 -0.07648451
0.055611793 0.08199923 -0.053628635 -0.24091226 0.10471089 0.17319392 0.00708544 0.0059402916
0.03548159 -0.04151897 0.027107477 0.16350052 0.13790399 -0.18485309 -0.09524026 0.039057817
-0.14569837 -0.02768479 0.12621324 0.016977571 -0.088637166 0.05915906 0.068620466 -0.13498017
-0.017341295 0.124962956 -0.04077619 -0.073187955 -0.06608273 -0.03377802 0.088434435 -0.13148038
0.00993427 -0.08690635 -0.023389883 0.12809028 -0.14100456 0.011694536 -0.14758962 0.14284697
0.1638731 -0.09057484 -0.13840394 0.1650883 -0.04862099 0.12959999 0.08721961 -0.06446799
-0.048047736 0.026587756 0.10416752 -0.022279128 0.05359169 0.06600309 0.086382866 0.1044778
0.17591855 0.20315212 -0.16230929 -0.1091333 0.07501214 -0.0754629 -0.07466627 -0.18553218
-0.1398491 -0.082169 -0.08373675 -0.080191985 -8.836624e-05 0.17433338 -0.122350655 -0.13760428
0.110228226 0.0052821585 -0.10700313 -0.18346027 0.092016615 0.04844443 -0.12628113 -0.07687386
0.012226776 -0.017636517 0.12893754 0.006735584 0.1073743 0.04600363 0.06647264 0.19086857
0.089149244 0.10731067 -0.12830311 -0.005957026 0.0584989 -0.044880196 0.1223872 0.044463735
-0.014391473 0.027381971 0.04280469 -0.060018133 -0.04323982 0.17586859 -0.03662401 0.08227006
-0.18146591 0.080217466 0.027549658 -0.0681711 0.088264875 -0.12480248 0.022106953 -0.27811882
0.014168003 -0.010136259 0.049215853 0.12953413 -0.078745835 -0.06557008 -0.058073994 -0.07541094
-0.08397012 -0.018811867 -0.037000544 -0.09695617 0.0016303688 -0.07515442 0.099087164 0.17818403
0.18513152 -0.063049085 -0.1342372 0.14494887 0.11281197 0.07855162 0.05719812 0.052884445
-0.010202219 0.093272984 -0.01685597 0.122214526 0.040246263 -0.012338782 -0.0011886953 -0.06347527
-0.04862769 0.17806023 0.01424489 -0.06346069 0.025966007 -0.026042972 0.06816677 -0.008171389
0.10827736 0.023023248 -0.117663346 0.04716265 0.02838814 0.13553399 0.040669102 0.065738186
0.03482184 0.095258966 -0.002880966 -0.04157893 -0.04357249 0.23127545 -0.031472586 0.005269395
-0.04061407 -0.009736406 0.001143246 0.07503414 0.019180734 -0.1468389 -0.031239362 -0.076131105
0.09035037 -0.22880669 -0.12322192 0.10345329 0.012768076 0.020522939 0.052264445 -0.10080561
-0.21634719 0.09058457 -0.08482196 0.047239847 0.089313224 -0.02084062 0.009431811 -0.14547665
0.012086242 0.0009884295 -0.014341455 -0.0074848835 -0.11408669 0.30429086 -0.04908943 0.07478783
-0.030403122 0.09860948 -0.16285595 -0.0671852 0.11200957 0.007383069 -0.030350814 0.2075392
-0.016415201 0.017526021 0.11861084 -0.063618556 -0.042121287 -0.19174029 -0.04029451 0.014981273
-0.10140083 -0.16458616 0.09620637 0.0716766 0.039929442 -0.08421016 -0.16900648 0.10244164
-0.14870334 -0.1273123 -0.038750224 -0.188372 0.0155548565 0.15401164 0.031528864 0.15922596
0.013818381 0.05402895 -0.18114808 -0.035563532 -0.07021744 0.043786034 -0.08908744 -0.11942953

bias f4 [40]
00000000: f525 c6bd c7fa 2fbe 8869 83be f3c1 03be
00000010: 19a5 a33d 05e2 f23d 5b1d cebc e26a c2bd
00000020: 5565 043c 1bd7 253e 3f1a 4c3d 41eb ba3d
00000030: 80cd 58bd 2de2 053e 4d2d 673c a2f3 1ebd
00000040: 970e cebd f318 0bbc 7b62 bfbd 4bd9 3bbd
00000050: 28eb 563e bc6e 1b3e 46d3 e6bd 34fa b5bd
00000060: a63e 81bd 7c60 ea3d d1b5 063e a20e 953a
00000070: f667 efbd 092a 91bd 4334 9f3d 0246 87bd
00000080: 796a 79bd 943e 543d 6bac eebc a6fc 36bc
00000090: 975b 32bc b512 843e 8dbd cabb f4f5 b7bd
-0.096752085 -0.17185508 -0.2566645 -0.12866955 0.07990474 0.11859516 -0.025160482 -0.094930425
0.0080808 0.16195337 0.049829718 0.09126902 -0.052930355 0.1307456 0.014109922 -0.038806565
-0.100613765 -0.008489835 -0.093449555 -0.045861524 0.20988142 0.1517896 -0.11270766 -0.08885613
-0.06310777 0.11444184 0.13155295 0.0011372159 -0.11689751 -0.07088096 0.0777364 -0.0660515
-0.060892556 0.05181749 -0.02913495 -0.0111686345 -0.0108860945 0.25795522 -0.006187147 -0.08982459

weight f4 [40, 40]
00000000: 2972 1c3e d2bc b23d fe5f 043d 6a75 163d
00000010: 9e3d 8a3c 8238 743d 75f2 ba3d 86ce 973e
00000020: d730 ad3c 94e0 5c3d 2d17 5f3d 98bd 87bc
00000030: 3b65 3fbe f534 863d 1276 94bd e434 4fbd
00000040: 01b4 433e 3c36 cfbb 6b6f 803d 4f7d 153d
00000050: 1410 e0bc 9000 473c 29b9 13bd 72cf b93c
00000060: e585 553e 9b76 413d 6c71 31bd b30a 963d
00000070: f74e 80bc 5407 2e3d d572 9bbb ad90 aabd
00000080: 3c07 d3bd 9f37 8a3d d5ef 683c 5d0d 183d
00000090: ab0d debc 5a94 a5bc c68d 103e 8bce 983d
000000a0: 51d4 d83c 1502 1ebd adf0 123d 7086 84bc
000000b0: f3f1 753d a0ac c4bd 39bc b4bd 5567 b13c
000000c0: 4869 173d 59eb 17be 8466 03be 792b 04be
000000d0: 7966 113d 2b86 543e 8a61 42bc 21ed 0e3e
000000e0: e087 74bd 5814 833e 4097 313d d899 dbbb
000000f0: 23f5 41bc 9f29 ed3c fd02 753d 0087 9dbb
00000100: a1d2 86bd 2101 f5bb fbe6 643d 2716 07be
00000110: 60bd bfbd 9b7d 463d 0cd9 033d 3858 123d
00000120: 92da 2a3d 164d 1e3d e96c 1ebd 7bea 0fbe
00000130: cdc0 ba3d 8d8d 8f3d e107 0d3e 8a8b 3bbc
00000140: 8354 cc3c b1dd 30be 329b 493d bfb1 d5bd
00000150: ffc8 11be 88d5 803d 1509 57bd bf1b 8ebd
00000160: 8907 163e 8c73 083e 0899 e53b 9081 73ba
00000170: f8df e73a 9aa2 54bd b29c 023d 2ccb 34be
00000180: 1a02 e13c 4ba7 933d 8e74 80bd 9a83 da3d
00000190: 8af8 f1bd 827e 27be 790b 9c3c d04f f53d
000001a0: 1d8c 7b3c caa7 7ebd cdce e13d e8d9 debd
000001b0: e306 e63b 2857 ed3c 812f 42be a245 aabc
000001c0: 86b6 a93d fca4 3a3d 1734 833d fc0f bc3d
000001d0: 4f9c 253d be7e 09bd 89cc 26bd 8c36 1f3c
000001e0: bf29 a0bd 0aef 31be ccc3 2ebd 6273 dcbd
000001f0: 61a1 45be 351d 4e3d 6e0b 7a3d c59f 903d
00000200: 06bf e03a 2abb 383e 7525 20be c4eb 073e
00000210: cd36 5fbd 64c7 6a3e daf7 333d e054 36be
00000220: c105 063e 51a6 fcbb 574c ddbd e94f 293d
00000230: 6eb5 063e d07c 95bc d507 d23d 5fa6 d2bd
00000240: 11ae f03b 8e09 4fbd cfd6 bc3d 823e ea3d
00000250: 5015 a43d 3bf5 3b3d 9499 69bd 41bc e2bd
00000260: 0444 1b3e 5c9c 47bd faae 1e3d 7b82 5ebd
00000270: 5b8c 6ebd c4ea 3c3e fa0b ccbd 6034 23be
00000280: 9a91 843d e93d 0bbe 9b7d debd a9f3 163d
00000290: 6173 fabd bd87 a43d 703d c73d 2e76 6a3d
000002a0: 51ae 7e3e 60f3 293d dc22 86bd b4f5 0b3e
000002b0: 3af6 393d 1d0e ffbd df8d e3bd 4ca2 463e
000002c0: 85cd abbd 9a42 033e 7d4c d2bd d3a4 053e
000002d0: 07b8 71bd e439 e33d 7ad9 46bc b36d a5bd
000002e0: 9825 4b3d a3be c7bd d6fc 643d c959 82be
000002f0: de04 363d ddfd 683d 6c30 98b9 1670 08ba
00000300: ae5c 60bd 373c 5bbd c28a cdbd b73f 4bbe
00000310: 1ebe 373c 68cf cdbd b05f ea3d 2d45 773c
00000320: 6798 243e 3691 5f3d 1434 823d 53bb a63d
00000330: 5485 813d d332 a2bd fa87 b6bd 2e0a d13d
00000340: 2d09 b1bd 2721 513d f0c4 0e3e 9363 f6bc
00000350: fb3f 65be 4802 a1bb 500b b53d 0798 293e
00000360: 4781 5fbe 0fdd 943d 5f61 343d 361c 9b3d
00000370: 347f c03b 3985 01bb 5e5c 0fbe 9a62 75bc
00000380: cc10 0ebe 8dcc b1bd 75df debd f96c 02bd
00000390: 7aa3 1bbd 9ba1 183c 0df0 03bb 5e78 16be
000003a0: b5c7 d33d 15e6 97bc cce6 ae3d 7473 36bc
000003b0: c668 a2bd 3c5b dc3d 7bb4 c1bd bd69 2b3d
000003c0: 13aa 38be 3acd 66bd 844e 9fbd 7756 e43d
000003d0: eaf3 4d3e 0523 b4bd 80c3 55be 27f0 c8bd
000003e0: 6bc9 fbbc 615d b0bb de17 b2bc 6c07 bf3c
000003f0: 09f8 073e 58b8 82bd 2968 043e 7576 acbd
0.15277924 0.08727421 0.032318108 0.03673307 0.016875084 0.059624203 0.09128276 0.29649752
0.021141453 0.053925112 0.05446546 -0.016569898 -0.1869096 0.065530695 -0.072490826 -0.05058755
0.19111635 -0.006323604 0.06271251 0.036496457 -0.027351417 0.01214613 -0.036065254 0.022681925
0.20851858 0.04723225 -0.04332106 0.073262595 -0.015662653 0.042487457 -0.0047439137 -0.08328376
-0.10304114 0.0674889 0.014217337 0.03712212 -0.027106127 -0.020212341 0.14116582 0.0746127
0.026468428 -0.038576204 0.035874058 -0.016177386 0.060045194 -0.09603238 -0.08824963 0.021655718
0.03696564 -0.14835872 -0.12832075 -0.12907209 0.035498116 0.20754306 -0.011864075 0.13957645
-0.059699893 0.2560146 0.043357134 -0.006701689 -0.01183823 0.02895051 0.059817303 -0.004807353
-0.06583143 -0.007476941 0.055884343 -0.13192044 -0.09362292 0.04845963 0.032189414 0.035728663
0.04171235 0.038647734 -0.038678084 -0.14054291 0.09118805 0.070094205 0.13772537 -0.011446843
0.024942642 -0.17272069 0.04922027 -0.10434293 -0.1423683 0.06290728 -0.052498896 -0.06938886
0.14651312 0.13325328 0.007006768 -0.00092890207 0.0017690649 -0.05191288 0.031887718 -0.17655629
0.027466822 0.07209643 -0.06272231 0.10669632 -0.11814983 -0.16356853 0.01904844 0.11978114
0.01535323 -0.062171735 0.11025772 -0.10881406 0.007019864 0.028972223 -0.18963434 -0.020785157
0.08286767 0.045567498 0.0640642 0.09182736 0.04043227 -0.033568136 -0.040722404 0.009717595
-0.078204624 -0.17376342 -0.042667195 -0.10764195 -0.19299842 0.050320823 0.061046056 0.070617236
0.0017146773 0.18040147 -0.15639289 0.13273531 -0.05449562 0.22927624 0.04393754 -0.17805815
0.13088132 -0.007710256 -0.10805576 0.041335974 0.13155147 -0.018247992 0.102554 -0.10285639
0.007344969 -0.05054622 0.09220659 0.11437704 0.080118775 0.045888167 -0.05703123 -0.11071063
0.15162665 -0.0487331 0.03874109 -0.054323655 -0.058239322 0.18448931 -0.09963222 -0.15937948
0.06473084 -0.13597836 -0.10863801 0.036853466 -0.12229038 0.080337025 0.09728515 0.05724161
0.24871184 0.041491866 -0.06549618 0.13667947 0.045400836 -0.12453864 -0.11111044 0.19397849
-0.08388809 0.12818375 -0.10268495 0.13051157 -0.059013393 0.11095026 -0.012136811 -0.08077564
0.0495964 -0.09753158 0.055905186 -0.25459126 0.044438235 0.056882728 -0.00029027776 -0.00052046904
-0.054775886 -0.053524222 -0.100362316 -0.19848524 0.011214761 -0.10049325 0.11444032 0.015092176
0.16073762 0.054581843 0.06357589 0.08141198 0.063242584 -0.0791985 -0.08912654 0.1020702
-0.08644328 0.051057007 0.13942313 -0.030076778 -0.22387688 -0.004913602 0.08840048 0.165619
-0.21826659 0.07268726 0.044038173 0.0757374 0.005874539 -0.0019763245 -0.14000079 -0.014977122
-0.13873595 -0.08681593 -0.10882465 -0.031842206 -0.0379977 0.0093158735 -0.0020132095 -0.14694354
0.103408255 -0.018542329 0.08540115 -0.011135925 -0.0793014 0.10759589 -0.09458252 0.041848887
-0.18033628 -0.056348063 -0.077786475 0.11149304 0.20112577 -0.08795742 -0.20875359 -0.098114304
-0.030735692 -0.0053822254 -0.021739896 0.023318969 0.13278212 -0.06382817 0.12930359 -0.084210314

bias f4 [40]
00000000: 58a0 143d f4ef b3bd c4f9 19be b203 b73d
00000010: 5950 483d 15f8 03bd ad66 9cbd bea4 e7bd
00000020: c901 41bc 6af0 9d3c a90c 83bd 9246 a13d
00000030: a1f6 b2ba e0c5 babb 7c3e e7bc 4b2b 863d
00000040: 49ac 56bd 1bd9 94bc fc99 b1bd bbc9 98bd
00000050: fafa eabc 8cfd 883d 8bcb 293d 83d0 fa3c
00000060: a071 ddbd bc76 9b3d 52e3 63be ec8e 30bd
00000070: 4eb2 1a3e 7317 9dbd 7476 87bd e820 7d3d
00000080: 7ce5 c6bc 7e66 703d a2d0 b7bc be28 40be
00000090: 91c9 cbbb b9ba 403c 0cc1 f93d 6ba9 a9bd
0.03628573 -0.08786002 -0.15036684 0.08936252 0.04890475 -0.03221901 -0.07636771 -0.11310719
-0.011780211 0.019279677 -0.06398899 0.07874788 -0.0013653823 -0.005699858 -0.028228037 0.06551226
-0.052410398 -0.01816993 -0.08671948 -0.07460352 -0.028684128 0.06688985 0.04145388 0.030617004
-0.10812688 0.07591006 -0.22254685 -0.04310505 0.1510708 -0.07670488 -0.0661439 0.06179896
-0.024279349 0.058691494 -0.022438351 -0.18765542 -0.006219097 0.011763268 0.12195024 -0.08284267

weight f4 [1, 40]
00000000: 1dd9 7bbd 27dc 35bd 7418 17be df21 17bd
00000010: f4d3 b1bb bec1 f93c aed8 80bd 9916 1dbc
00000020: 306c c93c 8e3c e23d a920 4a3d 771a 6f3d
00000030: 2944 84bc 2412 403d 43c0 1ebe 864f 1bbd
00000040: d89a e9bd 8569 443d d634 2bbd be5d 8fbd
00000050: 23f7 4bbd 036b 2fbb cbe3 473d bf04 0e3e
00000060: 243d 443e ea13 15be 62d2 f8bd 690c 803c
00000070: c4d7 093e 380f d03c 98a5 30be a945 913d
00000080: 8e07 8dbc 9ed2 cd3d 7473 a2be 9761 9bbc
00000090: fba5 37bd aa3b 193d 10c6 8c3c 88fc a9ba
-0.061486352 -0.044399407 -0.14755422 -0.036897536 -0.005426878 0.030487891 -0.06291328 -0.009587907
0.02458772 0.11046706 0.049347553 0.05837485 -0.016145783 0.0468923 -0.1550303 -0.037917636
-0.11406487 0.047952194 -0.041798435 -0.07000302 -0.049796235 -0.0026766665 0.048801225 0.13868998
0.19163948 -0.14558378 -0.12149502 0.015630918 0.13461214 0.025397882 -0.17250669 0.07093365
-0.017215516 0.10049938 -0.3172871 -0.018967433 -0.044836026 0.037410416 0.017184287 -0.0012968937
