learning/model_10_input/model_8.pth (torch, 11611 bytes, 5 tensors)

weight f4 [40, 10]
00000000: d636 27bd 2f0c 5f3e e0c9 ff3d afe1 fd3e
00000010: af96 32bd c503 993a b526 a7bd 1b9b 103e
00000020: 0301 b0bd 90b2 54bd 448b b93e 844c f8be
00000030: 00e4 ec3d 2076 aebe 8f74 303f 3f1d ca3e
00000040: 30c2 b83e d322 80bd 3356 8abc 790d 243d
00000050: 339c 3dbd a38f 27bf 73dd 483e 38ab bebf
00000060: 61b7 513f 0d74 873f e70e f7be 6ecd acbe
00000070: f0a5 38be e71f 25be 2c55 fc3d 9069 c4bd
00000080: 9101 c0bc dab2 863d cd32 89bd 33dc f4bd
00000090: 7f9e ef3d 393f 95bd ae84 6bbe 6d08 cb3b
000000a0: 945a e8be 3050 fabe e5a7 2c3f dde5 c23e
000000b0: 0b09 d2be 4f42 38be 6603 eabd 30cb c1bd
000000c0: 9f30 1b3c 5bb7 efbc b0c1 463e f813 a23e
000000d0: ab54 17be 0654 5c3e 3ccd c83d 32a1 b63e
000000e0: 55f8 37be c1f8 25be dfe6 d1bc db8d 0fbc
000000f0: eb4f a73e a79d 483e 7206 993d 3d32 8b3e
00000100: 8b7a 803e 803a 103e 79bf 9fbe f158 bbbd
00000110: cf2b 03be 910c 31bd a6c5 89be fcb2 6abe
00000120: e9de 533e 01ac db3e c970 c53e c728 83bd
00000130: 3a0e d3bd c3d1 2abe 320c 2b3d 5022 173d
00000140: 5861 c03e 95aa f53f 7ce6 4a3f 2f59 b1bf
00000150: 8915 adbe 35f4 d4be 2f15 3bbe 112d 26be
00000160: 74e9 bbbd 5d73 21bd 7bd2 923e e2f9 943c
00000170: c53d 263e 72ea 87be 579c bc3e 6783 91be
00000180: 0e94 c53d 684d 4d3e 53eb 3b3d a1fd cb3d
00000190: a25a 5a3e af09 e73e e4e5 d637 f90d d4be
000001a0: 7404 e73e 1e78 a53e 0a67 913e 7faf d2bc
000001b0: 39b7 153c 608e 2c3e 681c 973e 2d8c 303e
000001c0: b27c 0fbf ccde 293f 29e5 4d3f 1e11 833e
000001d0: 1d7a d03d f39b 1c3c 645f 23bd e845 86bd
000001e0: fc0c bbbe 2bb6 133f d19a 2fbe 367f afbe
000001f0: 58a6 97be fb85 243d c739 6c3e ebdc 883e
00000200: 08ef f03b 39b3 09bc 9204 15bf 8934 b7bc
00000210: 9e52 f23e 34c5 f6bc 1c96 7b3e f0d8 093e
00000220: 2ee2 0f3e 2d37 c33d 376c 94bb 25bb d2bb
00000230: 72ae f93d 4e8d 81be 5b67 da3d 7bfb f3be
00000240: 2f78 f33e ca1a f53d a396 f33d f09b 7e3e
00000250: 5c2a ed3d 8e12 eb3d 7db5 2cbe afd9 aa3e
00000260: 132d ed3e b116 6ebe c25d e73d 89c4 9a3d
00000270: cbcd 733e 7547 8ebd 7d39 c33d 5359 72bc
00000280: fa67 cd3e 250b 8d3e b3aa 643e 0a63 ae3d
00000290: 3644 203e 899c 893e 6b1d adbd 76e2 3dbb
000002a0: c782 d3bd 22e9 6cbc a863 8ebe 2110 253f
000002b0: b138 e4be 0a19 2f3e e5f1 763e a494 61be
000002c0: d19a e03e 27e4 6abd 8295 aabd 055b 25be
000002d0: df65 9a3c 3d6c 80bd 73e6 90be 2fed 003f
000002e0: 4a0f 13be fdef 4d3d 0ce4 dfbe 0e1b 0d3e
000002f0: b24f 073d 28af a33c c181 4c3c 9a3e 09be
00000300: eebf 303e bc0b 23be 1d64 0ebd b0de 02be
00000310: 6260 d33c 3044 0cbd 2546 46be 56eb 523e
00000320: 59e3 96be be74 4a3f ec1d 06be 74d3 02bf
00000330: d70c 253f 0576 283e 5c5b 2a3e e198 1b3e
00000340: 9e60 f23a 8cb5 023e a272 013e 1279 84bd
00000350: 7271 103d d41e bbbd 45fe f43d d895 01be
00000360: 1e6c 23bd 281c 23be 1c1b 94bd c90e b2bd
00000370: cc32 bf3e 4c0d 84bf 1ff3 7abf 3f6a a83e
00000380: 448e 17be fc1f 113f aab0 9ebe 78af eabd
00000390: 5ff5 243d 8b6b 2bbd e432 cabe 9d17 03bf
000003a0: cd4f ae3e cd90 743e cd43 523e 6e89 a9bd
000003b0: cb1e 803d 76dd 3b3c 4408 863c 7ca7 ab3d
000003c0: ff4f c43c 2a11 bebe 51c6 9d3d 6b91 74be
000003d0: b227 5e3e 82bd 533e 363e 1a3e a3b3 22be
000003e0: a689 bcbd d7d1 fbb9 df4e e2be a551 c6be
000003f0: bdc2 84bf 5639 1f3f f808 3b3f c221 293f
-0.04082378 0.21781991 0.124896765 0.49586245 -0.043600734 0.0011674097 -0.0816168 0.14121668
-0.08593943 -0.051928103 0.36239064 -0.48495877 0.11566925 -0.34074497 0.68927854 0.39475438
0.36085653 -0.06256642 -0.016886806 0.04005191 -0.04629154 -0.6545355 0.19615726 -1.4896002
0.8192044 1.0582291 -0.48253557 -0.3375048 -0.1803205 -0.16125451 0.12320933 -0.09590447
-0.023438247 0.06577082 -0.066991426 -0.11956062 0.117001526 -0.072874494 -0.22999832 0.006196073
-0.45381606 -0.48889303 0.67443687 0.38065997 -0.41022524 -0.17994045 -0.114264295 -0.09462583
0.009472041 -0.029262235 0.19409823 0.3165586 -0.14778392 0.21516427 0.0980477 0.35669857
-0.17965825 -0.16208173 -0.025622783 -0.008761848 0.3267816 0.1959139 0.074719325 0.27186766
0.25093493 0.14084816 -0.3120077 -0.091478236 -0.1280968 -0.043224875 -0.26908606 -0.2291984
0.20690502 0.42904666 0.3856261 -0.06404262 -0.10305448 -0.1668158 0.041759677 0.036897957
0.37574267 1.9192683 0.7925794 -1.3855342 -0.33805493 -0.41592565 -0.182698 -0.16228129
-0.09175387 -0.03941666 0.2867621 0.01818556 0.162345 -0.26546055 0.36838028 -0.28420565
0.0964738 0.2004906 0.04587872 0.09960485 0.21323636 0.45124575 2.561784e-05 -0.4141691
0.45120585 0.32318205 0.28398925 -0.025718449 0.009137922 0.16851187 0.2951386 0.17240973
-0.56049645 0.66355586 0.80427796 0.25598997 0.10179541 0.009558666 -0.039885893 -0.06556302
-0.36533344 0.5769984 -0.17148902 -0.34276742 -0.29619098 0.040166836 0.23068915 0.26731047
0.0073527135 -0.008404546 -0.582101 -0.022363918 0.47328657 -0.03012333 0.24568981 0.13461661
0.14051124 0.09532008 -0.004529502 -0.006431001 0.12191476 -0.2530312 0.10664245 -0.47652802
0.4755263 0.11968 0.11893966 0.24864173 0.11580345 0.114781484 -0.16866107 0.33369204
0.4632345 -0.23250844 0.1129718 0.07557017 0.23808973 -0.06947223 0.095324494 -0.014791804
0.4011839 0.27547565 0.22330742 0.08514984 0.1565102 0.2687724 -0.08452877 -0.0028974093
-0.10327678 -0.01445988 -0.27810407 0.64477736 -0.44574502 0.17099395 0.24115713 -0.22029358
0.43868116 -0.05734649 -0.083292976 -0.16148002 0.018847404 -0.06270645 -0.2830082 0.50361913
-0.14361301 0.0502777 -0.43728673 0.13779852 0.033034988 0.019980982 0.012482108 -0.13402787
0.17260715 -0.15922445 -0.034763444 -0.12780261 0.025802795 -0.034244716 -0.19362696 0.20597586
-0.29470327 0.79084384 -0.13097352 -0.511039 0.6447272 0.16451271 0.16636413 0.15195037
0.0018491929 0.12764567 0.12641385 -0.06468405 0.03526444 -0.091367394 0.119625606 -0.12654817
-0.03989803 -0.1592871 -0.07231733 -0.08694226 0.37343442 -1.0316558 -0.98027223 0.3289356
-0.14800364 0.5668943 -0.3099416 -0.11459249 0.040273067 -0.041850608 -0.3949195 -0.51207906
0.34045258 0.23883362 0.20533676 -0.08278166 0.06255873 0.011466375 0.016361363 0.083815545
0.023963926 -0.3712247 0.077038415 -0.23883598 0.2169483 0.2067776 0.15062794 -0.15888838
-0.09205942 -0.00048030794 -0.442008 -0.38734165 -1.037193 0.6219686 0.7306056 0.66067135

bias f4 [40]
00000000: fa18 263e 021c 363d 12aa c7be a463 a4bc
00000010: 2c97 9a3e 39f7 a73e 1531 7dbd f908 803e
00000020: f885 bd3e bb9f 1a3e 873d 99be 31b6 7f3e
00000030: dc1d 26bd a9b9 adbe d7fb 8c3c 078e 39be
00000040: 43ac 85be c041 16be 7181 57be d5e8 56be
00000050: 4e57 a3be 9c48 923b 74d6 053e 35a2 643e
00000060: bdb0 4abd c7ed 72be 27e2 9b3d 1e62 5ebe
00000070: bf24 563d f7c7 81bf 6034 54be 3ba2 7fbe
00000080: 6c7a e33e c9ca d6be eda1 fcbe 1fc5 203f
00000090: e096 40be 4d02 5dbd aa13 6b3e 800f 17be
0.16220465 0.044460304 -0.3899694 -0.020067044 0.3019346 0.32805803 -0.061814386 0.25006846
0.37016273 0.15099995 -0.29929754 0.24971844 -0.04055582 -0.3393071 0.01720993 -0.18120585
-0.26107988 -0.14673519 -0.21045472 -0.20987256 -0.31902546 0.004464222 0.13070089 0.22327502
-0.049484957 -0.23723517 0.076114945 -0.21717116 0.052281138 -1.013915 -0.20723104 -0.2496423
0.44429338 -0.41951588 -0.4934229 0.6280078 -0.18807554 -0.053957272 0.2295672 -0.14752007

weight f4 [40, 40]
00000000: e6f8 99bc 37aa 61be c145 123f c41b 793d
00000010: 38b0 203f 91da 04be 6e95 613e 1723 a23e
00000020: 82ac 9ebf 94de 4cbd 04ad 733e 8e2f d33e
00000030: 0905 81be 73a8 63bd 1adb e4bc 05c5 edbd
00000040: f6c8 563e 813e ab3e 0729 723e 6cb3 cbbd
00000050: 7b13 c23e 88cc a9bc 256f 02bf 77eb bf3e
00000060: 7cbd 4b3e 4c46 0bbf c56d f83d 8693 8cbe
00000070: 37d7 b23e fe52 1bbe fae7 72be e3ab ed3e
00000080: b92f 293f f0a7 813e f413 4e3f 942d 563e
00000090: 00b5 ecbd e240 1bbe 61ed 5b3e 80f9 06be
000000a0: a5e3 f63d 2291 d7bc 35dd 043f 0068 8dbc
000000b0: 5fe5 2e3e 1dc9 203e 87ef e13d e3a5 243e
000000c0: b474 22bf 1406 14be d42a d03e d300 7b3e
000000d0: 3512 8fbe 0de1 f5bd 662b d0bd 1b54 cd3c
000000e0: 7348 143e f4e4 e73d e833 313e 4ac4 13be
000000f0: b110 963e adee 17be ce60 36be ddd0 783e
00000100: e766 6b3e 929c aabe 3b63 513d 70bb 9abe
00000110: 215c e73d ae08 90be 80b3 213b f371 033f
00000120: 8023 d63e 2693 003e 22fe b43e 5788 bebc
00000130: 853b 93bd 0be4 1abc dbaf 373e 3470 0fbe
00000140: 164d 2f3d 6e2a b6bc a08f b13e 6de6 2f3e
00000150: 7d72 383e 482c 723d 06bd 523e eb64 663d
00000160: 18ce 8d3e bfae af3d ba27 473d b691 60bd
00000170: 5b90 dd3d 4f24 8dbc b3a4 88bd 944e 4b3e
00000180: 9c1d 6a3c 6d0b 143d acee c53d 15de f53d
00000190: 81e8 5d3e 9644 8bbd 3d13 34be a1b6 b6bd
000001a0: 497f 713e b0c0 08be f6cc cc3d d452 65be
000001b0: 5609 863d 71d2 a8bd b1f2 0a3c 3d28 273d
000001c0: d2b0 4d3e 83af 1d3d 8050 753e 02de b7bc
000001d0: 7063 833d 7f8c 0fbc b9d7 073d b64d b83d
000001e0: 788a b3bc 265f 31bd e7f6 ea3d 9c4b 7ebd
000001f0: 2649 84bc fd33 44be 5c34 7dba e01b afbd
00000200: 32ad b5bd 53a2 4cbe 1133 ad3b df8a de3d
00000210: 2916 e7bd c33c a9bd 4f15 093e 849b 06be
00000220: 3082 77be ce84 94bd aac0 07be 733e 9f3c
00000230: 57bc e03c cfa6 783d 2f91 973d 817e e83d
00000240: 8987 823d 4859 89bc 6f8f d8bd ff4e 1abe
00000250: 1047 fabd c5e4 1ebd c641 a3bd 0e84 a0bc
00000260: 159e 10bd 2dff ff3d f76a d5bb daea 803d
00000270: f5bd 6e3d 2ebe babd 8773 1d3e 4f5d 1d3e
00000280: 616c cd3c b106 f8bd 59f2 193f 6c58 173e
00000290: 2841 dc3e 1ee2 9f3d 3c49 163e 2614 de3e
000002a0: 7b07 70bf accc 77bd 1cf9 9f3e 5b69 913e
000002b0: ed92 c1be af1a e33d b4c4 9dbd cbdd c6bd
000002c0: c2c0 283e 3ea2 503e f47b 793e 7e5b a5bd
000002d0: f369 b93e b533 d7bc bff7 b0be 6152 963e
000002e0: e40d 593d 3567 fcbe 47ae 983e 4488 23be
000002f0: a54a 393e fda8 95be a06f a5be 6a9d a73e
00000300: 39dd ec3e e333 943e 35f0 273f 7085 8a3d
00000310: bb47 443c c072 a83d 8122 533e 6444 67bd
00000320: a7ce bc3c ed22 32be 5ab9 d53e 61bd 3e3e
00000330: afb9 ca3e 0ba4 113c b4c5 293e 4b63 8d3d
00000340: d2ad 3abf 56f5 a7bc 0b48 a33e c3b4 6e3e
00000350: 1e00 98be 03fa 63bd eb47 a3bd 8d18 603d
00000360: b57e 5c3e d428 0d3e ac4a 243e 2c9c 8f3d
00000370: 8425 703e 14bd 64be f3b1 80be 7ab4 9f3e
00000380: 28b9 a53e 69a4 b9be fef6 d93d f39a 2ebe
00000390: 562f 453e 0ef0 9ebe 87ca aabd f569 143e
000003a0: 3c57 a03e a032 f93e 834c f03e 63c6 683d
000003b0: 8f24 80bd 579b 523e 1b3d b73e d8c3 d6bc
000003c0: 77ba 0cbe f12c 123e d2b9 583f 836f 883d
000003d0: 550c 38bc f08f 5bbe 0314 043e 3b2b 03be
000003e0: debe 0cbf f4cc 823e 71bf 623e 70d2 303e
000003f0: b1da c9bd 8493 f9be 68ec 083f ce9c e2bd
-0.018795442 -0.22037588 0.57137686 0.060817495 0.6276889 -0.12974001 0.22029659 0.31667396
-1.2396395 -0.050016955 0.23796469 0.4124722 -0.25199154 -0.055580568 -0.027936507 -0.11609844
0.20975098 0.33446124 0.23648463 -0.099463314 0.37905487 -0.02072741 -0.50950843 0.37484333
0.19896501 -0.5440414 0.12130312 -0.274563 0.3492982 -0.15168378 -0.23721305 0.46420202
0.66088444 0.2532344 0.80499196 0.20915824 -0.115579605 -0.1516147 0.21477272 -0.13181114
0.120551385 -0.026314322 0.51900035 -0.017261505 0.17079686 0.15701719 0.11032014 0.16078906
-0.63459325 -0.14455444 0.40657675 0.24512033 -0.27943578 -0.12005816 -0.101645276 0.025064519
0.14480762 0.11322966 0.17304957 -0.14430347 0.2930961 -0.14837141 -0.17810366 0.24298425
0.22988473 -0.3332258 0.051120024 -0.30221128 0.11296869 -0.28131622 0.002467364 0.5134575
0.4182396 0.12556133 0.35350138 -0.023258371 -0.07189087 -0.009453784 0.17938177 -0.14007646
0.042798124 -0.022237029 0.3467989 0.17177744 0.18012424 0.05912426 0.20579919 0.056248587
0.276963 0.08578252 0.04862187 -0.05482646 0.10818549 -0.017229227 -0.06672039 0.19854194
0.014289286 0.03614371 0.09664664 0.120052494 0.21670724 -0.06800191 -0.17585464 -0.089215524
0.23583712 -0.13354754 0.10000031 -0.22394878 0.065447494 -0.082432635 0.008480714 0.04080986
0.20086983 0.03849746 0.2395649 -0.022444729 0.064154506 -0.008761524 0.033164714 0.08999197
-0.021916613 -0.04330363 0.11472874 -0.062083825 -0.016148161 -0.19160457 -0.0009658986 -0.085502386
-0.08870925 -0.19983797 0.0052856286 0.10866331 -0.112835236 -0.082635425 0.13387035 -0.13145262
-0.24170756 -0.07251893 -0.1325709 0.019438958 0.027433557 0.060705956 0.074007384 0.11352254
0.063735075 -0.016766205 -0.10574233 -0.15069197 -0.12220585 -0.03879239 -0.0797153 -0.019594219
-0.03530701 0.12499843 -0.0065129953 0.062947944 0.058286626 -0.09118305 0.15376101 0.15367626
0.025076093 -0.12110651 0.6013542 0.14779824 0.4301846 0.078068 0.14676374 0.43374747
-0.93761414 -0.060497925 0.31244743 0.28400692 -0.37807408 0.11089074 -0.07703534 -0.097102724
0.16479781 0.2037439 0.2436369 -0.080740914 0.36213645 -0.026269773 -0.34564015 0.29359725
0.052991763 -0.4929749 0.29820463 -0.1596995 0.18094881 -0.2923049 -0.32311726 0.32737285
0.4626253 0.28945836 0.656009 0.067637324 0.0119799925 0.08225012 0.20618631 -0.056461707
0.023047758 -0.17396136 0.41742975 0.1862693 0.3959479 0.008889209 0.16579324 0.06903704
-0.7292148 -0.020502727 0.31890902 0.23311143 -0.2968759 -0.05565835 -0.07972702 0.054710913
0.2153271 0.13785106 0.1604411 0.07012209 0.23451811 -0.22337753 -0.25135764 0.3119238
0.32367826 -0.36258247 0.10642813 -0.17051296 0.19256338 -0.31042522 -0.0833941 0.14493544
0.31316555 0.48671436 0.46933374 0.05682982 -0.06256973 0.2056707 0.35788807 -0.026216432
-0.13743006 0.14274956 0.8465854 0.06661894 -0.011233409 -0.21441627 0.12898259 -0.1280946
-0.5497874 0.25546992 0.22143342 0.17267776 -0.09856165 -0.48745358 0.5348573 -0.11065064

bias f4 [40]
00000000: 1c47 a83e 84e3 8f3e 6dc9 553e 45c8 8ebd
00000010: ab8b 363e eb24 143e c7fd 73be f280 8a3b
00000020: 516b f13d 2895 5d3e e0d5 093e 210a efbd
00000030: 8528 f6bd a193 17be 49d9 c2bd 9683 cbbd
00000040: bdac 47be 61f9 0a3e 7d92 c83e 48b8 bebd
00000050: d948 cabd 603f 90be 5566 883e 84a2 5dbe
00000060: d061 c43d cf13 36bd c4ef bebb fb19 57bd
00000070: d81d ff3d cf08 06bd 665b d2bd 5aac c63c
00000080: 8f70 00be cbd5 e3bd 0be6 0b3e 22c1 a03d
00000090: f2fe d0bc f21e 283e e0de ffbd 430d 05be
0.32866752 0.28103268 0.20877619 -0.06971792 0.17826717 0.14467208 -0.23827277 0.0042267973
0.11788047 0.2163893 0.13460493 -0.11671854 -0.12019447 -0.1480241 -0.095141 -0.099372074
-0.19499488 0.13571693 0.39174262 -0.093124926 -0.09877176 -0.2817335 0.26640573 -0.21644026
0.09588969 -0.044452485 -0.005826922 -0.05251501 0.12456864 -0.032723244 -0.10271339 0.024252106
-0.12542938 -0.11124762 0.13661973 0.07849337 -0.025512192 0.16418055 -0.12493682 -0.1299334

weight f4 [1, 40]
00000000: c03d 16c0 649b b9bf e3d1 26bf d7a5 14bd
00000010: a43f f6bf 044e c4bf 7506 f4bf 67f9 4bbe
00000020: 7ec4 c6bf 2647 c03f 4da9 aebe 9da6 073f
00000030: c3e7 123d df03 15be ab11 8a3f b616 dcbe
00000040: 5aaf 14c0 223b 5bbf 8fda 2d40 6c28 623e
00000050: da8c 86bd a626 cfbe 5b01 53bf 31cf f83d
00000060: b8ad 95bf 439c e6bd d57b 24bf a5b1 423c
00000070: 9780 333e 0abf 78be e3f2 493e 4981 e3bf
00000080: c27e ce3d d996 a73d 7205 e53d b44e 41bf
00000090: ed88 bbbe c64a 1bbf e5ec bb3c f5c0 adbf
-2.347519 -1.4500546 -0.6516401 -0.03629097 -1.9238172 -1.5336308 -1.906447 -0.19919358
-1.5528715 1.5021713 -0.3411354 0.52988607 0.035865556 -0.14552258 1.0786642 -0.42986077
-2.3232026 -0.85637105 2.7164648 0.22085732 -0.06569834 -0.40459174 -0.82423943 0.121488936
-1.169364 -0.11260273 -0.6425145 0.011883174 0.17529522 -0.24291626 0.1972156 -1.777383
0.10082771 0.08183069 0.11182679 -0.75510716 -0.36627904 -0.6066097 0.022940109 -1.3574511
