learning/model_10_input/model_1.pth (torch, 11611 bytes, 5 tensors)

weight f4 [40, 10]
-0.12919365 -0.1776002 0.22181916 -0.2905629 0.083926156 -0.06151772 0.0020428963 -0.115298375
0.12768626 0.13560612 0.24066247 -0.041991487 -0.044901226 -0.17126341 -0.26340562 0.27265227
-0.031723946 0.044098966 0.031396322 -0.14818864 0.1758909 -0.122344516 -0.68990475 0.5555873
0.36843234 0.22593392 0.018486178 0.098837815 0.01615936 -0.022738509 -0.28002778 -0.043422848
-0.19961163 -0.04505683 -0.30718032 0.08942716 -0.070854306 0.15803762 -0.2445347 -0.03875035
-0.02802376 -0.31522444 0.15571782 -0.3167092 0.26216432 -0.23206137 0.23227656 0.122230515
0.08524066 0.2097785 0.5630355 0.6172294 0.7882338 -0.9800757 -0.95244616 -0.5198625
-0.28649586 -0.14327446 -0.16267243 0.006156914 -0.20426607 -0.025552312 0.022037672 -0.1562732
-0.014504259 -0.29844427 -0.2768536 0.27377477 0.014601268 -0.30797124 0.20711082 -0.08972839
0.23250106 0.45953694 0.27523378 0.28004363 -0.23956619 -0.2720482 -0.32921138 0.23362142
0.30399352 -0.01655371 0.10219713 -0.062300872 -0.04633247 -0.31656852 0.22864555 -0.19230063
0.022710336 -0.00014343507 0.03792605 0.08905157 -0.12822968 0.27119988 0.020905904 -0.18633409
0.043817796 -0.25548047 0.05250458 -0.2294209 0.034684923 0.08803822 -0.058706816 -0.29663548
-0.21054474 -0.26996034 -0.2266999 -0.19099508 0.24665794 -0.2758663 -0.40677363 -0.27898952
0.26582566 -0.08219674 -0.40293157 -0.2839489 -0.10299246 -0.122844376 -0.11006227 0.04271932
0.3502183 -0.025626723 -0.6628958 0.21405578 -0.024077648 -0.022119923 -0.21270747 0.021712657
-0.01811853 0.06922181 0.18447138 0.16440085 -0.26123336 -0.049874112 -0.20484298 -0.08576478
0.2887063 -0.27271482 -0.027930092 -0.0034503436 -0.36214262 0.10485788 -0.035971932 0.25109562
0.009964459 0.04246823 -0.10141414 0.30033973 -0.19548939 0.13082239 0.8316596 0.24816386
0.21892896 -0.11373716 -0.32992858 0.021838088 0.00793466 -0.029268388 0.11788679 -0.20687154
0.001894739 -0.23891202 -0.23407875 -0.17707612 -0.06866212 -0.13522002 -0.3117905 -0.14329153
-0.1726839 0.23105294 0.8559703 -1.1013987 -0.32195896 0.28473744 0.5675931 0.21683249
0.28981745 0.15984082 0.05866056 -0.09142606 0.40122262 -0.06280279 -0.09240866 0.6035804
-0.39064163 -0.3123399 0.006569819 -0.14961539 -0.022725029 0.05710157 0.3444513 -0.62441766
0.23908219 0.51261544 0.10679894 0.07959579 0.06160487 0.2827 0.120952986 0.17576478
0.26612616 -0.3497494 -0.7202934 0.0021105185 0.1228986 -0.37033767 -0.456376 -0.037435256
0.11165043 -0.012095063 -0.35224193 -1.1674966 -0.2167314 -0.47389784 -0.5133142 -0.30207118
-0.047660727 -0.0236689 -0.012222855 -0.011912767 0.5793003 -0.8633062 0.46697778 0.79601353
-0.20441376 -0.01572843 -0.14906749 0.036718354 -0.066938594 -0.0058433623 0.63298357 -0.7333305
-1.395712 0.74092835 0.33401087 0.35639814 0.16511787 0.05875664 0.030314943 -0.017516302
-0.2574205 0.0933856 0.21677287 0.22356945 0.5246637 -0.2700424 -0.21553871 -0.12372756
-0.24269785 0.027597284 -0.13535357 -0.4013151 -0.19574668 -0.18857671 0.058076337 -0.3243131
00000000: 574b 04be d4dc 35be 9024 633e a9c4 94be
00000010: 7ae1 ab3d 01fa 7bbd 1de2 053b 8e21 ecbd
00000020: 30c0 023e 55dc 0a3e 3970 763e 44ff 2bbd
00000030: 59ea 37bd ad5f 2fbe 1add 86be 1499 8b3e
00000040: f8f0 01bd 1ea1 343d 6e99 003d c3be 17be
00000050: be1c 343e c38f fabd 999d 30bf f83a 0e3f
00000060: 2aa3 bc3e 395b 673e 5370 973c 7b6b ca3d
00000070: a260 843c 1c46 babc cd5f 8fbe 28dc 31bd
00000080: fe66 4cbe 838d 38bd bd46 9dbe 9625 b73d
00000090: 101c 91bd 9dd4 213e 4e67 7abe b0b8 1ebd
000000a0: 1692 e5bc 1965 a1be 7e74 1f3e b527 a2be
000000b0: 673a 863e 7fa1 6dbe e8d9 6d3e fe53 fa3d
000000c0: a892 ae3d 2dd0 563e 1823 103f bf02 1e3f
000000d0: b1c9 493f 3ee6 7abf 83d3 73bf b515 05bf
000000e0: 96af 92be 8ab6 12be 9a93 26be f0bf c93b
000000f0: 202b 51be 1553 d1bc 5988 b43c 1506 20be
00000100: 46a3 6dbc b0cd 98be c1bf 8dbe 352c 8c3e
00000110: 283a 6f3c 68ae 9dbe dc14 543e 85c3 b7bd
00000120: c214 6e3e 6d48 eb3e 71eb 8c3e e161 8f3e
00000130: d750 75be e749 8bbe 658e a8be 743a 6f3e
00000140: 0aa5 9b3e a59b 87bc bb4c d13d 332f 7fbd
00000150: 1ec7 3dbd 4515 a2be 0f22 6a3e 75ea 44be
00000160: 070b ba3c 0f67 16b9 5958 1b3d ab60 b63d
00000170: a44e 03be b6da 8a3e dc42 ab3c 5dce 3ebe
00000180: 4a7a 333d 56ce 82be 0b0f 573d 50ed 6abe
00000190: c711 0e3d 624d b43d 8f76 70bd 9be0 97be
000001a0: 0a99 57be 3e38 8abe 0524 68be 3794 43be
000001b0: e693 7c3e 593e 8dbe a244 d0be b7d7 8ebe
000001c0: 4d1a 883e c456 a8bd 0c4d cebe c061 91be
000001d0: b6ed d2bd d595 fbbd 5468 e1bd 74fa 2e3d
000001e0: d04f b33e 22ef d1bc 8ab3 29bf 7031 5b3e
000001f0: 7d3e c5bc d734 b5bc fdcf 59be bede b13c
00000200: 506d 94bc 2ac4 8d3d 11e6 3c3e b258 283e
00000210: 61c0 85be cc48 4cbd 5cc2 51be 72a5 afbd
00000220: 50d1 933e 47a1 8bbe a6cd e4bc 291f 62bb
00000230: c26a b9be babf d63d 4e57 13bd 9b8f 803e
00000240: f841 233c 2bf3 2d3d 37b2 cfbd 21c6 993e
00000250: 5f2e 48be 4ef6 053e a5e7 543f ab1e 7e3e
00000260: ea2e 603e 07ef e8bd 66ec a8be cae5 b23c
00000270: 6000 023c 42c4 efbc a16e f13d 22d6 53be
00000280: e458 f83a 5aa5 74be 57b2 6fbe 7153 35be
00000290: ba9e 8cbd 1e77 0abe 01a3 9fbe 04bb 12be
000002a0: 0cd4 30be 2499 6c3e df20 5b3f a2fa 8cbf
000002b0: ced7 a4be 1bc9 913e c84d 113f 5609 5e3e
000002c0: f462 943e 50ad 233e 0e46 703d 963d bbbd
000002d0: 0d6d cd3e c09e 80bd c040 bdbd 3f84 1a3f
000002e0: 2e02 c8be 04eb 9fbe a347 d73b c734 19be
000002f0: d729 babc 56e3 693d ec5b b03e d6d9 1fbf
00000300: f6d1 743e c43a 033f 67b9 da3d 1e03 a33d
00000310: 6355 7c3d 0ebe 903e 33b6 f73d affb 333e
00000320: b041 883e 5a12 b3be 2665 38bf a050 0a3b
00000330: 43b2 fb3d e69c bdbe 1daa e9be b655 19bd
00000340: fba8 e43d 5f2a 46bc 0e59 b4be 8770 95bf
00000350: d6ee 5dbe bda2 f2be 8f68 03bf 13a9 9abe
00000360: e537 43bd 48e5 c1bc 5f42 48bc c42d 43bc
00000370: 064d 143f a301 5dbf b617 ef3e 8bc7 4b3f
00000380: d751 51be e9d8 80bc 26a5 18be fc65 163d
00000390: 1a17 89bd ad79 bfbb 360b 223f 8cbb 3bbf
000003a0: b1a6 b2bf 7bad 3d3f 7903 ab3e d179 b63e
000003b0: a914 293e cdaa 703d 0b57 f83c 597e 8fbc
000003c0: 9fcc 83be f340 bf3d b5f9 5d3e 64ef 643e
000003d0: 5c50 063f ff42 8abe 2eb6 5cbe e064 fdbd
000003e0: c985 78be b313 e23c 209a 0abe 2c79 cdbe
000003f0: d171 48be 411a 41be 74e1 6d3d 5e0c a6be

bias f4 [40]
0.13227916 -0.09055163 -0.39819592 0.040599555 -0.15010387 -0.14079921 -0.24185352 0.0026779585
-0.15115245 -0.2040218 0.090853974 0.3135553 0.31229705 -0.15317036 0.22628924 0.07924884
-0.03614825 0.093307905 0.11213503 0.38596752 0.48472333 1.7228901 -0.08351875 0.04093349
0.21445109 0.060485907 -0.09046442 0.31543016 0.09956058 0.4644256 0.25497112 -0.25927812
0.9153077 -0.015532755 0.17686655 -0.070028864 -0.045559812 0.063164674 -0.0149705345 0.15131819
00000000: 3074 073e 2273 b9bd 56e0 cbbe b84b 263d
00000010: d4b4 19be ab2d 10be 73a8 77be b080 2f3b
00000020: b5c7 1abe 17eb 50be a611 ba3d 528a a03e
00000030: 66e5 9f3e b1d8 1cbe 5eb8 673e 374d a23d
00000040: 3010 14bd 3718 bf3d 0da7 e53d 899d c53e
00000050: a82d f83e aa87 dc3f e10b abbd e0a9 273d
00000060: 1199 5b3e 12c0 773d 6945 b9bd 1080 a13e
00000070: 6be6 cb3d 31c9 ed3e 938b 823e 1ac0 84be
00000080: 9b51 6a3f 197d 7ebc 811c 353e 4b6b 8fbd
00000090: ed9c 3abd 7b5c 813d f946 75bc 28f3 1a3e

weight f4 [40, 40]
0.05790606 0.004510981 -0.16246149 -0.07547927 0.015724119 -0.29159236 0.05753782 0.009759757
0.03368386 -0.011589574 -0.055176374 -0.1648658 0.10055672 -0.040314987 -0.079307236 -0.15625204
-0.005974646 -0.02370979 -0.13268633 -0.276687 0.08930608 -0.016204953 0.08210936 -0.0073938984
-0.101329684 -0.0043673133 -0.0055710548 0.26094306 -0.06047622 0.17390028 0.09410359 0.13320272
0.035568785 0.11179204 -0.21274392 -0.061276555 -0.15837926 0.25505134 0.10226366 -0.07176304
0.00078212 0.15877402 0.11693242 0.074636444 0.05076276 0.40557566 -0.12750997 -0.11240779
-0.119383946 0.10720567 -0.0076280404 -0.07278556 0.045750048 -0.027448641 -0.016892573 0.17928305
-0.097844 -0.055791654 -0.07874471 0.14596528 -0.081587546 0.3746135 -0.3303859 0.15626372
0.0503171 0.03549877 -0.19720122 -0.007096656 0.039662138 -0.25497243 0.09508456 -0.088357046
-0.109183855 0.19667777 0.0068870485 0.07073749 0.016858751 0.19555233 0.09261224 -0.0020619174
0.08182114 0.020915441 0.052680876 0.07932905 0.15432808 -0.24045688 -0.14760768 0.16431564
0.13975145 -0.12283808 -0.07573157 -0.029794326 0.10324924 0.086606346 -0.11927557 0.0014000643
-0.04711329 0.31647637 0.042887222 0.11674367 0.068075895 -0.22617473 0.15375808 -0.086171985
0.09976849 0.07186622 0.17095836 0.02078091 -0.1423368 -0.10721139 0.016174302 0.11255909
0.17194296 -0.031138016 0.062483523 -0.18689102 -0.03225451 0.09171419 0.03168304 -0.11327325
-0.004285082 -0.028566413 -0.10757285 -0.120507345 -0.047621414 -0.20545273 -0.034017004 0.16913037
-0.14084229 -0.11553177 0.09780734 0.009754076 -0.030539952 -0.077113084 -0.03893162 0.02395644
-0.10590002 0.20742044 0.12576854 0.16373843 -0.12994738 0.051276594 0.11441527 -0.09750032
-0.0721574 0.0024956728 0.03093573 -0.17993748 -0.006675945 -0.1171415 0.043902043 -0.14082092
0.15370934 0.044600677 0.06547776 0.05027183 0.07214018 -0.037767187 -0.058497276 0.06422404
-0.04048687 0.028647292 -0.18052693 -0.11044867 -0.07190776 -0.33013034 -0.11589245 0.1023689
0.12234289 -0.030912915 -0.04585659 0.07478604 0.21548468 0.033573635 -0.06670091 0.01982461
0.09142584 0.3812412 0.018162027 0.04217851 -0.17087315 -0.37106684 0.19360203 -0.19560088
-0.23117658 -0.05299502 0.1149371 0.21831574 0.14890519 0.122549035 0.030764014 -0.08094248
0.14762089 0.11989192 -0.11274554 -0.14149919 0.1356607 -0.090059735 0.115161456 0.25962928
-0.10666776 -0.08056218 -0.08440487 0.07425234 0.14371975 -0.2967771 0.11551572 -0.14521684
-0.14499322 -0.05178037 -0.02828058 -0.0331564 -0.0019566887 0.1489683 0.115988284 -0.11709401
-0.12693653 0.0025953555 0.1672458 -0.34868068 0.1721319 -0.030982094 -0.071662046 -0.08526059
-0.010176773 0.122616895 -0.2971515 0.28387487 0.13122559 0.39912197 0.3003291 0.12465042
0.13803062 -0.11468937 -0.28094232 -0.14855401 -0.15855914 0.15246707 -0.078852765 -0.06389372
-0.05037854 -0.08724841 -0.103621654 -0.093589656 0.08847437 0.06554336 0.04121328 -0.13721755
0.0707939 -0.010419288 -0.13025963 -0.030614074 -0.13229656 0.08402428 -0.1447721 -0.039134327
00000000: e82e 6d3d dad0 933b 4e5c 26be e094 9abd
00000010: decf 803c 984b 95be c7ac 6b3d 63e7 1f3c
00000020: 16f8 093d 32e2 3dbc 9f00 62bd 95d2 28be
00000030: aef0 cd3d 5421 25bd d56b a2bd 8900 20be
00000040: f7c6 c3bb 093b c2bc edde 07be eba9 8dbe
00000050: 1be6 b63d 40c0 84bc f428 a83d 8448 f2bb
00000060: f085 cfbd ae1b 8fbb 658d b6bb 549a 853e
00000070: eab5 77bd ea12 323e 62b9 c03d 4b66 083e
00000080: 93b0 113d 3af3 e43d 8bd9 59be 20fd 7abd
00000090: 2c2e 22be 1796 823e 9c6f d13d 80f8 92bd
000000a0: 2f07 4d3a a895 223e 447a ef3d feda 983d
000000b0: 9dec 4f3d 9da7 cf3e f991 02be 0e36 e6bd
000000c0: 927f f4bd a58e db3d a4f4 f9bb 9810 95bd
000000d0: 6764 3b3d f9db e0bc 4b62 8abc fa95 373e
000000e0: 6f62 c8bd ca85 64bd e844 a1bd ec77 153e
000000f0: 5f17 a7bd 57cd bf3e 5728 a9be 9903 203e
00000100: 4e19 4e3d 2967 113d 1eef 49be 118b e8bb
00000110: c474 223d bf8b 82be b2bb c23d 8af4 b4bd
00000120: c99b dfbd e665 493e c0ac e13b d1de 903d
00000130: 5d1b 8a3c df3e 483e 7cab bd3d 3c21 07bb
00000140: d891 a73d dc56 ab3c e7c7 573d 4577 a23d
00000150: 2e08 1e3e 543a 76be 7826 17be 5c42 283e
00000160: 011b 0f3e 8892 fbbd 2719 9bbd 3b13 f4bc
00000170: 5674 d33d ab5e b13d c046 f4bd 5d82 b73a
00000180: ddf9 40bd 3109 a23e 83aa 2f3d 4e17 ef3d
00000190: 606b 8b3d 599a 67be c272 1d3e f07a b0bd
000001a0: 6c53 cc3d 992e 933d b50f 2f3e ba3c aa3c
000001b0: bdc0 11be a591 dbbd f87f 843c 6185 e63d
000001c0: d111 303e 2715 ffbc b9ee 7f3d 5c60 3fbe
000001d0: 4e1d 04bd a6d4 bb3d 13c6 013d cefb e7bd
000001e0: e069 8cbb 1c04 eabc 284f dcbd 8ecc f6bd
000001f0: ac0e 43bd 3362 52be 6a55 0bbd 8330 2d3e
00000200: f638 10be ec9b ecbd 374f c83d 8fcf 1f3c
00000210: ec2e fabc 77ed 9dbd c376 1fbd 4c40 c43c
00000220: 1ce2 d8bd 0666 543e 78c9 003e 0cab 273e
00000230: ed10 05be 6807 523d 8e52 ea3d 3fae c7bd
00000240: 42c7 93bd 718e 233b ee6c fd3c 8841 38be
00000250: e3c1 dabb e2e7 efbd a1d2 333d 5c33 10be
00000260: fb65 1d3e 33af 363d 3419 863d d6e9 4d3d
00000270: 3bbe 933d c4b1 1abd d79a 6fbd e587 833d
00000280: 8fd5 25bd baad ea3c 0ddc 38be ea32 e2bd
00000290: 6044 93bd d806 a9be 0559 edbd c9a6 d13d
000002a0: e98e fa3d 153d fdbc 1fd4 3bbd 6c29 993d
000002b0: 04a8 5c3e 8284 093d 7d9a 88bd 3867 a23c
000002c0: 793d bb3d 0c32 c33e 88c8 943c 60c3 2c3d
000002d0: 5ff9 2ebe 79fc bdbe 9c3f 463e 994b 48be
000002e0: 8eb9 6cbe 4e11 59bd 2464 eb3d 298e 5f3e
000002f0: 9a7a 183e fdfa fa3d d004 fc3c 2cc5 a5bd
00000300: ee29 173e e589 f53d 22e7 e6bd 2ae5 10be
00000310: a3ea 0a3e 3d71 b8bd c5d9 eb3d 21ee 843e
00000320: a074 dabd c9fd a4bd 76dc acbd 9c11 983d
00000330: 452b 133e 2bf3 97be 8193 ec3d b9b3 14be
00000340: 1a79 14be a717 54bd adac e7bc 01cf 07bd
00000350: ca3b 00bb 258b 183e 448b ed3d fcce efbd
00000360: a6fb 01be d716 2a3b 7c42 2b3e 4686 b2be
00000370: 5843 303e 29ce fdbc 8dc3 92bd 1b9d aebd
00000380: 7bbc 26bc 911e fb3d 3e24 98be 0c58 913e
00000390: 0060 063e b759 cc3e bcc4 993e b848 ff3d
000003a0: e657 0d3e 43e2 eabd acd7 8fbe 8b1e 18be
000003b0: 545d 22be 5420 1c3e 8f7d a1bd b6da 82bd
000003c0: ba59 4ebd 4baf b2bd 9737 d4bd efab bfbd
000003d0: 0d32 b53d 993b 863d 42cf 283d c282 0cbe
000003e0: 64fc 903d a9b5 2abc c862 05be 5eca fabc
000003f0: c078 07be ec14 ac3d 233f 14be 514b 20bd

bias f4 [40]
0.07041734 0.07931601 -0.055993397 0.040429022 0.18114057 0.03936113 -0.03591178 -0.03196635
-0.087327905 0.17536308 0.13334876 0.07109335 -0.04984236 0.08329224 -0.039587375 -0.015036992
0.07741024 -0.047944225 -0.13299124 -0.021307092 -0.083493836 -0.06680354 -0.09944528 0.13564661
-0.0036534334 -0.0964637 0.010454059 0.6610274 -0.07027226 0.04205351 0.4785907 -0.14034778
0.06152618 0.12375251 -0.09444348 0.040157408 0.35409945 -0.08280807 0.00025628257 0.28237984
00000000: f736 903d 6f70 a23d 5559 65bd e798 253d
00000010: ea7c 393e 2339 213d 3b18 13bd 26ef 02bd
00000020: f9d8 b2bd 6192 333e 948c 083e 6499 913d
00000030: 8127 4cbd 1f95 aa3d 5f26 22bd b75d 76bc
00000040: 4389 9e3d 2a61 44bd db2e 08be 368c aebc
00000050: d1fe aabd 4bd0 88bd f8a9 cbbd f2e6 0a3e
00000060: 716e 6fbb c38e c5bd 8047 2b3c 1739 293f
00000070: e7ea 8fbd 4d40 2c3d d709 f53e 54b7 0fbe
00000080: e002 7c3d f571 fd3d 956b c1bd 187c 243d
00000090: 864c b53e 4797 a9bd aa5d 8639 1794 903e

weight f4 [1, 40]
0.56691724 -0.71316445 0.4512729 0.32740518 0.81852245 0.88168895 0.010284552 -0.33184224
0.11712462 -1.1965001 -0.86240804 1.4540687 0.3649224 0.41949627 0.31061146 0.0019838475
1.7611572 -0.055995345 0.08178195 -0.5353139 0.1422604 -0.40630502 -0.14267474 0.29650658
-0.98857975 1.1152376 0.040210128 -2.0007732 0.057313234 0.87272507 -1.9592371 0.10317986
0.019562572 1.9421265 -0.07148256 0.13375105 -1.5493411 -0.06221333 0.0054348046 -1.2964771
00000000: 7d21 113f f291 36bf 3e0d e73e a7a1 a73e
00000010: b08a 513f 5eb6 613f 8a80 283c 3ae7 a9be
00000020: 08df ef3d ea26 99bf c6c6 5cbf ec1e ba3f
00000030: 1cd7 ba3e 37c8 d63e 7708 9f3e 7003 023b
00000040: 996d e13f 605b 65bd 4c7d a73d 550a 09bf
00000050: b6ac 113e 3607 d0be 5419 12be b6cf 973e
00000060: 9013 7dbf 1bc0 8e3f 60b3 243d ab0c 00c0
00000070: 48c1 6a3d e96a 5f3f 48c8 fabf f64f d33d
00000080: b041 a03c 9a97 f83f 7365 92bd 09f6 083e
00000090: cf50 c6bf 68d3 7ebd 7216 b23b f6f2 a5bf
