learning/model_10_input/model_4.pth (torch, 11611 bytes, 5 tensors)

weight f4 [40, 10]
00000000: ed21 70be d34c 983d 45a0 513e fddc 8c3e
00000010: ec29 e43d f692 413e c5ec 46bc 50af 60be
00000020: 3392 42bd 2196 193d 05c8 5e3e ad2f cfbd
00000030: 24b0 2dbd 33af 9bbc bcf3 9cbd 4f7c c0bd
00000040: 268a 0a3e 5734 803e 9cb0 3d3e c0e4 8abe
00000050: 7980 0bbe cb8d 80be ee96 93be 84f9 80be
00000060: c8b1 5dbd e09e d6bd 7c17 8ebd a03d 40bd
00000070: 606a 3dbc 2a9a 573e fa41 f5bd e468 83be
00000080: 1852 0bbd 9d98 94be c261 44bd 501a 793c
00000090: a2ab 44be a925 983e 9838 6d3e 417b 2a3e
000000a0: 0af5 33be 75c9 c9bd 402c 5cbe 2ec6 49be
000000b0: 967b 713e 4f05 8bbc 1a62 9ebe cf66 09be
000000c0: ff31 153e ac97 043e 8f67 9abe 1f38 5ebb
000000d0: f991 31be 8b16 a1bd 5470 0e3e 7a8f 3fbe
000000e0: e630 913e 3fdb bf3d caa5 a1be 1d6b 183e
000000f0: 3398 3f3d 1f55 f53d 9346 53bd 1cc6 493d
00000100: 6ccd 283e ee1b 15be 8936 91be 2b08 2ebe
00000110: 25cb 7ebe 8879 2dbe f29b 063b c9cf 9abe
00000120: a835 313e 633b 643e 9f2c 3a3e 0c18 2e3e
00000130: e857 093e 8428 523e 2ccf 823e 195f 4abe
00000140: a890 033d 2760 7a3e 7c24 9ebd e346 b4bc
00000150: 7577 11be 1ade 0d3e 66d5 6dbe d7df 833e
00000160: 3ed0 9b3d 2e94 143e 4949 643d df50 84bd
00000170: 2b04 9e3d d66c 94be 05ea 0cbe ad8d b03c
00000180: 94d5 49be 6983 9c3d eda7 78be cfb5 1fbe
00000190: 09ac 40be 87a3 993d e2f5 64bd a850 463e
000001a0: 692a 04be 3b3b 8ebd 9cb2 02be b3bc 133e
000001b0: 5a7f 21be 1da1 4d3e 6535 0c3e 35e4 073e
000001c0: 90cd 703e 6339 26bd 6ad0 73bd 9f9c 5cbe
000001d0: e050 85be f1c8 7abe d1f2 b3bd dce2 973d
000001e0: de13 13be 153a 86be 50e5 7d3e 28ae 78be
000001f0: 3609 54be fa19 05be 3bdd b13d 6d4b 513e
00000200: 3f03 4bbe 97dd 69be fcb4 563e 26ce 303d
00000210: 7b93 993e 738a 82be 54a4 603e 677e 56be
00000220: e710 8d3e 9fb6 f6bd 2f25 a33d 2013 11bd
00000230: 19cd 7abe 2742 ec3d b3dd 3a3e 10fa 98be
00000240: 6bf0 963e 3b50 2abe 7c12 53be 098f 7b3d
00000250: ce21 b3bc 9f3d b73d b539 b03d 4d1b 013b
00000260: 8798 f3bc 934f 96bd eb52 3e3e f1b4 1b3e
00000270: 7f04 3cbe 0afe 0ebe b081 28be 2b19 9e3e
00000280: 35f7 993e edaf 0ebd d773 71bd d75b 9d3b
00000290: dcbc 3f3e b3bc b03d f9dd 6ebe b77f 523d
000002a0: fa74 c9bd 6c95 4bbe bbb6 f2bd 1799 8b3e
000002b0: b8ca 943e c4fb 9c3e 1fc8 48be 9917 143e
000002c0: 206d 25bd fa64 1c3c 69f8 7fbe 9c02 613e
000002d0: 1c8a 8b3e 7319 56be 6565 d93d 722c ed3a
000002e0: e33d fbbd ffc8 9dbe f371 9f3d 4989 99be
000002f0: 4058 fc3d f34d 61be eec9 753e 5362 0b3e
00000300: 4e8a 363d 6635 cc3d 97e1 99be dfcf 5fbe
00000310: e7cc 89be 87d6 4abd a784 74be de48 93be
00000320: bc58 06be b82c 6fbe 688c 7e3e 1144 ef3c
00000330: d3f0 333e 9011 aebd 1c33 66bd ebb5 bdbc
00000340: 5565 923e 986e 81be 8c95 96be 0a09 2b3e
00000350: 75b3 39bd d40a fdbd 5142 9fbd c72e 8cbe
00000360: 2df0 76bd 680c 2fbd a7a8 943e 5a8e 25be
00000370: e49d c73d 4c44 013e 62c5 0f3e db6b 9a3e
00000380: 62e4 8ebd f9f8 8eb9 2d55 23be 26e1 49be
00000390: 72c1 03bb 386f 35be 903a fcbc 2806 2ebe
000003a0: e085 26bd 24f5 063e f168 7fbe 3840 5abe
000003b0: 5c02 59be c8ac 26be 4041 01bc 600e ebbc
000003c0: 8698 693e 1358 863d 00cd 5dbe 0841 6cbd
000003d0: 1c0d 1f3d 48b4 673e 8b92 7bbe 54ea 90bd
000003e0: 02fd d43d de93 4a3e e338 52be e839 9dbe
000003f0: a07a 8fbe 4d50 833e 1d3b 5cbe 3d68 733e
-0.23450442 0.07436528 0.20471294 0.2751235 0.111408085 0.18903717 -0.012141411 -0.21941876
-0.047502708 0.03749669 0.21755989 -0.10116515 -0.04240431 -0.01900444 -0.07663676 -0.0939871
0.13529262 0.25039932 0.18524402 -0.27127647 -0.13623227 -0.2510818 -0.28826088 -0.25190365
-0.054124624 -0.10479522 -0.06938073 -0.04693377 -0.011561006 0.21054903 -0.11975475 -0.25665963
-0.034013838 -0.29022685 -0.04794479 0.015204027 -0.19206098 0.29716232 0.2316612 0.1664858
-0.17573944 -0.09852878 -0.21501255 -0.19704506 0.235823 -0.016970305 -0.3093422 -0.13418125
0.14569853 0.12948483 -0.30157134 -0.0033907962 -0.1734084 -0.07865628 0.13910037 -0.18707076
0.2835762 0.0936799 -0.315718 0.1488461 0.046776008 0.11979126 -0.051580977 0.049261197
0.16484612 -0.14561436 -0.2836192 -0.16995303 -0.24882181 -0.16940892 0.0020539728 -0.30236652
0.17305624 0.22288279 0.18181084 0.1700136 0.1341244 0.20523268 0.25548685 -0.1976284
0.032120377 0.24450742 -0.077218026 -0.022006458 -0.14205725 0.13854256 -0.23225936 0.25756714
0.076080784 0.14509651 0.055733953 -0.064607374 0.07715639 -0.28989285 -0.13761146 0.021551931
-0.1971038 0.07642252 -0.24282809 -0.15596698 -0.18815626 0.075018935 -0.055898555 0.19366705
-0.12906803 -0.06944891 -0.12763447 0.14427452 -0.15771237 0.20080991 0.13692243 0.13270648
0.23515916 -0.040582072 -0.05952493 -0.21544121 -0.26038265 -0.24490716 -0.08786548 0.07416317
-0.14363047 -0.26216188 0.24794507 -0.24285185 -0.20706639 -0.1299819 0.086847745 0.20438929
-0.19825457 -0.22838436 0.20967478 0.04316535 0.2999533 -0.25496253 0.21937686 -0.20946656
0.27551958 -0.12046551 0.079660766 -0.03541863 -0.24492301 0.11536055 0.18248634 -0.29878283
0.294803 -0.16632168 -0.2061252 0.061415706 -0.021866705 0.089473 0.08604757 0.001970011
-0.029735817 -0.07339396 0.18586318 0.15205742 -0.1836109 -0.13964096 -0.16455722 0.30878577
0.30071416 -0.034835745 -0.058948364 0.004802208 0.18724388 0.086297415 -0.23326863 0.05139133
-0.09836765 -0.19881219 -0.11851259 0.27265236 0.29060912 0.30660832 -0.1960759 0.14462127
-0.040387273 0.009545559 -0.24997105 0.21973652 0.27253807 -0.20908146 0.106150426 0.0018094911
-0.12267663 -0.3081741 0.07785406 -0.29987553 0.1232152 -0.22002392 0.24002811 0.13611726
0.04456549 0.099711224 -0.30054924 -0.2185664 -0.2691414 -0.049520995 -0.23878728 -0.2876653
-0.13119787 -0.23356903 0.24858248 0.029207261 0.17572336 -0.084994435 -0.056201085 -0.023158034
0.28592935 -0.2527969 -0.2941097 0.16702667 -0.04533716 -0.12355581 -0.07776321 -0.27379438
-0.060287643 -0.04273644 0.29034922 -0.16167584 0.09746912 0.1262371 0.1404014 0.30160412
-0.06977154 -0.0002726985 -0.1595046 -0.19714794 -0.0020104316 -0.17718208 -0.030789644 -0.16994536
-0.040655017 0.13179451 -0.24942376 -0.2131356 -0.21192306 -0.16276848 -0.007889092 -0.028693378
0.2281209 0.065597676 -0.21660233 -0.057679206 0.03883086 0.22627366 -0.2456762 -0.070759445
0.1039982 0.1978297 -0.20529513 -0.3070824 -0.28023243 0.25647202 -0.21506925 0.23770232

bias f4 [40]
00000000: 6ead cfbc 82fe 0abe 3643 96be 881a 223e
00000010: c41a 18be a1c5 33be d80d fc3d 90f8 4ebe
00000020: 0069 4f3d ede8 9b3e 927d 773e 914b 80be
00000030: 2420 ac3d 6471 2f3e d339 5f3d 1d6c e5bd
00000040: 6a9d 2ebb 2137 30be cc0d 9b3e daa8 7ebe
00000050: b88d 4d3d deb9 263e e7ed 64be 4ac9 85be
00000060: f785 853d f684 97be 526a 61be 4dcf 9cbe
00000070: a6f1 89bd b793 f73d 75cd 7cbd 0f4c 36bd
00000080: 6848 423e 7ede 77be 9770 86bd d948 033e
00000090: 2c37 cc3d 0959 84be 6ef1 1cbd cc9c e63d
-0.025351252 -0.1357365 -0.29348153 0.15830433 -0.1485396 -0.17555858 0.12307328 -0.20212007
0.050637245 0.30451146 0.24168995 -0.25057653 0.08404568 0.17133099 0.054498505 -0.112022616
-0.002664412 -0.1720853 0.30283964 -0.248691 0.05018398 0.1628184 -0.22356378 -0.26130134
0.065196924 -0.2959363 -0.22013214 -0.30626908 -0.06735544 0.12088721 -0.061719377 -0.04450613
0.18972933 -0.24205968 -0.065644436 0.12820758 0.09971461 -0.25849178 -0.038316183 0.112603754

weight f4 [40, 40]
00000000: c48a 1cbe fb8d 103d b285 923d 102e 11be
00000010: f0bb 333c 0578 c0bd 21f9 863c bc1c 0e3e
00000020: ce9a 6e3d ca21 50bc db09 f7bc 25ce b03d
00000030: 6e09 c0bd 78a7 17be 2a05 d03d 5cec d43d
00000040: 0e1a 073e 3daa d93d ffc2 99bd 2646 d13d
00000050: d838 20be 6744 abbd f561 f5bd b057 d6bc
00000060: c9c7 e5bd fa37 01be 2bf6 d7bd 024a 1d3e
00000070: f3f0 d73d 985e 113c 4826 e73d 4c24 a43d
00000080: 2438 d53d a800 83bd 5cba d33d 346a 1dbe
00000090: 51fa d33d 948f 1f3d 14a2 ffbc b0ce 62bc
000000a0: a35d 51bd 822d 68bd 405f 4e3d 3918 053e
000000b0: 7e0f d13d a71c 52bd 1c29 7f3d 0447 22ba
000000c0: 81a1 c83d 649e 763d 4e7d 013e 326b dbbd
000000d0: 34e6 71bd 7583 b6bd 2572 de3d c2ea 193c
000000e0: f026 7dbd 3622 11be 3861 183e 026d f7bd
000000f0: 2116 603d d2c9 743d f814 0cbe 7a50 d33d
00000100: bf9e 01be 6034 7e3c 10f4 263d 9842 9fbd
00000110: bee0 0d3d afbc 1b3e d15a 523d 7fc9 153e
00000120: e673 90bd 14b2 d5bd df08 4fbd 5783 febd
00000130: d1e5 403c 62ff cebd 4103 963d ca36 123e
00000140: 74fb 16be 6151 843b 7098 1d3d 7cba 763d
00000150: 83d9 1ebc 2836 9fbd d948 8c3d b503 ee3d
00000160: c076 1b3e 0463 81bd 600a 893c ffad 1dbe
00000170: 31d6 ec3b 1c8e d63d 8144 093c 4677 c63d
00000180: 5837 9ebd 3381 103d 198d 09be d0fb 8fbc
00000190: 321b 9e3c 218d 1dbe 2a15 3ebd e089 6bbd
000001a0: 5445 82bd 2494 20be 75e0 98bd 3c51 8e3a
000001b0: 7c48 3f3d 3545 2d3c 2162 09be fc21 47bd
000001c0: 6b57 a4bd 7556 0fbe 4c65 1abe a2d2 0cbe
000001d0: 41ad bc3d 6067 013e 9b4b 92bd ec6b a83a
000001e0: 40ce de3d 336f 35bd 00b0 a43d 489c 15be
000001f0: b21c 013d 9883 1a3e 4c2a 223c ee51 553d
00000200: 107a e6bd 3891 1d3e 3809 51bd dce6 05be
00000210: 1474 a3bd 031a 813c 7e60 05be f166 9c3b
00000220: de35 313d df48 203e bf53 a73d 475b b13c
00000230: 1f09 013e 4a07 0bbe 6782 d53d ece0 093d
00000240: d116 cdbd 5e53 df3d fd8b 8fbd 1233 0d3e
00000250: f11c d5bd 1306 d53d 1eed dc3c 3531 16bd
00000260: c7a3 92bd 2b20 84bd cc93 1dbe b6af c5bd
00000270: a0d6 00be 7a7b fd3b 3b75 32bd 7087 1d3e
00000280: 533f 703d 9505 de3c c4aa a63d d921 1cbe
00000290: e114 8b3d 384e 03be 7927 9abd b4cd c6bd
000002a0: a17d 1dbe 19a0 0c3e 3145 e83d d4ba 08be
000002b0: fda2 01be b067 05be 41bd d6bd 17fc dd3c
000002c0: 76cd 14be d063 8c3d 6888 c3bd 6b5a 193e
000002d0: 9c37 8fbd 8988 3a3c 33ab 42bd c5e6 edbd
000002e0: 99ea 05be 8b01 ab3d 5392 b13d 69cd a03d
000002f0: 31a6 483d ff4f dfb9 099b 11be 84f9 06bd
00000300: 256a 4a3d 4301 133e 386d f33d cdeb acbd
00000310: f3ee 08be 9ff8 353d 3b19 8ebd fbf2 c5bb
00000320: cb9c 13be dc6d 8abd 3cf7 ffbd c6b2 613d
00000330: 9f39 343c b6ce c7bd af75 a1bd 7afc 403d
00000340: 672a 273d 8bd1 71bd 5ca5 f8bd 224d 86bd
00000350: 732e 6db9 588d 11bd b528 b33d f5e8 a33d
00000360: c6ed b3bd 3282 98bd 471c 4cbc 2678 dd3d
00000370: 8ccf 14be 70e0 873d 006f 4fba 80b5 c53a
00000380: 4aa3 c83d de7e fe3d ce61 f03d 5e8c aebd
00000390: 88db 0a3e 4f72 7ebd e5fa c8bd c95b a8bc
000003a0: 3a53 f5bd 31d1 19be 7e35 013d ecd2 5fbc
000003b0: e613 0b3d 7ae1 73bd 4d71 adbd 79e1 9c3b
000003c0: 9fd8 4c3d 2dc8 0f3e 9610 52bd caf0 b6bd
000003d0: 0e43 f33d 13c3 ea3d 3bfa ca3d c170 f43d
000003e0: d42e 86bd eb43 11be e145 e13c da00 80bd
000003f0: a098 13be 6d05 1ebe 9954 59bd 2147 9dbb
-0.1528731 0.035291653 0.071544066 -0.14177728 0.010970101 -0.09397892 0.016476216 0.13878149
0.058253102 -0.012703368 -0.030156067 0.08633069 -0.093767986 -0.14809978 0.10157235 0.103966445
0.13193533 0.106281735 -0.07507896 0.10218458 -0.15646684 -0.08362656 -0.119815744 -0.02616486
-0.112197466 -0.1261901 -0.10545 0.15360263 0.10544004 0.008872651 0.112865984 0.080147356
0.104110986 -0.063966095 0.103382796 -0.15372545 0.103504784 0.038955286 -0.031205215 -0.013843223
-0.05111469 -0.056684025 0.050383806 0.12997521 0.10208033 -0.051296856 0.062295064 -0.0006190392
0.097964294 0.060209647 0.12645456 -0.10713805 -0.05905743 -0.08911792 0.10861615 0.0093943495
-0.06180471 -0.14173207 0.14880836 -0.120813385 0.054708604 0.059762783 -0.13679874 0.10318084
-0.12658213 0.015515417 0.0407601 -0.077763736 0.03463816 0.15208696 0.05135614 0.14627646
-0.07053356 -0.10434356 -0.05054557 -0.12427395 0.0117735425 -0.10107304 0.073248394 0.14278713
-0.14744359 0.0040380214 0.038475454 0.06023644 -0.0096954135 -0.07774001 0.06849832 0.11621801
0.15182018 -0.06317714 0.01672858 -0.15398405 0.007227682 0.10476324 0.008378149 0.09690718
-0.077254 0.035279464 -0.1343273 -0.017576128 0.019300077 -0.15385868 -0.046406902 -0.057504535
-0.063608795 -0.15681511 -0.07464687 0.001085795 0.046699986 0.010575582 -0.1341634 -0.048616394
-0.08024486 -0.13997824 -0.15077704 -0.13752225 0.09212733 0.1263709 -0.07143327 0.0012849546
0.10879183 -0.0442955 0.08041382 -0.14610398 0.031521507 0.15089262 0.00989778 0.052080087
-0.1125375 0.15387428 -0.051034182 -0.13076347 -0.079811245 0.015759474 -0.1302509 0.0047730138
0.043264262 0.15652798 0.0817027 0.02164997 0.12601136 -0.13577 0.10425263 0.033661768
-0.100141175 0.10904573 -0.070091225 0.13789013 -0.10405911 0.10401549 0.026968535 -0.03666802
-0.07160144 -0.06451448 -0.15388411 -0.09652655 -0.12581873 0.007735667 -0.04356883 0.15383697
0.05865414 0.027102271 0.0813804 -0.15247287 0.06791092 -0.12822807 -0.0752706 -0.097072035
-0.15379955 0.13732947 0.11341322 -0.1335252 -0.12659831 -0.13027835 -0.10485316 0.027097745
-0.14531502 0.06854975 -0.09547502 0.14975898 -0.069930285 0.011385092 -0.04752655 -0.116162814
-0.13077773 0.08349904 0.08670487 0.07851679 0.048986617 -0.00042593476 -0.14219297 -0.0329528
0.049417634 0.1435595 0.11886066 -0.08443413 -0.13372402 0.044426557 -0.06938406 -0.0060409284
-0.1441528 -0.06759235 -0.12498328 0.055102132 0.011000066 -0.09756224 -0.078837745 0.04711578
0.040811922 -0.059037726 -0.12140915 -0.06557681 -0.00022619385 -0.035535187 0.087479986 0.080034174
-0.08785586 -0.07446708 -0.012457914 0.10813932 -0.14532298 0.06634605 -0.00079129636 0.0015083998
0.0979677 0.12426542 0.11737405 -0.08522867 0.13560307 -0.062120732 -0.09813479 -0.02055158
-0.11978765 -0.15021206 0.031545155 -0.013661128 0.033954524 -0.059541203 -0.08468876 0.0047876206
0.050011273 0.14041205 -0.05128535 -0.089326456 0.11878024 0.11462989 0.09911009 0.119355686
-0.065519005 -0.14186065 0.027499141 -0.062501624 -0.1441369 -0.15431757 -0.053059194 -0.004799739

bias f4 [40]
00000000: 11fe 1abe c933 dbbd 2e52 a3bb 1561 b73d
00000010: 1100 eb3d 76df e93d b73c d83d 8c73 ab3b
00000020: ab32 013d fa62 0cbe fef3 dabd db78 dbbd
00000030: 09a2 303d 0b58 933c d5f5 d0bd bc4b b6bd
00000040: 3f6f 7cbb 0189 af3c 9e95 0e3e 3b30 f7bd
00000050: 576c c5bd bee2 04be 23ba 21be ff06 cfbd
00000060: d2f8 853d 195a eebd 3510 a23c 889a 1f3e
00000070: 8fad bfbc ae7f 213e 0fd8 d33d 7064 c2bd
00000080: 4646 0ebd 4a60 f23d 2601 143e f362 5ebd
00000090: 281e 11be 92a4 81bd d1bd 903c e57f 053e
-0.15135981 -0.107032366 -0.004984162 0.08954064 0.11474622 0.11419575 0.105584554 0.00523228
0.03154246 -0.13709632 -0.10691069 -0.10716411 0.04312328 0.017986318 -0.10203139 -0.08901164
-0.0038518456 0.021427633 0.13924262 -0.12069746 -0.09639805 -0.1297712 -0.15793662 -0.10108756
0.06541599 -0.116382785 0.019783119 0.15586293 -0.023398189 0.15771362 0.10343944 -0.09491813
-0.034734987 0.11834772 0.14453563 -0.054293584 -0.1417166 -0.063302174 0.017668637 0.13037069

weight f4 [1, 40]
00000000: c606 debc 86e1 91bc 6c96 adbc 77a5 973d
00000010: bf44 2e3c fb33 79bc 462e 833d 155f e8bd
00000020: 8f4d 253d 1e05 023e 3aef e6bd 3239 09be
00000030: bc0f ed3d 4aa8 de3d c9c6 acbd 44f2 ad3d
00000040: 6f8c 73bc 7960 aa3d fcc9 6dbc dcfd f03d
00000050: b460 3fbd ff67 10be 3c7e cd3d e6a7 67bd
00000060: 16e5 0fbd 1b12 593d 2036 8d3d 6221 acbd
00000070: 9ef4 953c 4b01 173e 498f dbbd 205f 04be
00000080: f540 6a3d c6f2 32bd 231c f7bd 0b0f 2f3d
00000090: 146c 273d a6f7 ddbd b60c 79bc b4a4 90bd
-0.02710284 -0.017807733 -0.02118989 0.07404607 0.0106365075 -0.015210147 0.0640531 -0.113462605
0.04035717 0.12697265 -0.112760976 -0.13400725 0.11575267 0.10871942 -0.08436353 0.08493474
-0.014865025 0.08319182 -0.014513489 0.1176717 -0.046723083 -0.14102171 0.10033843 -0.056556605
-0.035130583 0.052995782 0.06895089 -0.08404805 0.01830512 0.14746587 -0.10720689 -0.12926912
0.057190854 -0.043688558 -0.120659135 0.042738955 0.040874556 -0.10838251 -0.015200784 -0.07062665
