learning/model_10_input/model_3.pth (torch, 11611 bytes, 5 tensors)

weight f4 [40, 10]
00000000: 5a93 cf3e 5cae be3d 3901 b63e 6224 24be
00000010: 5c80 683e 82aa b1bd 6ae0 ac3e 94e9 853e
00000020: 6520 05be 36f3 c43d 8dbc 1dbe 2648 e93e
00000030: 2bf7 953e 3a97 03bf 3ab9 a63e 844a 913e
00000040: 0165 263d cc27 1a3e 1e7d b53d b4ff ecbb
00000050: bed4 653e 40bc c43c ef37 e23d 8178 893e
00000060: 0975 44be 5f9a 573e bd37 0dbe 5279 a53d
00000070: 685c 9cbe fe08 b1be edfd b1bd 74b3 8dbe
00000080: 0d94 72be 14a3 85bd 10aa 6d3d 309a 7dbe
00000090: 0eef 4dbe 93cf 073e 5734 a9bc e70a cc3e
000000a0: 90fc 55be e7ab 82be 7934 673e 230e 4b3e
000000b0: 4bf0 bc3e 9e6f 6dbe 1b87 033f 37c6 a33e
000000c0: 40e0 813d 0c37 343e 1ce2 8a3d d037 55be
000000d0: 3eb1 a8be 24ed efbd 499f 163e c17a 6e3e
000000e0: c9df 533e 4d1f 53be ee06 993e fe3c 1f3d
000000f0: 1191 c43e 41cf e9be eb00 7bbf 755b 023f
00000100: 5211 1f3e 0f13 443e 62df 69be 01c6 c73c
00000110: 678d fdbc c975 d4bc 070c d23e a5ff 3dbf
00000120: c60b 163f e1e8 343f c45b 57be 7e11 a13d
00000130: 0386 23be 9ffa 913d c825 83be a750 0e3d
00000140: 6282 723e c14a ca3e be3b 03bf 1fd7 88bc
00000150: 2dd0 9abe 983c c4be 84d3 1fbe 2fbb 21bd
00000160: 0a12 36bd bf5d f2bd 05ad 743e dee3 fdbe
00000170: a82f 953e e7e0 ac3e 58fa abbd 67a3 583e
00000180: 6132 7dbe 37ac abbd 696d 01be 1620 51b8
00000190: cdbc f83e ed6f 7e3e 8134 133e 6afb 853e
000001a0: dd95 f23d aab4 f73e b174 533e 17cf 483d
000001b0: 452f 493e c2d1 03be 0023 283f 5c9d 94bf
000001c0: d059 323f 0d7c ad3f 4eef 00bf 2743 b0be
000001d0: 0e47 91bc e2a8 97bc 588e 7cba 7e1d d83b
000001e0: bbc8 80be fa7c 843e 5944 b7bd 428d aabd
000001f0: 5d8a b7bd eee9 7f3e 37cc ae3e 2482 03be
00000200: 359e 2cbe 957f 2d3e 575b 593e 0d84 143e
00000210: 8068 dc3b 6367 13bd d2bc 9a3d cd4d 0ebe
00000220: 93b6 35be 548f 863d 071d bbbd 2551 aa3e
00000230: 4310 a53e 9228 3f3d b868 9a3d 61fb 653e
00000240: 5072 ce3e e004 db3e e23f 6b3e 903b 9d3d
00000250: 8232 a53e 4c94 5d3e e387 d3be 8995 afbd
00000260: ab35 943d b070 103e f290 73b9 52ea a2be
00000270: b4fd 8c3d e67b 573e 3aee 38be 2f11 073e
00000280: ac3f 81be 44a0 033f 5d95 d2be cd24 56be
00000290: 9b10 01bd b7b4 36bd aa82 173d a0e8 673e
000002a0: 5771 99bd 4910 1abd dcc1 e9bd cb8f 8c3e
000002b0: 1712 273f 1337 aebe c95b 2bbe fbb1 31be
000002c0: 6c1c 13be 1376 c7bc baef ac3d 3e7c 1cbc
000002d0: 9215 2d3d 20c0 1ebf 5915 613e b7fe 13bf
000002e0: f421 633f 3f94 083f 2136 4f3e 5e9d 893e
000002f0: c59f 893e e399 ad3d 0832 933e 09c5 55bf
00000300: 37fc 803e 26bb 12bf 85ba 06bf 9531 b9be
00000310: 1e4e 963b fe3c a2bd aabb 87bd d9a6 64bc
00000320: 01d8 cabe 3db4 4cbf c9e3 cdbe d263 f73e
00000330: 64b6 ca3e 8ad9 323e 8735 5c3e cd4f 773d
00000340: 23ab 4d3d ba90 29bd 803d 06be 3996 153e
00000350: d721 f0bd 4703 863d d221 af3d aa9d 41bd
00000360: 32b5 3cbd f058 2dbe cae6 8bbe ca72 1b3e
00000370: f17c 0b3e 0919 82be 832b 41bd 98b2 0abe
00000380: 52ad cdbe 38dc 84bd e60b 603e 2c80 a33e
00000390: 4d5a a33e e272 063e 88a5 b93d 3a86 2dbf
000003a0: 4557 aabe 1033 163f 5c89 b6be abc1 b6be
000003b0: 9901 42be 16a1 abbd ffe0 b1bd 8111 513d
000003c0: 0bc4 3dbe dfdd 97bd 99e8 073f 17d1 e3be
000003d0: 10df 9bbe be4b 87be c44d 0bbe f6b3 9abe
000003e0: eb85 b43c 242f 9b3e b6e0 04bd 2813 bdbc
000003f0: 6b9c a2be 8974 b2bd f4dd ffbb cc00 a8be
0.40542108 0.093106 0.35547808 -0.16029504 0.22705215 -0.086751 0.33764964 0.26154768
-0.13000639 0.09616701 -0.15403958 0.45562857 0.29290137 -0.5140263 0.32563192 0.28377163
0.04062367 0.15054244 0.08861755 -0.0072326306 0.22444436 0.024015546 0.11045825 0.2684975
-0.1918527 0.21054982 -0.13790794 0.08079781 -0.3053925 -0.34577173 -0.086910106 -0.27675974
-0.2368929 -0.06525245 0.058023512 -0.24765849 -0.20110723 0.13262777 -0.02065484 0.39852068
-0.20897126 -0.25521776 0.2257861 0.19829611 0.3690208 -0.2318711 0.5137803 0.31987163
0.063416004 0.17599124 0.06781408 -0.20822072 -0.32947725 -0.11715153 0.147092 0.23289014
0.20690836 -0.20617409 0.298881 0.038876526 0.38391927 -0.45665935 -0.98048276 0.509208
0.15533951 0.19147895 -0.2283912 0.024386408 -0.030951215 -0.02593507 0.410248 -0.7421821
0.58611715 0.70667845 -0.210311 0.078646645 -0.1596909 0.0712788 -0.25614762 0.034744885
0.2368255 0.39510158 -0.51263034 -0.01670414 -0.3023695 -0.3832748 -0.1560803 -0.039485153
-0.044450797 -0.11834287 0.23894127 -0.4958791 0.2913792 0.33765337 -0.08397359 0.21156083
-0.2472625 -0.08382457 -0.12639393 -4.9859365e-05 0.48581544 0.24847384 0.14375497 0.26168376
0.118449904 0.48380023 0.20649983 0.04902562 0.19646938 -0.12872985 0.65678406 -1.1610522
0.69668293 1.3553482 -0.5036515 -0.34426233 -0.017734077 -0.018513147 -0.0009634248 0.0065953126
-0.25153145 0.258766 -0.08948583 -0.08327724 -0.089619376 0.24991581 0.3414018 -0.12842613
-0.16857226 0.169432 0.2122625 0.14503498 0.0067263246 -0.03598727 0.07555546 -0.13896866
-0.17745428 0.065703064 -0.09136396 0.33265033 0.3223897 0.04666955 0.07539505 0.22459175
0.4032159 0.42777157 0.22973588 0.07677376 0.32265097 0.21638602 -0.4131461 -0.085734434
0.07236799 0.14105487 -0.00023228282 -0.31819397 0.068843275 0.21043357 -0.18059626 0.13190149
-0.2524389 0.5141642 -0.4112958 -0.20912476 -0.031509977 -0.044605937 0.036989845 0.22647333
-0.07492321 -0.037613187 -0.11413929 0.27453455 0.6526198 -0.34026393 -0.16734232 -0.1735305
-0.14366311 -0.024348294 0.08444162 -0.009551106 0.0422569 -0.6201191 0.219808 -0.5781054
0.88723683 0.53351206 0.20235492 0.26877874 0.26879707 0.08476617 0.28749108 -0.83503777
0.25192425 -0.57316816 -0.52628356 -0.3617064 0.004586949 -0.079217896 -0.06627591 -0.013955795
-0.39617923 -0.7996252 -0.4021285 0.48318344 0.39592278 0.17465797 0.21504794 0.06037884
0.050212037 -0.041397788 -0.13109398 0.14608087 -0.117252044 0.06543594 0.085513726 -0.0472695
-0.04607124 -0.16928458 -0.27324516 0.15180507 0.1362188 -0.25409725 -0.047160637 -0.1354469
-0.40171295 -0.06487316 0.21879539 0.31933725 0.31904832 0.13129762 0.09064776 -0.6778294
-0.33269706 0.58671665 -0.35651672 -0.35694632 -0.18945922 -0.08380334 -0.08685493 0.051042084
-0.18531816 -0.074153654 0.5308929 -0.4449546 -0.3044362 -0.26424974 -0.13603884 -0.30215424
0.022036513 0.30309403 -0.032440864 -0.023080423 -0.31759962 -0.087136336 -0.0078084413 -0.32813108

bias f4 [40]
00000000: 3315 ddbd 9984 5bbe c6df 79be d180 063d
00000010: 8391 44be 71a1 7dbe 8608 833e 2fd1 18be
00000020: 16ef 253e ff84 f63c b5c6 72bd 1e7e 2d3e
00000030: 8fea d13e bc6b 78be 1cb0 4bbe d630 9f3e
00000040: eba5 3abd 5fc9 f73c 4459 e6bd 79b9 9f3f
00000050: dc5e 403f 4ef3 3dbe 6abe 4fbe 58ff 9d3e
00000060: 0d48 343e 1ba5 b73e d331 0f3f 99b4 5a3e
00000070: 30ad 84bd 0971 ee3e 43c5 e93d b52b 78be
00000080: f930 403d b677 a4be 1a0c b7bc e907 823e
00000090: 1382 a93e b1da 1fbe eca0 8d3f dbf3 8cbd
-0.10795059 -0.214373 -0.24401769 0.032837693 -0.19196133 -0.24768616 0.2559244 -0.14923547
0.16204485 0.030092714 -0.059271533 0.16942641 0.40999267 -0.24259847 -0.19891399 0.31091946
-0.045568388 0.030247388 -0.11247495 1.2478477 0.75144744 -0.18549845 -0.20287481 0.30858874
0.1760561 0.35868153 0.559354 0.21357955 -0.064783454 0.46570614 0.11414578 -0.24235423
0.046921704 -0.32122582 -0.022344638 0.2539666 0.3310705 -0.15610768 1.1064734 -0.06882449

weight f4 [40, 40]
00000000: 77c0 523e 4ece 453b 635a 2e3d 10d8 28be
00000010: a5c9 113e 5d8a 573d 1f8b dfbd 12bc b93e
00000020: f848 893e 3345 413e 2c12 743e 30ad c63e
00000030: cb46 9abb ae06 bc3d 6a73 6e3e 9280 afbd
00000040: d417 473d 92c9 6ebe a337 c93e 5f61 d1be
00000050: dc8d 1dbe ce82 d43c 06e5 7a3d 5d14 e8bc
00000060: d5b5 3abe d276 fbbd ccb0 83be b949 14be
00000070: ea74 843d f354 09be c5f8 ed3c 21a5 82ba
00000080: b7d5 cf3d efd6 7ebe fa83 55be 1a0e 80be
00000090: ac45 aabe dc48 033e 28cc 183f 763d 1c3e
000000a0: 7982 0ebc fa2a 9d3e 8c0b aa3c d484 e33d
000000b0: b0a5 58bd 30ab d3bd 3440 773e cefc 3bbe
000000c0: 89a9 58be 6ecd bdbd 8b8c 0bbd dc5d 36bf
000000d0: 39d4 c03d dced e43d ff42 c7bd 569e e93d
000000e0: e7e7 77be e16a 873e 172d f4be b038 e63e
000000f0: 5f19 bc3e a945 8fbd 3909 183e 37d8 723e
00000100: 0ce1 913e 669a 873d 1b0b e53e b74f a3bd
00000110: 8ff8 9cbd 67c2 b13e bf7d 653e eefb 953d
00000120: 9a49 52bd 28c8 b23e c3c9 7a3e bb31 423e
00000130: 2640 2b3e 6949 74bc 8694 3cbf da5d b3be
00000140: 94fc 8f3c a2b9 eabb 6002 28be 8f9f 0bbe
00000150: 4720 a6bc 58e9 d43c 8307 0d3b 1fec ef3a
00000160: 05b8 9f3d 9b0f 31be d6b4 003e c323 81be
00000170: 0e30 383d bd40 253e 489a 02bd 2b55 c1bd
00000180: 83c0 e33d a82b e03d 1de4 903d a009 b1bc
00000190: 7b65 5ebd 59b7 bfbd 3288 8a3d 552e 94bd
000001a0: 5705 253e 4b5c 73bd c2a8 fe3c a335 183e
000001b0: b78a 14be bb3f 333d b545 2a3e 4119 dd3d
000001c0: e5e6 4c3d 9f64 5f3c 2cc0 2abd 980a 683d
000001d0: 8ca7 883d 5aeb c6bd 4d7b 43be 33ae b13d
000001e0: 4965 133e 3055 c0bd 6381 e53c 40d9 5c3d
000001f0: bc7d 78bd 9aca 7abd 435d 903d 493d a6bd
00000200: dbad aebd 3498 a2bd cc85 09be 1cfe 17be
00000210: eef5 0bbd 2b26 0abe d32b a2bd a904 54bd
00000220: 0aeb a7bc f9dd b4bd 06e0 b1bd c70a cc3c
00000230: 0c7f 10bd e171 0f3e 8e4e 03be cbb3 4bba
00000240: b0a8 cfbd ea42 d93d b77b e03d 4090 f93d
00000250: 3ed4 0c3d 0036 493d 237b 7cbd 8fcd 2f3c
00000260: 36b2 f83d 9239 c43d d925 9f3d ea4c c93d
00000270: 4c7e 13bc b1da c83d 9c9e 153e 8a49 0d3d
00000280: e3b4 013e 961d 693e 2f59 f63d 71dc babd
00000290: 3103 dcbd 41ab 1fbe 5c0c 283d a151 3fbd
000002a0: 2f00 8c3d 1c23 15bd 6c0a 1e3e 8187 acbe
000002b0: e640 f1bd 6e57 943d ff2c cebc 467b b23d
000002c0: 92de c7bd 4d92 7b3e 099a 91be 212b c63d
000002d0: aa7e 213e 12b3 413c 740a 5d3d 1ae9 e13d
000002e0: 2f6c 583d 38f2 0b3c bc8c 833e 8277 90bd
000002f0: 3e71 cabc 6160 803e 3bca 8c3d 651e 023c
00000300: 0abf 003e f01e f03d 7e54 f33d 0b3c d53d
00000310: b942 103c e812 58ba b028 bdbe 4177 24be
00000320: e457 913d e47b 2c3d b866 af3d 093e 7abd
00000330: dbb7 013e 5116 663d 1d40 0b3e 7dc3 823b
00000340: 37d0 03bd 47fb 2d3d d368 883d 932c 55bd
00000350: 45d5 06bd 781a f23d 9517 15bd 793d 04be
00000360: 037b 3b3b 4dd6 13bd d894 9fbc addb c83d
00000370: a78f c03d eb88 c63d 0826 423d a9f1 d63d
00000380: 115a 0abe 9201 bbbd 672e 833d 2e00 1ebe
00000390: 1364 abbd 5fff 083d 294f 7b3d af97 d4bd
000003a0: 4c64 aabc 0041 0e3e d337 2e3d ab3e ab3d
000003b0: 0c01 18bd 98c7 5fbb 227f b33d 39b0 1f3b
000003c0: 401f 1c3e 97ef 0c3e 4b2f 223e 2c29 9cbd
000003d0: 28f5 f2bd 9b11 7c3d 72ac eebb b1be a63b
000003e0: af64 eabd 1363 0dbe e997 863c ad48 b83d
000003f0: f3f4 c8ba f398 13be fe12 58bd f689 22be
0.20581232 0.0030182782 0.04256667 -0.16488671 0.14237078 0.052622188 -0.10915207 0.362763
0.26813483 0.18874054 0.23835057 0.38804007 -0.004708146 0.091809615 0.23286214 -0.08569445
0.04860671 -0.2331908 0.3930026 -0.408946 -0.15386146 0.025941279 0.06125357 -0.028330022
-0.18233426 -0.122785226 -0.25720823 -0.14481248 0.06467612 -0.13411312 0.029049287 -0.0009967425
0.10148185 -0.24886678 -0.20851126 -0.2501076 -0.3325628 0.12820762 0.5968652 0.1525782
-0.008698099 0.3069685 0.02075746 0.11109319 -0.052892387 -0.10335386 0.24145585 -0.18358156
-0.21158423 -0.09267698 -0.03406958 -0.7123697 0.09415478 0.111781806 -0.09729575 0.11407153
-0.24209557 0.2644873 -0.4769065 0.44965124 0.36738107 -0.069957085 0.14847268 0.23715292
0.2849201 0.06621246 0.44735035 -0.07974189 -0.07664596 0.3471863 0.2241125 0.073234424
-0.051339723 0.34918332 0.24491028 0.18964283 0.1672369 -0.0149100805 -0.7366413 -0.3503254
0.017576493 -0.0071632424 -0.16407156 -0.13635086 -0.020279063 0.025990173 0.002151937 0.0018304622
0.07798771 -0.1729111 0.12568983 -0.25222597 0.044967704 0.16137977 -0.031885415 -0.094400726
0.11120703 0.10945827 0.07074759 -0.021611035 -0.054295998 -0.09361143 0.067642584 -0.072354
0.16115318 -0.05941419 0.03108633 0.14864211 -0.1450604 0.04376195 0.16628154 0.107958324
0.050024886 0.01363483 -0.041687176 0.056650728 0.06672582 -0.097128585 -0.19090004 0.08675804
0.14394106 -0.09391248 0.028015798 0.053918123 -0.060666785 -0.061228372 0.07049038 -0.08117158
-0.08529254 -0.07939187 -0.13429946 -0.14843029 -0.034170084 -0.13491122 -0.07918515 -0.051762257
-0.020497818 -0.088314004 -0.08685307 0.024907483 -0.03527741 0.14008285 -0.12822935 -0.00077706267
-0.101395965 0.10608466 0.10961097 0.12185717 0.034382097 0.049123764 -0.06164087 0.010730161
0.12143366 0.09581293 0.07770891 0.09829123 -0.0090022795 0.09807337 0.14611286 0.03449396
0.12666659 0.22765192 0.12028729 -0.09124077 -0.10742796 -0.15592672 0.04102741 -0.046708707
0.068359725 -0.036410436 0.15433663 -0.3369713 -0.117799565 0.072432384 -0.02516794 0.08714919
-0.09759249 0.24567528 -0.28437832 0.09676195 0.15770975 0.011822479 0.053965047 0.11030789
0.052837547 0.008541636 0.2569331 -0.07054044 -0.024712201 0.2507353 0.0687451 0.007941817
0.12572876 0.11724651 0.1188135 0.10411843 0.00880497 -0.00082425633 -0.36945105 -0.16061117
0.07096842 0.04211034 0.08564514 -0.061094318 0.12667792 0.056173626 0.13598676 0.003990589
-0.03218099 0.042475965 0.06660619 -0.052044462 -0.032918233 0.11821455 -0.036399443 -0.12914075
0.0028607256 -0.036093045 -0.019480154 0.09807525 0.094023995 0.09694084 0.04739955 0.10495312
-0.1351092 -0.09131159 0.06405335 -0.15429756 -0.08368697 0.033446666 0.06135479 -0.10380494
-0.020799778 0.13891983 0.042533707 0.08361562 -0.037110373 -0.0034146067 0.08764483 0.0024366511
0.15246296 0.13763271 0.15838353 -0.076250404 -0.11863166 0.061540227 -0.0072837407 0.00508865
-0.11444985 -0.13807325 0.016429858 0.08998237 -0.001533179 -0.14413814 -0.052752487 -0.1587294

bias f4 [40]
00000000: 0664 f13d 78c6 823e 9f3c d43d 8242 1ebe
00000010: d20a 1b3c f23d e73d 61eb 3f3d 9515 c03d
00000020: 8631 0cbd d9c3 923d eab7 57bd d922 d2bd
00000030: c53b 983d 39f7 11be c745 293f 9d33 6dbd
00000040: abc6 623d 35ab 8a3b 526a acbd 85dc f83e
00000050: 237e 0f3e e02d 04be 2047 653d 05d9 153e
00000060: 5d4e 91bb 8a1d 143c 909a 363d 4aa2 413c
00000070: 8140 373e 04ab 5e3d e47d cfbd 0ab8 e83e
00000080: 559b 1cbe 144a 05be a06a 0cbe 5052 0bbe
00000090: 9fd5 2bbd 17ad a9bd fdc1 813d 3a79 7d3e
0.11786656 0.25542045 0.10363125 -0.15455058 0.009463029 0.11291112 0.046855334 0.093791164
-0.034226917 0.07166261 -0.05266563 -0.10260553 0.07433275 -0.14254464 0.66122097 -0.05791055
0.055365246 0.0042318352 -0.084187165 0.48605743 0.14012961 -0.12908125 0.055976033 0.14633568
-0.0044343905 0.009040246 0.044580996 0.011818478 0.178957 0.054362312 -0.101314336 0.4545291
-0.1529363 -0.1301654 -0.13712549 -0.13605618 -0.04195177 -0.082849674 0.063358285 0.24753276

weight f4 [1, 40]
00000000: 8fe8 9c3f 4afb d5bf 00dd acbe a449 b23d
00000010: 3fbd 3ebf a1b4 a3bd a569 283e adc0 793e
00000020: e460 d13d fc55 2c3f 79ec c13f e941 88bd
00000030: 3788 e9bc 63cb e33c f8de 0cc0 4d4f 793f
00000040: d2e1 c0be 2218 063e d562 a83d 0ebe 02c0
00000050: d0a2 76be 98bb 9a3d 5318 17bf b50e 483f
00000060: 5e12 813f 6186 d83e 7bef 343f 4ce8 ea3d
00000070: aec7 8cbe 7af7 b23f 8056 cb3c cc49 efbf
00000080: 2d85 073e 0cc8 073e 7da6 da3f 5500 103c
00000090: 178c b23d 24a3 bebd 710f d7be c5d6 a0bf
1.2258471 -1.6717312 -0.3376236 0.08705452 -0.74507517 -0.079934366 0.1644655 0.24389906
0.102235585 0.673187 1.5150291 -0.06653196 -0.028507335 0.027806943 -2.201109 0.9738663
-0.37672287 0.13095143 0.08221976 -2.04285 -0.24085546 0.07555312 -0.5902149 0.7814744
1.008373 0.42290023 0.7067792 0.11470088 -0.27496094 1.3981774 0.02482152 -1.8694396
0.13234396 0.13259906 1.7082058 0.008789142 0.08718126 -0.0930846 -0.42003968 -1.2565542
