learning/model_10_input/model_6.pth (torch, 11611 bytes, 5 tensors)

weight f4 [40, 10]
0	0xbdfb4008	-0.12268072
1	0x3d6ba9b1	0.057534877
2	0xbbd355a8	-0.00644942
3	0x3c28938b	0.010289083
4	0xbd83e198	-0.06439513
5	0xbe4c55c1	-0.19954588
6	0x3d3a9bd2	0.045558758
7	0xbdf54999	-0.11976928
8	0xbd6eedbf	-0.0583322
9	0x3dfb497c	0.122698754
10	0xbcd67fba	-0.026183952
11	0xbe44a711	-0.19204356
12	0xbdceb07b	-0.10092255
13	0xbdd39a03	-0.1033211
14	0x3dada9c4	0.08479646
15	0xbdc03eff	-0.093870156
16	0xbd9ff4b8	-0.07810348
17	0x3d00f24d	0.031481076
18	0x3cfa6116	0.030563872
19	0xbdaba780	-0.083815575
20	0x3deee98c	0.11665639
21	0x3c32da57	0.010916314
22	0x3e7ea64b	0.24868123
23	0x3ca062e5	0.019578407
24	0xbcffc660	-0.031222522
25	0xbd037e99	-0.032103155
26	0xbc77d673	-0.015126812
27	0x3d23c9fc	0.03998755
28	0x3dc2494a	0.09486635
29	0x3a420d57	0.00074025005
30	0xbd6cdd4a	-0.057828225
31	0x3cfc950e	0.030832794
32	0xbd6cf21a	-0.057848074
33	0x3cfada3a	0.030621637
34	0xbce91824	-0.028453894
35	0xbe46a5bd	-0.19399162
36	0x3b1e290a	0.0024133348
37	0x3cec6a73	0.028859353
38	0xbd857af5	-0.06517593
39	0xbda891ad	-0.082309105
40	0xbea6fc07	-0.32614157
41	0xbe7cbe85	-0.24682052
42	0x3e5c877d	0.2153606
43	0xbe7b84ec	-0.24562424
44	0xbe408b3a	-0.1880311
45	0xbe3fea24	-0.18741661
46	0x3c3145d9	0.010819876
47	0xb9c987c1	-0.00038438852
48	0xb9ea7fcd	-0.00044727177
49	0xbab9762c	-0.0014149598
50	0xbe92947d	-0.28628913
51	0x3e6ce91a	0.23135796
52	0xbe5ee0e8	-0.21765482
53	0x3e591c5d	0.21202226
54	0x3e8fc861	0.28082564
55	0x3ed17ee4	0.40917122
56	0x3dace302	0.08441736
57	0x3b1ea16b	0.00242051
58	0x3d7397bd	0.05947088
59	0xbb2c11f0	-0.0026255809
60	0xbd0ed40b	-0.03487019
61	0xbc18c5e0	-0.009324521
62	0xbeb0c86e	-0.34527916
63	0x3e7f1d5f	0.24913548
64	0xbe800990	-0.25007296
65	0x3d8c5a6b	0.06853183
66	0xbdbc25d6	-0.09186904
67	0x3d8de908	0.06929213
68	0xbb974e0d	-0.0046174587
69	0x3db24f62	0.08706547
70	0xbd4335cf	-0.047658738
71	0xbe5f7a9d	-0.21824117
72	0x3e2ef991	0.1708739
73	0x3e7a209e	0.24426505
74	0x3e3bf0d0	0.18353581
75	0x3d82dcf3	0.06389799
76	0x3d95ea9f	0.07320141
77	0x3d0c0c31	0.034191314
78	0xbc86759f	-0.016413508
79	0x3c9e9ac7	0.019360913
80	0x3d1d41ee	0.038392954
81	0xbe881ee9	-0.26586083
82	0x3ed3a185	0.41334167
83	0xbe9d80e5	-0.307624
84	0xbf327b46	-0.6971935
85	0x3eb46cc6	0.35239238
86	0x3ec87409	0.39151028
87	0x3d895737	0.06706088
88	0x3dd912fc	0.10599324
89	0x3a0500b1	0.00050736504
90	0xbe2a610c	-0.16638583
91	0xbeee9073	-0.4659458
92	0xbe772654	-0.24135715
93	0x3f4668cb	0.7750365
94	0x3f3d4656	0.7393545
95	0x3ea158db	0.31513104
96	0x3e300a0b	0.17191331
97	0x3d75c87d	0.060005654
98	0x3d831a9e	0.06401561
99	0xbcc34a66	-0.023839187
100	0xbe074089	-0.13208212
101	0xbd82ef7b	-0.063933335
102	0xbe004c7d	-0.12529178
103	0x3e13bbc2	0.14427093
104	0x3d8a05af	0.06739365
105	0x3e1313e2	0.14363053
106	0xbda5f3c1	-0.08103133
107	0x3e38aef2	0.18035486
108	0xbddc3427	-0.10752135
109	0xbe362a7f	-0.17789648
110	0xbca0e133	-0.019638633
111	0x3e7bec7c	0.2460193
112	0xbee1c170	-0.44092894
113	0xbf09ba09	-0.5379949
114	0x3eda0cb5	0.4258782
115	0x3e3a64ca	0.1820251
116	0x3e90fbbe	0.28317064
117	0x3dd196c6	0.10233836
118	0x3cdfd485	0.027323017
119	0x3be6ef51	0.0070475717
120	0xbd0793f2	-0.033100076
121	0xbda5a10a	-0.080873564
122	0x3c5a5178	0.013325088
123	0xbd8dcf39	-0.0692429
124	0x3d5e1186	0.05421593
125	0xbd3a785b	-0.045524936
126	0x3da39db7	0.07989066
127	0xbe0de2d6	-0.13856062
128	0x3dd300c0	0.103028774
129	0xbe2a6075	-0.16638358
130	0xbde61fd0	-0.112365365
131	0xbecce764	-0.40020287
132	0x3e69768f	0.22799133
133	0x3e75836d	0.23975916
134	0x3e8bc38d	0.2729763
135	0x3e256434	0.16151506
136	0x3d5d4335	0.05401917
137	0xbaf48391	-0.0018654933
138	0x3d844397	0.06458204
139	0x3d1b6834	0.037941173
140	0x3e7f9690	0.24959779
141	0xbcd739df	-0.026272712
142	0x3e69c99e	0.22830817
143	0xbe468af0	-0.19388938
144	0xbdc2f04b	-0.095184885
145	0xbd95940a	-0.07303627
146	0xbe6cf4b2	-0.23140219
147	0x3d3f5c96	0.046719156
148	0x3de39fb6	0.11114447
149	0x3e550478	0.20802486
150	0xbe2a7d67	-0.166494
151	0x3e1ae683	0.15126996
152	0xbe353b4a	-0.17698398
153	0xbdd279b3	-0.102771185
154	0xbdd02295	-0.10162846
155	0x3c6af9f2	0.014341818
156	0xbd628740	-0.055304766
157	0x3d0c5708	0.034262687
158	0x3cf0ad1f	0.029379426
159	0xbcd6b7b7	-0.026210649
160	0x3b71f927	0.0036922188
161	0xbd20250c	-0.03909783
162	0xbdf54ec6	-0.119779155
163	0x3d426a8e	0.0474649
164	0xbaf38006	-0.0018577583
165	0xbd81acaa	-0.06331761
166	0x3e405785	0.18783386
167	0xbe1d927c	-0.1538791
168	0xbe1dddab	-0.15416591
169	0x3933300f	0.00017088673
170	0xbe5972fc	-0.2123527
171	0xbf3de1ad	-0.7417248
172	0xbe501005	-0.20318611
173	0x3f24539c	0.6419008
174	0x3f0f9b1c	0.56096053
175	0x3ead5c92	0.33859688
176	0x3e148ebb	0.14507572
177	0x3daaa8ff	0.08333015
178	0x3dcf8ec9	0.10134656
179	0xb9d0fd4a	-0.00039861567
180	0xbd8eb1e3	-0.06967523
181	0x3cf0a429	0.029375153
182	0xbe01313a	-0.12616435
183	0x3d564acb	0.052317422
184	0xbd9fd3d4	-0.07804075
185	0xbe2be60a	-0.16786972
186	0x3cd12bb2	0.02553353
187	0x3aabe669	0.0013114932
188	0x3adb2498	0.001671928
189	0x3d8f9174	0.07010165
190	0x3e1e1a39	0.1543969
191	0x3f2cb351	0.67461115
192	0xbe29639c	-0.16541904
193	0x3ea8af6f	0.32946345
194	0xbf4dd6ba	-0.8040577
195	0xbee1a621	-0.4407206
196	0xbeb7e564	-0.359172
197	0xbe40b161	-0.18817665
198	0xbdf89605	-0.12137989
199	0x3b3ec053	0.0029106333
200	0xbd8890ed	-0.066682674
201	0x3e08aa90	0.13346314
202	0x3efaedf2	0.49009663
203	0xbe9c7c66	-0.30563658
204	0xbda0ddfe	-0.07854842
205	0xbe220097	-0.15820538
206	0x3c1aa03e	0.009437619
207	0xbc86e7ba	-0.016467918
208	0xbcd283ed	-0.025697673
209	0x3d5f4db8	0.054517478
210	0xbe171f08	-0.14757931
211	0xbeca460e	-0.39506572
212	0x3e062780	0.13101006
213	0x3ead086d	0.3379549
214	0x3e9c51e1	0.3053122
215	0x3e2f86a0	0.17141199
216	0x3d34a953	0.044106793
217	0x3dab2011	0.083557256
218	0x3c9b092c	0.018925272
219	0xbd3097ca	-0.043113507
220	0x3ed1c150	0.40967798
221	0x3dae3532	0.0850624
222	0x3ecf2a7c	0.404621
223	0xbe165f09	-0.1468469
224	0xbe376fad	-0.17913695
225	0xbe85a684	-0.26103604
226	0xbd5c9767	-0.053855326
227	0x3e28456b	0.16432731
228	0x3ce95307	0.028481973
229	0x3dc9292c	0.09822306
230	0xbe8c72a3	-0.2743121
231	0xbd1aa282	-0.037752636
232	0xbee0438c	-0.43801534
233	0x3e5dbaa7	0.21653233
234	0x3ebbaada	0.36653787
235	0x3e9066d4	0.28203452
236	0x3e3f18b2	0.18661764
237	0x3d83741f	0.06418633
238	0x3e1fc7e4	0.15603596
239	0x3d3b2ddf	0.045698043
240	0x3ccf8af5	0.025334815
241	0x3e8608c9	0.26178578
242	0xbedb0215	-0.42775026
243	0x3ef05fd9	0.46948126
244	0x3e80099f	0.2500734
245	0x3e79fed4	0.24413615
246	0xbc29d295	-0.010365148
247	0xbc3482cc	-0.0110175125
248	0x3bb8b82b	0.005637189
249	0xbc88ef2c	-0.016715609
250	0xbdccd19d	-0.10000918
251	0xbe7497b3	-0.23885994
252	0xbe8cae00	-0.274765
253	0x3e6e97f7	0.23300157
254	0x3ec7d488	0.39029336
255	0x3e9bafe8	0.30407643

bias f4 [40]
0	0x3cd0b6e4	0.025477834
1	0xbd3e2447	-0.046421316
2	0xbe1ca3be	-0.15296838
3	0xbaee530d	-0.001818271
4	0x3e60680c	0.2191469
5	0xbc1771c6	-0.009243434
6	0x3eb7fdd1	0.35935834
7	0x3d2588ac	0.040413544
8	0x3dea2297	0.11432379
9	0xbdc64f1b	-0.09683057
10	0xbe288fef	-0.16461156
11	0xbe39be4d	-0.18139
12	0xbe16df59	-0.14733638
13	0x3e096c6b	0.13420264
14	0x3db31303	0.087438606
15	0xbe511f78	-0.2042216
16	0xbca2b911	-0.019863637
17	0x3e8c2903	0.2737504
18	0xbb584f00	-0.0033006072
19	0x3e18fd16	0.14940295
20	0xbc3e24e7	-0.011605478
21	0x3e8df0f2	0.2772289
22	0xbe34cc73	-0.17656116
23	0x3edaddf4	0.42747462
24	0xbe8d16cb	-0.27556452
25	0x3ee1a01c	0.44067466
26	0x3e85733f	0.26064488
27	0x3d9d0deb	0.0766867
28	0xbdbb5ccf	-0.09148561
29	0x3e4bfd48	0.19920838
30	0x3e7f9b9f	0.24961708
31	0xbfebf814	-1.8435082
32	0xbd035071	-0.032059137
33	0xbcda9753	-0.026683485
34	0x3d841123	0.06448581
35	0x3f529dc9	0.8227201
36	0x3eb85c9d	0.36008158
37	0x3e8edc70	0.27902555
38	0x3c0099c0	0.007849157
39	0xbd9cc4d6	-0.07654731

weight f4 [40, 40]
0	0x3d398ce3	0.045300376
1	0xbd92fa92	-0.07176699
2	0x3c61fa6c	0.013792615
3	0xbd50bab2	-0.050959297
4	0x3e88ac64	0.26694024
5	0xbce8d7a0	-0.02842313
6	0x3e0ec1f9	0.13941182
7	0x3bdd63c4	0.0067562778
8	0x3dc67eda	0.09692164
9	0x3e0d394c	0.13791388
10	0xbe3ce4c3	-0.1844664
11	0xbde0062f	-0.109386794
12	0x3c5dd05b	0.013538445
13	0xbe347fa9	-0.17626823
14	0x3a971c3f	0.0011528804
15	0xbde7d8b2	-0.11320628
16	0x3e168651	0.14699675
17	0x3e8ac179	0.27100733
18	0xbcef0d09	-0.02918102
19	0xbe703291	-0.2345679
20	0x3d0538fe	0.032525055
21	0x3dc2fe7d	0.09521196
22	0xbdd5ce24	-0.10439709
23	0x3e0fabfc	0.1403045
24	0x3ddca610	0.107738614
25	0x3ebb6a0a	0.3660434
26	0x3e88f7eb	0.26751646
27	0x3dd5c653	0.10438218
28	0x3d0d9af5	0.034571607
29	0x3ebc7903	0.36811075
30	0x3e8351e3	0.25648412
31	0xbf21a7b6	-0.6314653
32	0xbef32ffa	-0.4749754
33	0xbd739447	-0.05946758
34	0x3e016148	0.12634766
35	0x3e64f01a	0.22357216
36	0x3ca4841b	0.020082524
37	0x3e70dcdf	0.23521756
38	0x3ddd13e9	0.10794813
39	0x3ea7e929	0.32795075
40	0xbd3b7e45	-0.045774717
41	0x3ca97c11	0.020689042
42	0x3c82719c	0.015923314
43	0x3e06585b	0.13119642
44	0xbba55812	-0.005045899
45	0xbc64ad17	-0.013957283
46	0xbd6cb128	-0.057786137
47	0x3e5b79d2	0.2143319
48	0x3d657332	0.056018062
49	0x3d20cbcb	0.039256852
50	0xbd4cfa28	-0.050043255
51	0xbe87dabb	-0.26534066
52	0x3da89af9	0.08232684
53	0xbe5e5d47	-0.2171527
54	0xbd9aeb87	-0.075644545
55	0x3d079f98	0.033111185
56	0xbdf96965	-0.121783055
57	0xbe0b0ebf	-0.13579844
58	0x3d30755a	0.043080665
59	0x3a49c0be	0.00076962623
60	0x3e043c2a	0.12913576
61	0xbe4377b0	-0.19088626
62	0xbd546ce0	-0.051861644
63	0xbd8dd487	-0.06925302
64	0xbd088774	-0.033332303
65	0xbda019cc	-0.0781742
66	0xbdf44538	-0.11927265
67	0x3e1d6efc	0.15374368
68	0xbd085576	-0.033284627
69	0x3e816e62	0.25279528
70	0xbde6602f	-0.11248814
71	0xbd79cda2	-0.060987122
72	0x3ba7fde9	0.005126704
73	0xbd3582f7	-0.04431435
74	0x3e22cd86	0.15898713
75	0xbe0c19cf	-0.1368172
76	0x3d9adc93	0.075616024
77	0xbda61115	-0.08108727
78	0x3ca68b41	0.020330073
79	0xbe15f502	-0.14644244
80	0x3e94596f	0.28974482
81	0x3e1d8aa7	0.15384923
82	0xbdd94378	-0.10608572
83	0xbc6e55bf	-0.014546811
84	0xbde8362b	-0.11338457
85	0xbdcaeba3	-0.099082254
86	0x3e090985	0.13382538
87	0x3d630408	0.055423766
88	0x3d8aef06	0.06783871
89	0xbe093177	-0.13397776
90	0xbdaa2ad3	-0.08308949
91	0xbdf49f82	-0.11944486
92	0xbe0709a9	-0.13187279
93	0x3e1a2ca9	0.15056099
94	0xbd132595	-0.035924513
95	0x3c865f63	0.016402906
96	0x3e1ddc9d	0.15416189
97	0x3e10dde2	0.14147142
98	0x3c9567fe	0.018238064
99	0xbc87a8f3	-0.016560053
100	0x3dc5f6d4	0.09666219
101	0xbc47063b	-0.012147482
102	0xbda04590	-0.07825768
103	0x3bca875d	0.0061806873
104	0xbc35ed59	-0.011103951
105	0x3d9c688f	0.076371305
106	0xbbb01ca1	-0.0053745066
107	0x3bbb0640	0.005707532
108	0x3d7ac5c5	0.061223764
109	0x3db56702	0.08857538
110	0x3df3c85a	0.119034484
111	0xbe8d44f0	-0.27591658
112	0xbe7f2fe1	-0.24920608
113	0xbe2e3a31	-0.17014386
114	0x3d5a3e9e	0.053282373
115	0x3e72fdb7	0.23729597
116	0xbbf84bc8	-0.007577393
117	0xbc2c5577	-0.010518423
118	0x3c44a39a	0.012001896
119	0xbe1ffd22	-0.15623906
120	0xbd58c80b	-0.05292515
121	0xbbe3ce5c	-0.00695209
122	0xbe114720	-0.14187288
123	0xbd445fd6	-0.04794296
124	0xbe09150c	-0.13386935
125	0x3cdfa4d3	0.027300274
126	0x3e21217f	0.15735434
127	0x3d08d55d	0.033406604
128	0x3e3dcc6a	0.18535009
129	0x3e0e0967	0.13870774
130	0xbd515405	-0.051105518
131	0xbe149aee	-0.14512226
132	0xbd84cae9	-0.064840145
133	0xbdb2f10a	-0.08737381
134	0x3d6c3253	0.05766518
135	0xbae41de8	-0.0017403932
136	0x3da390ee	0.079866275
137	0xbe097d4d	-0.13426705
138	0x3c6af77d	0.014341232
139	0xbe2653cd	-0.16242905
140	0x3b8b1380	0.004244268
141	0xbddfe250	-0.109318376
142	0xbd839ab3	-0.06425991
143	0x3d4c910f	0.049943026
144	0x3e0acb43	0.135541
145	0x3e6046f6	0.2190207
146	0xbbfa58f6	-0.0076399995
147	0x3d610023	0.05493177
148	0xbdca355d	-0.098734595
149	0x3e5a9551	0.21346022
150	0x3afd3bf8	0.001932024
151	0xbdf3a74b	-0.11897143
152	0xbdd21951	-0.10258735
153	0x3da8f252	0.08249344
154	0x3db5e330	0.08881223
155	0x3d0b3727	0.033988144
156	0x3d8de991	0.06929315
157	0xbd9419a2	-0.072314516
158	0x3d0cfa83	0.034418594
159	0x3ce0e736	0.027454
160	0xbda8dd51	-0.08245338
161	0xbd2a5890	-0.041588366
162	0x3d99595b	0.07487746
163	0xbdb88efe	-0.090116486
164	0x3e6d9269	0.23200382
165	0xbe00bb65	-0.12571485
166	0x3db0e0b8	0.08636612
167	0x3d121719	0.03566656
168	0x3ef197d7	0.47186157
169	0x3ec61a74	0.38692057
170	0xbd9bcee2	-0.07607819
171	0xbe9bb4c2	-0.30411345
172	0xbd5460b6	-0.051850043
173	0xbdc0952b	-0.094034515
174	0x3e01e5b9	0.12685288
175	0x3e1ac2bb	0.15113346
176	0x3dd0f90f	0.10203754
177	0x3ec1dd57	0.3786418
178	0xb974c432	-0.00023342742
179	0xbe8af589	-0.27140453
180	0x3e49a9ba	0.19693652
181	0x3d082232	0.033235736
182	0x3e8651c3	0.26234254
183	0xbd84dd69	-0.06487543
184	0x3e0d1afa	0.13779822
185	0xbdc08288	-0.09399897
186	0x3c8af129	0.016960697
187	0x3d65dc91	0.05611855
188	0x3ebaee9a	0.36510164
189	0x3e6c5810	0.23080468
190	0x3ec1cabf	0.37849995
191	0xbf2cce65	-0.67502433
192	0x3e36de2c	0.1785819
193	0xbe2adb25	-0.1668516
194	0x3d3ec91f	0.046578523
195	0x3e39ff72	0.18163851
196	0xbe1ee4f9	-0.15517034
197	0x3e041d6e	0.12901852
198	0x3e227a30	0.15866923
199	0xbc924dda	-0.017859388
200	0xbe1ba1d8	-0.15198457
201	0x3d8d6a29	0.06905014
202	0x3e338772	0.17532137
203	0xbd915102	-0.07095529
204	0x3e40082e	0.1875312
205	0x3bab4338	0.005226519
206	0x3e4b6b8f	0.19865249
207	0x3da472fe	0.080297455
208	0x3ddd66ae	0.108106
209	0xbc7b30fc	-0.015331503
210	0x3b9871b7	0.0046522277
211	0x3da223bb	0.07916971
212	0xbd9f70c0	-0.07785177
213	0x3c73c3ed	0.014878255
214	0x3e09327e	0.13398167
215	0xbd3bf19f	-0.045884725
216	0xbd6ddabe	-0.058069937
217	0x3e0a26e9	0.13491406
218	0xbcdedcb4	-0.027204849
219	0xbe7035f9	-0.23458089
220	0xbd89fd00	-0.06737709
221	0xbdada6a8	-0.08479053
222	0xbd899c59	-0.06719274
223	0xbaa68cfd	-0.0012706813
224	0x3e5787c5	0.21047886
225	0x3d08034d	0.033206273
226	0x3e07a4ab	0.1324641
227	0xbbb781b3	-0.005600178
228	0xbdce165b	-0.10062858
229	0x3e9ac895	0.30231157
230	0x3ec9f070	0.39441252
231	0xbed941be	-0.4243297
232	0xbebb9785	-0.36639038
233	0x3b9b34da	0.004736525
234	0x3e7fad3d	0.24968429
235	0x3de5e5ab	0.11225446
236	0x3e554166	0.20825729
237	0x3e272ecf	0.1632645
238	0x3c594ee3	0.013263437
239	0x3d356842	0.04428888
240	0xbd7269da	-0.05918298
241	0x3dd58259	0.104252525
242	0x3c3060ac	0.010765236
243	0xbcdef1aa	-0.027214844
244	0xbde83370	-0.11337936
245	0xbcc8e4eb	-0.02452322
246	0xbdf77eca	-0.1208473
247	0x3dbc8e03	0.09206774
248	0xbcf14d8f	-0.029455928
249	0xbcdcde7c	-0.026961558
250	0x3c90a1d9	0.0176553
251	0xbcb65abc	-0.022260062
252	0x3d9796a1	0.07401777
253	0xbbd8e67b	-0.0066192723
254	0xbd764871	-0.06012768
255	0x3ce0f1b7	0.027459009

bias f4 [40]
0	0x3e915df2	0.28391987
1	0xbda7b763	-0.08189275
2	0x3ead9949	0.3390601
3	0xbdacd69b	-0.0843937
4	0x3e4cd05b	0.20001356
5	0x3ea88f1c	0.32921684
6	0xbe69528f	-0.227854
7	0x3da725ed	0.08161531
8	0xbde17292	-0.11008181
9	0xbe351f21	-0.17687656
10	0xbd84236a	-0.06452067
11	0x3d33163f	0.043722387
12	0xbdb1e7f2	-0.08686818
13	0x3e0fc42c	0.14039677
14	0xbde7a77b	-0.11311241
15	0x3db4426f	0.08801734
16	0xbdcebbca	-0.10094412
17	0x3ef5a4a9	0.47977188
18	0xbe2bc9bc	-0.16776174
19	0x3d9a8d6b	0.075465046
20	0x3b9620ab	0.004581531
21	0xbdcb20a7	-0.09918337
22	0x3d936159	0.07196302
23	0x3e86d934	0.26337588
24	0x3cff821f	0.031189976
25	0xbd992d63	-0.0747936
26	0xbe36f647	-0.17867385
27	0x3e1486b4	0.1450451
28	0x3d0772dd	0.033068527
29	0x3ac5793f	0.0015066041
30	0xbd4f3732	-0.050589748
31	0x3d9dcc25	0.07704953
32	0x3b67e029	0.0035381413
33	0x3eaddedf	0.339591
34	0x3e856b4f	0.26058432
35	0x3dd2b4a9	0.102883644
36	0xbc0b4558	-0.00850042
37	0x3e9b5510	0.30338335
38	0x3d853236	0.065037176
39	0x3e0d3646	0.13790235

weight f4 [1, 40]
0	0xbf983862	-1.1892207
1	0x3d7489ff	0.059701916
2	0xbf1105a7	-0.5664925
3	0xbeb43cb1	-0.35202554
4	0xbfa66924	-1.3000836
5	0xbf530b05	-0.8243869
6	0xbe2cb8ff	-0.16867445
7	0x3f7049d8	0.93862677
8	0xbe9cfd1c	-0.30661857
9	0xbe9cff7d	-0.30663672
10	0x3e39aea9	0.18133034
11	0x3e4ac3f8	0.19801319
12	0xbee8f539	-0.4549959
13	0x3fa32db9	1.2748328
14	0x3f435e60	0.7631588
15	0xbeda3a0b	-0.42622408
16	0x3d42333e	0.04741215
17	0xc0300ad1	-2.7506602
18	0xbe144e85	-0.14483078
19	0x3c50dd1c	0.012748029
20	0x3ed6cad2	0.41951615
21	0xbefcd2ad	-0.49379483
22	0xbe5f9405	-0.21833809
23	0xbf12fb19	-0.57414395
24	0x3eb65e51	0.35618833
25	0xbe800891	-0.25006536
26	0xbc9c92ac	-0.019112907
27	0x3f2040da	0.62598956
28	0x3e68aacc	0.22721404
29	0xbe01e1a5	-0.12683733
30	0xbf4af439	-0.79278904
31	0x3fe50480	1.7891998
32	0x3ef925cc	0.4866165
33	0x4030b750	2.7611885
34	0xbfe7db87	-1.811387
35	0xbdb0f5d9	-0.08640642
36	0x3e30571c	0.1722073
37	0xbf9350bd	-1.1509014
38	0x3d876cea	0.066125706
39	0xbf3fc1e6	-0.7490524
