learning/model/dnn/model_6.pth (torch, 11415 bytes, 5 tensors)

weight f4 [40, 7]
000000 27 68 84 3e 40 b8 b4 3e 4b a4 6e bd 7f fe c6 be
       0.25860712 0.35296822 -0.05826215 -0.3886604
000010 99 51 e5 bd 4a 5d 0a be c2 57 f2 3d e5 0e a1 3e
       -0.11197204 -0.1351215 0.11833145 0.31456676
000020 7c bf 51 bd 87 92 ee 3e a0 97 6d bd 7b a7 6b 3e
       -0.051208004 0.46596166 -0.05800593 0.23013107
000030 5a 9b 82 3e d9 1d 84 3e f0 22 03 bf 42 6c 34 3f
       0.2550915 0.25804022 -0.51225185 0.7047769
000040 f2 f2 62 bf cc 9f 25 3e 2d 13 02 3e 6b 4d 02 3e
       -0.88651955 0.16174239 0.12702627 0.12724845
000050 93 f9 90 3d d8 22 b6 3e fd 73 86 3e 60 2b 19 be
       0.070788525 0.3557346 0.26260367 -0.14957952
000060 fd 0a 61 3e c1 80 bc 3e f1 d4 5f be 4c be ef bd
       0.21976848 0.3681698 -0.21858574 -0.11706218
000070 14 65 e7 3e 4d dd c3 bd e2 f4 20 3e fc f9 cc be
       0.45194304 -0.09563694 0.15718415 -0.40034473
000080 92 17 62 be a2 93 94 be d4 85 9a 3e 83 38 89 3d
       -0.22079304 -0.29018885 0.30180228 0.06700232
000090 54 27 cc 3d 47 ad 99 be c8 d6 31 3e 8c b5 a4 be
       0.09968439 -0.30015013 0.17367089 -0.3216976
0000a0 c5 8f c8 3e 36 44 57 3d 1d 66 79 3e 94 77 87 be
       0.39172187 0.052555285 0.2435536 -0.26458418
0000b0 f1 6d a8 be 63 3e 0a 3f f0 f7 68 3e 1c 09 9b 3e
       -0.3289638 0.54001445 0.2275083 0.30280387
0000c0 84 21 05 bd c4 dc bf 3a 61 db 03 3d 97 60 5e be
       -0.032502666 0.0014637937 0.032191638 -0.21716534
0000d0 e5 1d cf 3e 31 ec bd 3e f0 d8 09 bd 8c 70 d2 3a
       0.40452495 0.37094262 -0.033654153 0.001605527
0000e0 a1 f7 73 bd 1e bc 0a bd 2e 38 0b bf 72 7c 17 3f
       -0.05956233 -0.03387081 -0.543826 0.59174263
0000f0 56 6d ff 3e 18 18 2e 3e 34 c9 a0 bd 3c 4c 5d be
       0.49888104 0.17001379 -0.078508765 -0.21611112
000100 8c 0c 76 be 52 95 a6 be 3b b9 3a 3e a3 86 88 3d
       -0.24028224 -0.32535797 0.18234722 0.06666305
000110 96 cd 8a 3e 8e ca 68 be fa c5 59 3e 7f 03 3d 3e
       0.27109975 -0.22733518 0.21266928 0.18458365
000120 85 b0 ed 3d ca a2 50 3e ae 05 da bd e2 c2 8a 3d
       0.11605934 0.20374599 -0.106456146 0.06775452
000130 19 c6 98 3e 38 b8 d3 3e d5 5c 67 be c1 ef 0b 3f
       0.29838637 0.41351485 -0.22594006 0.5466271
000140 d4 ab d9 bb 3c 9c b0 3d 00 6b 7c be e3 2a 8b be
       -0.006642798 0.08623549 -0.24650192 -0.27181157
000150 90 c2 05 bf 91 65 4c 3f 04 ea 5d bf 15 6b 8e b9
       -0.52250004 0.7984248 -0.86685205 -0.00027164133
000160 ee aa aa 3c ed 57 8a 3d a3 6e 8a 3d 33 4f 51 3d
       0.020833459 0.06755052 0.067593835 0.05110092
000170 34 a5 8a be 5f 4b e9 3e 4d fc 54 bc 22 e1 a2 be
       -0.27079165 0.45565316 -0.012999606 -0.31812388
000180 ad 23 a2 be d6 ae a4 3e c1 e4 3c be 55 b6 40 be
       -0.31667843 0.3216464 -0.18446638 -0.18819554
000190 c5 7b 7e be 49 53 f8 bd a6 54 69 3e ec e7 c4 bd
       -0.24851902 -0.121252604 0.22786197 -0.09614548
0001a0 a9 42 90 3e 81 e2 ce be fc c7 11 be a1 fa 5f be
       0.28175858 -0.40407184 -0.14236444 -0.21872951
0001b0 61 b2 b5 bc 51 b0 36 be d7 73 3b 3e aa 94 83 3e
       -0.022179784 -0.17840697 0.18305908 0.2569936
0001c0 f5 11 e7 be ca ae 8e bd 19 3c 0d be c9 fd 59 be
       -0.45130888 -0.06966932 -0.13792457 -0.21288218
0001d0 68 8e 79 be c0 8b cc 3e a3 3e 91 3c 2c 81 7e 3e
       -0.2437073 0.3995037 0.017730063 0.24853963
0001e0 5a f1 9a be 3c d2 c4 be 49 ff d2 3d 34 ed 0e 3e
       -0.30262262 -0.38441646 0.10302598 0.13957673
0001f0 13 d2 4d 3e 7c fb 04 3e de 42 03 3c 01 00 ba bd
       0.20099668 0.12986559 0.008011548 -0.09082032
000200 c4 46 e8 3e f8 cc 57 bd 62 ac b3 be 5e 78 a9 3e
       0.4536649 -0.052685708 -0.35092455 0.33099645
000210 56 b0 33 be ee 41 31 be 0a 60 8e 3e 6b 28 6e be
       -0.17547736 -0.17310306 0.27807647 -0.23257606
000220 be 94 ba 3e 51 a7 5d be 82 2e 8c 3e 60 11 0b be
       0.36441606 -0.21645857 0.27379233 -0.13580847
000230 97 cd 26 bb 42 d4 6a be a6 3e ec be 73 ad 43 3c
       -0.002545213 -0.22932532 -0.46141547 0.011943209
000240 57 f2 48 3e 24 3b ba 3e 38 a2 d2 3d 47 3c af 3e
       0.19623695 0.36373246 0.10284847 0.34225675
000250 3c 22 67 be 27 03 f8 bd c6 5c db 3d aa 49 c5 3e
       -0.22571653 -0.12109976 0.107110545 0.38532764
000260 c3 eb c3 3e e6 86 80 3e 9d b0 0e 3f 1d 00 29 bf
       0.3826581 0.2510292 0.5573824 -0.660158
000270 6e 95 60 3f da 26 07 be b8 73 d6 bd 00 df 86 bd
       0.8772801 -0.13198414 -0.1047129 -0.065855026
000280 ac 26 a9 bd a3 a6 e1 3c 64 7e 4a 3e 94 f4 46 be
       -0.08259329 0.027545279 0.19774777 -0.19429237
000290 73 79 94 3e 0f e1 af be 1f 49 e0 bd 26 df b4 3b
       0.28998908 -0.34351394 -0.10951447 0.0055197654
0002a0 d7 2c 96 3d 03 bb 87 3e 90 b7 69 3e a5 81 80 be
       0.07332771 0.26509866 0.2282393 -0.2509891
0002b0 64 1f 3d 3e 89 c4 98 be 37 02 60 be 2f 5a c4 3e
       0.18469006 -0.29837444 -0.21875845 0.38350055
0002c0 44 b6 1d be 50 26 a8 3e c7 f6 0c 3e eb 0e 5a be
       -0.1540156 0.3284173 0.13766013 -0.21294753
0002d0 dc 92 bd 3e bd 24 6e be 05 d3 c4 3b b5 87 7f be
       0.37026107 -0.23256202 0.006006601 -0.24954112
0002e0 44 64 15 be 5a d7 aa 3e 24 fc a1 be 6c 59 92 3e
       -0.1458903 0.33367425 -0.3163768 0.28583848
0002f0 12 43 2d 3e 93 58 91 3c d2 b5 53 3e f0 45 64 3e
       0.16920117 0.01774243 0.20674828 0.22292304
000300 fd 29 ba be ca 5f fe 3c 76 f2 bf 3e a5 20 97 be
       -0.3636016 0.031051535 0.3748967 -0.29517093
000310 00 b1 b5 bb 20 62 56 3c 18 b4 77 bd a1 f7 bd be
       -0.0055447817 0.013084918 -0.060474485 -0.37102988
000320 60 9c 67 3d a0 a6 94 bc 40 f7 7e bd ad 6d 4b 3e
       0.056545615 -0.01814586 -0.062247515 0.19866057
000330 e9 0d c7 bd 83 55 0a 3f a6 b8 90 be 68 88 3b 3d
       -0.0971945 0.5403673 -0.28265876 0.045784384
000340 c5 f0 8c be e0 08 ea 3d b3 b5 82 be cf bc bb be
       -0.27527443 0.11427474 -0.2552925 -0.36667487
000350 6b c0 74 be 43 af 93 3e b0 5c 5c 3e 6d ea 86 3e
       -0.23901527 0.28844652 0.21519732 0.26350728
000360 28 89 93 3b ee 89 39 be 6e 1e 3f 3d 05 7b e6 b8
       0.0045024343 -0.18119022 0.04665988 -0.00010990169
000370 fb 22 18 3f 9c 1a d2 be 8d 19 31 bd 3f 82 31 bd
       0.59428376 -0.41035926 -0.043237258 -0.043337103
000380 40 3a 90 bd 0b 70 bc 3d a5 45 59 be f9 31 12 be
       -0.0704236 0.09201058 -0.21217974 -0.14276876
000390 d3 1f 00 be 48 10 97 3e 4f 67 69 3e f6 ee 1e 3c
       -0.1251214 0.2950461 0.22793315 0.009700527
0003a0 71 90 e2 3e 34 9c 94 3b 84 9f 74 bd e7 91 c4 3e
       0.44250825 0.0045352224 -0.05972244 0.38392565
0003b0 bb b7 37 be 73 a4 a3 3e 64 9a 01 3e b7 f6 cf 3e
       -0.17941181 0.31961402 0.12656552 0.40617916
0003c0 17 63 4c be 24 52 bb bd 05 9e 26 be 91 9f 2b 3d
       -0.19959675 -0.091465265 -0.16271217 0.04190022
0003d0 54 73 85 be 1b 3f 4a be db 39 df 3e 7b 0b e9 3e
       -0.2606455 -0.19750635 0.43598828 0.4551657
0003e0 99 ed 06 3f 4b 98 08 3f 2f 88 b7 3e 26 9f 06 3e
       0.52706295 0.5335738 0.35846087 0.13146648
0003f0 6a fc 8c be 65 4f 4c 3d 61 c2 2a bf 47 2b 28 3e
       -0.27536327 0.049880404 -0.6670285 0.16422759

bias f4 [40]
000000 ea b4 83 3e df 2f 43 bd db 1f c5 3e aa 7a 86 be
       0.25723964 -0.047653075 0.38500866 -0.2626546
000010 3e e3 fd 3e fd 79 a3 be e9 06 58 be 52 e8 3f be
       0.49587435 -0.31929007 -0.21096386 -0.18740967
000020 7a 0c cc bd c0 34 61 bd 42 75 68 3d a7 26 24 be
       -0.09963317 -0.054981947 0.05675245 -0.1603037
000030 c5 fd e8 3e 23 26 51 bd a0 36 13 3e bd c2 11 3e
       0.4550611 -0.05106176 0.14376307 0.14234443
000040 1a 92 54 3d 49 8d 9d be d0 59 2b 3e 0a a2 08 be
       0.051897146 -0.30771855 0.1673348 -0.13343063
000050 52 ae c0 3e 4b b1 b0 bc 98 7f f9 be 74 b3 98 be
       0.37632996 -0.021568915 -0.4873016 -0.29824412
000060 7a 26 4f 3e 27 d2 a7 3e 61 4a 9e be d1 c4 b4 3d
       0.20229521 0.3277752 -0.30916122 0.08826602
000070 13 52 36 be 15 39 8d 3d 99 19 44 be d2 b6 26 3d
       -0.17804746 0.06895653 -0.1915039 0.040701695
000080 50 50 75 3d 09 1f 89 be d8 5e ea bd 3b da d5 3e
       0.059891045 -0.2678149 -0.11443871 0.4176806
000090 75 0f 2e 3e d6 ae 97 be b2 7b c7 be 3c 8b a9 3c
       0.16998084 -0.29625577 -0.3896156 0.020696275

weight f4 [40, 40]
000000 7e 6e d2 bd ab 3a 11 bd 87 e0 9f 3d 3c 5a ea 3d
       -0.10274981 -0.03545634 0.07806497 0.11442992
000010 f7 66 91 bd 59 2e cd 3d c1 86 02 3e bf 6f d9 3d
       -0.07099717 0.10018606 0.12746717 0.10617017
000020 94 b4 e6 bd d2 5d c2 3d 2b e0 9b 3d 4d 70 08 3e
       -0.11264911 0.09490551 0.07611116 0.1332409
000030 bc a1 11 be f7 03 ab bd 73 23 84 bd 6e ec b6 bd
       -0.14221853 -0.083503656 -0.06452074 -0.08931814
000040 be 09 b9 bd 00 e6 a4 bc 72 34 b2 3d b7 d6 67 bd
       -0.09035061 -0.020129204 0.087014094 -0.056601252
000050 fe af 58 bd 40 8e a0 3c ef 77 8d 3d 32 1e ac 3d
       -0.052902214 0.01959908 0.06907641 0.08404197
000060 3a 43 8d bc cf e9 05 be 7d b1 20 3d 68 8b 9a 3c
       -0.01724397 -0.13077472 0.039231766 0.018865302
000070 a0 45 25 3c bb 96 06 3d 2a f9 7c bd 21 f8 08 3c
       0.010087401 0.03285859 -0.06176106 0.00835994
000080 94 cc 10 3e de 45 96 3d ea 93 c9 bd 54 79 a2 bd
       0.1414054 0.07337545 -0.098426655 -0.07933298
000090 b6 d5 dd ba fc 1d 07 bd 95 65 ff bd 15 93 59 3b
       -0.0016924653 -0.03298758 -0.12470547 0.003319924
0000a0 2c f1 4c bd 6c d7 d4 bd 4b d1 c5 bd 36 2c 9f 3d
       -0.050034687 -0.10392651 -0.0965906 0.077721044
0000b0 15 87 19 3e 34 c1 dd bd 45 13 5a bd 05 2f a8 bd
       0.14992936 -0.10827866 -0.053241033 -0.08212093
0000c0 2e a5 02 be 6b 5d f3 3d 45 ad de bd bf 27 22 3e
       -0.12758324 0.118830524 -0.10872892 0.15835474
0000d0 20 f1 51 bd d9 18 44 bd e5 02 3f bd b7 9e 32 bd
       -0.051255345 -0.04787526 -0.04663362 -0.043608394
0000e0 90 0f f2 bb 1c 6c c7 3c 17 0c fd bd 09 21 98 bd
       -0.007387109 0.024343543 -0.123558216 -0.07428176
0000f0 b8 f3 76 3d fc 28 05 be 76 d2 2a 3d f6 c2 23 3e
       0.060291022 -0.13003916 0.041704617 0.1599234
000100 e3 67 05 be 31 a7 11 3e 44 24 11 be ed ca 76 bd
       -0.13027911 0.14223935 -0.1417399 -0.06025212
000110 98 f1 19 3d 5c 39 a2 bd 6b ad 9f 3d a7 0c 9d 3d
       0.037583917 -0.07921097 0.07796749 0.07668429
000120 fb 33 0a be ed 8f 9a 3d e4 c5 d5 bd 4f 6a 72 3d
       -0.13496391 0.07546983 -0.10438135 0.059183415
000130 e2 6a f4 3c da 03 0b 3e 00 53 49 bd 11 96 b3 bd
       0.029836122 0.13575688 -0.04915142 -0.08768857
000140 49 9b 10 be 8e 57 07 be 7d de 81 bc 16 1b 37 3e
       -0.14121737 -0.13216993 -0.015853161 0.17881426
000150 ee e6 13 be 9f 04 e8 bc d3 46 3e 3e 5c d1 e8 3d
       -0.14443561 -0.028322516 0.18581705 0.11368057
000160 92 aa 25 3e 4e ce af ba d1 b9 48 bd e9 9e 11 be
       0.16178349 -0.0013412924 -0.049005333 -0.14220776
000170 9e c8 22 3e 24 c4 fd 3d 9d 61 06 3e 1a cc b2 3d
       0.15896842 0.123909265 0.13123174 0.087303355
000180 5b 93 dd 3d 3d 57 b3 bc 73 97 95 bd 19 88 27 3e
       0.108191215 -0.021892184 -0.07304277 0.16360511
000190 6b 07 32 3e 6d 18 d7 3c 2b 5b 47 bd 12 2d 1b bd
       0.17385642 0.026256764 -0.04867093 -0.03788478
0001a0 99 1c 43 bc 40 66 4f bd 0b 0c 0c be e3 fa 6e bd
       -0.011908674 -0.050634623 -0.13676469 -0.058344733
0001b0 80 3f c7 3a 0f 22 b9 3d 3c bc 08 3d ed aa 24 3d
       0.001520142 0.09039699 0.03338264 0.04020207
0001c0 0a c1 ef 3c 84 93 e2 3d ef bd 8f 3d 77 49 cc bc
       0.029266853 0.110632926 0.07018649 -0.024937375
0001d0 cd 88 b9 bd d4 56 9b bd 11 00 16 be 8a 8e 37 3d
       -0.09059296 -0.075849205 -0.14648463 0.04481367
0001e0 06 09 4d bc f6 0e d9 3d b7 24 a9 bc 18 43 28 3d
       -0.012514358 0.10598557 -0.02064739 0.04107961
0001f0 09 c8 da 3d 87 30 31 3d f5 4f 21 bd ef 3a 02 3e
       0.10682685 0.04325917 -0.039382894 0.12717794
000200 67 89 46 bd 2c 6d 06 be c1 6f 94 bc 41 ba 94 3d
       -0.04847088 -0.13127583 -0.018119695 0.072620876
000210 a1 cd 14 be 13 28 06 3e ec e8 c0 bd 66 14 aa 3d
       -0.14531566 0.13101225 -0.09419426 0.08304672
000220 e0 e5 9a 3c f5 b4 d3 3d a1 b2 7c bd 13 10 01 be
       0.018908441 0.10337249 -0.06169379 -0.12603788
000230 9e 95 21 3c 74 48 47 3c 92 36 28 be 1c 74 f3 3d
       0.009862332 0.01216327 -0.16427067 0.118873805
000240 f5 32 19 3e ae ba 96 bd 1a 7b df bd 8b c7 be 3c
       0.14960845 -0.07359825 -0.10912152 0.023288509
000250 e4 5d f0 bd 8f 73 0c bd 3e 86 10 be f6 96 20 bd
       -0.11736658 -0.034289893 -0.1411371 -0.039206468
000260 ca 1f ba bd 71 2a bb bd ca 0d b9 bd 87 14 bd bd
       -0.090880945 -0.091389544 -0.09035833 -0.09232431
000270 71 ae 1c 3e 2b 0d 24 3e aa 2b 4e bd 57 e0 0e be
       0.15300919 0.16020648 -0.05033461 -0.13952766
000280 55 dc ee 3d 11 7d 94 3d e8 b9 19 be 63 e2 90 3d
       0.11663119 0.07250417 -0.15012324 0.0707443
000290 b5 51 63 3d ce 9b c3 bc 32 bc 2e 3e 8a 0f cd bd
       0.055497844 -0.023878004 0.17063978 -0.100127295
0002a0 43 f6 d0 3d 35 69 94 3a 62 18 21 3e 06 60 0e be
       0.10203221 0.0011322858 0.15731958 -0.13903818
0002b0 f3 88 65 bc 64 e4 0b be a3 37 8c bc c3 6b ff bd
       -0.014009702 -0.13661343 -0.017116373 -0.12471726
0002c0 d6 2a 0f 3e a4 f5 e1 bc 46 d7 b6 bb 39 fb 1a be
       0.13981184 -0.02758295 -0.005579862 -0.15134896
0002d0 1d a0 ed 3d 2a 03 a1 bd 1c 91 d4 bd ff 1e 01 3e
       0.11602805 -0.078619316 -0.1037924 0.1260948
0002e0 d5 3b 15 3e 56 2c 22 3e b4 72 49 bd dd f9 2f bd
       0.14573605 0.15837225 -0.049181655 -0.042962898
0002f0 98 e3 08 3d b9 48 6c bd 38 8e 15 be f1 1b c5 3c
       0.033420175 -0.05768654 -0.14605033 0.024061175
000300 28 d5 32 3e e5 f9 01 be 82 6d 74 bc 5d 39 e7 bd
       0.17464125 -0.12692983 -0.014918687 -0.11290238
000310 32 cc b9 3d e9 ff d2 3d de 23 04 be 58 33 b5 bd
       0.0907215 0.10302717 -0.12904307 -0.08847684
000320 7c 85 dd bd 6a bd cd bc a0 cd 04 be 7d fe f5 3d
       -0.10816476 -0.025114734 -0.12969065 0.120114304
000330 97 6f ec bc 76 a5 fe 3d 40 a3 8e 3c 71 ce 10 3d
       -0.028861804 0.12433903 0.017411828 0.035353128
000340 55 5e 94 bd 91 ef a8 bd 39 71 22 bd 48 c3 a6 bd
       -0.07244555 -0.08248819 -0.03965876 -0.08142716
000350 c1 41 c3 3d ec c9 05 be 58 29 70 bd 79 58 12 3e
       0.09534026 -0.13065308 -0.05863318 0.14291562
000360 f0 85 6d 3c a4 31 80 3d df 6f 0b be 7c e7 ee bd
       0.014497265 0.06259468 -0.13616894 -0.11665246
000370 ad 43 8b bd 95 67 a6 bd d8 35 ad 3c ae be d6 3d
       -0.068000175 -0.081252255 0.021143839 0.10485588
000380 8c 6c fd 3c 17 78 02 be a9 78 20 3e 9d 18 1b be
       0.030935548 -0.12741123 0.15671028 -0.15146108
000390 a5 e3 a4 bd d6 22 32 bd ae b8 fd bd 2b cf 14 be
       -0.08051232 -0.043490253 -0.123887405 -0.14532153
0003a0 f0 8b 16 bc 45 1b 14 3e 1d 3c ab bd 1a 06 8d 3d
       -0.009188637 0.14463528 -0.08361075 0.068859294
0003b0 2c 8b fb bb c0 25 b9 bb 58 fe 6a 3d a5 36 fb 3d
       -0.0076765027 -0.005650252 0.057371467 0.12266282
0003c0 40 a9 25 be 9a fc 9a bd 73 6a 17 3e 00 17 10 3e
       -0.16177845 -0.07567711 0.14786701 0.14071274
0003d0 50 2e 0d bb 85 d1 52 3c 26 ca 08 3e 0a f1 4d 3d
       -0.0021542497 0.012867336 0.13358364 0.0502787
0003e0 3f fd 1d bd 61 8d 0c be 98 01 cb 3d 76 f8 8d 3d
       -0.038571592 -0.13725807 0.09912413 0.06932156
0003f0 ad 90 da 3d 99 74 0e 3e 88 81 8c bd f6 4a 4c bd
       0.10672126 0.13911666 -0.068606436 -0.049876176

bias f4 [40]
000000 36 47 61 3d 40 c8 e5 3d 84 10 04 bd 4f d5 b4 3d
       0.054999553 0.11219835 -0.032242313 0.08829748
000010 72 e4 a5 bd e3 06 0e be 94 99 57 bd f8 ac 81 3d
       -0.08100213 -0.13869815 -0.052636698 0.06331819
000020 49 81 13 3d 31 1f 66 3e 62 f7 29 3e d1 20 91 3c
       0.036011968 0.22472836 0.16598275 0.017715843
000030 4f 3f 56 3e 02 67 d4 bd bd ce 86 bd 78 9f 0d 3e
       0.20922588 -0.1037121 -0.06582401 0.13830364
000040 44 97 36 be e0 60 62 bd 5a 98 67 be 1b 78 76 3d
       -0.17831141 -0.05526817 -0.22616711 0.060173135
000050 b5 b4 81 3d f9 19 c8 3d 2f c9 f3 3d 92 3a a4 bd
       0.06333295 0.09770579 0.11903607 -0.08018984
000060 c4 77 43 3e 30 bd 29 bd d0 57 44 bc b4 9f 12 bc
       0.19088656 -0.04144019 -0.011983827 -0.008949209
000070 97 66 35 bd b2 2d 87 bd 04 58 e8 3c a6 f7 5d bd
       -0.04428729 -0.066005126 0.028362282 -0.054191254
000080 f3 ad f5 3c 55 f0 2a bd 6c 1f 86 3d 61 75 db bd
       0.029990172 -0.041733105 0.06548962 -0.107157476
000090 5f 3d 8e 3d 01 89 49 be 70 c9 50 3e 85 00 1c 3e
       0.06945299 -0.19681169 0.20389342 0.15234573

weight f4 [1, 40]
000000 36 a9 5f 3d f5 ab 82 3c 70 da 99 be 25 9d 17 3e
       0.05460473 0.015951136 -0.30049467 0.1480604
000010 8a 8a 27 3e 01 72 9a bd 52 83 2f be ca 57 06 be
       0.16361442 -0.07541276 -0.17139938 -0.13119426
000020 df ea 8f bf 48 48 9c 3f 5a 26 21 be dc ff 15 bf
       -1.1243552 1.2209558 -0.15737286 -0.58593535
000030 9b ea ac 3f 39 02 93 3e 11 b8 f3 3c 99 d3 3a 3f
       1.3509096 0.28712633 0.029750856 0.7297912
000040 61 b6 52 3f 4b e5 3a be a3 0a 3b 3f 35 7d 1b 3d
       0.8230954 -0.18251531 0.73063105 0.037961204
000050 20 86 be 3d 0d 20 e1 bd 0e 2c ad be 6a 9a 18 bf
       0.09302926 -0.10992441 -0.33822674 -0.5961062
000060 ed cd 92 3e da eb 4b be f5 aa a9 bd 1d 4d ff bd
       0.28672734 -0.19914189 -0.082845606 -0.1246588
000070 ac a8 f8 bd bc 63 88 3d bc e5 27 bf 22 43 04 bd
       -0.121415466 0.06659648 -0.6558492 -0.032290585
000080 19 59 65 bd 77 da a1 3e 88 43 b7 be 2d f3 08 be
       -0.055993173 0.31611988 -0.3579371 -0.13374014
000090 6e 84 83 bf b2 08 e3 3e 4f 28 4b 3f 62 a4 92 3e
       -1.0274789 0.44342571 0.7935838 0.2864104
