learning/model/dnn/model_4.pth (torch, 11415 bytes, 5 tensors)

weight f4 [40, 7]
00000000: 7057 37bd 3526 2ebe 54a0 35be 48a0 5a3d
00000010: b020 a6bc 58b9 58be 8046 7ebc 9343 1d3f
00000020: e281 15bf fe12 0abf 793c a43e dfba e03e
00000030: 207c 8e3e 2474 8e3e 1192 39be 8ea2 8c3e
00000040: c019 c23e b035 923e 58f9 e73e a1e1 bfbd
00000050: d658 b9bd 6f74 96be 70c3 cc3d 7891 c1bd
00000060: 0acb afbd e320 39bc 2398 ce3e 82d3 7a3b
00000070: 82b6 09be cdde d53e 3e68 443e 1fb2 1e3e
00000080: 87e6 6a3e b440 d03e 20b9 c73d 9afe 59be
00000090: 2075 bfbd 3608 39be 7d8e 50be 5ced 9f3e
000000a0: 4e12 153e e8ba ed3c d5e6 06bf 6ef3 2b3f
000000b0: 9885 d63e 018d 663e 9ffa e73d 0ff3 0cbe
000000c0: 1192 e8bc 1fe3 78be ea09 103f 1586 03be
000000d0: c2e1 bdbe 33f1 163f d8fb 193d 7298 753e
000000e0: 08dd 9f3e 7845 5d3e 6b5f ed3d c735 d63e
000000f0: 531f 923e aaff 613e 1c5c 48be 66ae a93c
00000100: 531f 1ebf ecad 083f ee67 203e f696 0e3e
00000110: 4c27 08be 0143 6ebd bdf6 d23e ade0 f1be
00000120: 18b6 23be c146 893d 11ad ad3e bb57 7fbe
00000130: 148e ba3c 13f8 953d e78f 0bbb abcf 1c3f
00000140: aad8 243f b3cc 523e 9def 233e 1c07 073e
00000150: 3b40 1f3d 993d 97be 87cf 15be a9d6 69be
00000160: 53cd be3e cb55 69be 7101 963e 953f 6bbe
00000170: 6908 30be 32b3 b1be 7979 883e bfb3 02bd
00000180: 3bbc a4be 0ac4 55be 5515 b8bd 32bc 7cbe
00000190: 4820 043d 5d77 0ebd c1c4 b4be 9fd1 643e
000001a0: c252 96be 4e41 a7be d50b 85be e8ce c6bd
000001b0: 001e 9c3b 4ec2 333e 08d6 8f3d 8084 32be
000001c0: a189 cabd 3465 e03d 2b11 0fbe f656 c4be
000001d0: c755 af3e b2ed f73b 164e 273e 58bb 1f3f
000001e0: 8b9c 2abf 59e4 1dbf a350 14be 6211 d5bd
000001f0: 3ed3 7d3e 0614 0ebe 41e8 afbe c5d2 02be
00000200: 71de f73c 43df c03e e048 1d3e 44eb 86be
00000210: d7a9 b0bd cae9 803e 2c23 3ebe 81f3 ac3c
00000220: c933 4f3e 1a96 39be 14a0 b1be 2d35 4fbe
00000230: 6afc 603d e4e4 cebd a8a3 8c3e a3a9 2fbe
00000240: bb16 69be 03b7 1c3e 53de 9ebe 6410 973d
00000250: 2dc8 1b3f 36e8 1d3f 2dda c03e 7f4b d3bd
00000260: 52b0 44be a2d5 edbb 9792 ae3d dc48 74be
00000270: 98aa 343f a47d e83e 2676 fc3e 409c 863e
00000280: 76f8 493c 4671 6bbe a3d9 aa3d c5dd 2abe
00000290: b04f 20be 16ce 4cbe 2d31 743e d462 d5bd
000002a0: 0bf5 a7be 0c62 99be f328 1dbe 2049 f6bd
000002b0: 3b83 b3be 1023 b8bc 8890 08be 74ca 233f
000002c0: a661 1abf b03c 43be b52e 94be 63be 263d
000002d0: c517 433e dd7f 4c3d c55f abbe 8c3d 1ebe
000002e0: 743b f4bd f4e8 83be 4c0f 193e 284a 88be
000002f0: 8047 5a3e 4ef4 b7bd 90e3 a1be 28f5 fb3c
00000300: e187 243e 7872 803e 827c 9a3e 670e a9be
00000310: d043 403e 7cab 1a3d 14dd 053f 0393 19be
00000320: b57c cabc fa4e 00be 6657 843e e047 4ebd
00000330: 1662 173e 722e 87be 103a 413d b88b 40bd
00000340: 64b1 c63d c05d 7e3c 940d 53be 672f b7bd
00000350: b34f 8c3e 0cd0 0fbf 3121 a0be 77ae 8d3e
00000360: c3ff 7c3e a1ed 263f 680a 39bf bfa9 e2bd
00000370: d03e 1ebd dc2a a23d 08e5 913d ca92 5d3d
00000380: 1804 1cbf 922f c3bd 3beb d13e f241 c53e
00000390: ee88 183e 8950 7a3e d869 7a3e 75a7 5a3e
000003a0: 7d0c 093e 51ac 14bf 765e 7a3e a8a1 86be
000003b0: 601b 0abd 5a68 043e 8eb5 bebe ccc8 cd3e
000003c0: 224b dd3e d9df ef3c 9b06 703e c60a afbd
000003d0: 2d9a b93b a69d 523d 5319 7f3e 870a 173f
000003e0: 7fc5 92be f394 1fbf c631 8a3e 2178 51bc
000003f0: 79ae 99be 2354 68bd 5385 123e bc9d f73d
-0.04476112 -0.17006762 -0.17736942 0.053375512 -0.020279258 -0.21164453 -0.015519738 0.61431235
-0.5840131 -0.5393523 0.32077387 0.4389257 0.27829075 0.27822983 -0.18122126 0.2746777
0.3791027 0.28556585 0.45307422 -0.09369207 -0.09050147 -0.29385707 0.09998214 -0.09451574
-0.085836485 -0.011299345 0.40350446 0.003827304 -0.13448527 0.41771546 0.1918039 0.15497635
0.22939502 0.40674365 0.09752107 -0.21288529 -0.09348512 -0.18069538 -0.20366855 0.31235778
0.14557764 0.029019788 -0.5269597 0.6716832 0.418988 0.22514726 0.11327099 -0.13764594
-0.028389962 -0.2430539 0.5626513 -0.12844117 -0.37086302 0.5896179 0.037593693 0.23983935
0.3122332 0.21608531 0.11590465 0.41837904 0.28539523 0.22070184 -0.19566387 0.020713042
-0.61766547 0.53390384 0.15664646 0.13924775 -0.1329624 -0.05816937 0.4120387 -0.47241727
-0.15987432 0.06702948 0.33921102 -0.2493581 0.022772826 0.07322707 -0.002129549 0.61254376
0.64393103 0.20585899 0.16009374 0.13186306 0.038879614 -0.29539183 -0.14629947 -0.22835793
0.37266025 -0.22786634 0.29297975 -0.22973473 -0.17190708 -0.34707028 0.26655176 -0.0319097
-0.32174858 -0.20875564 -0.08988444 -0.24681166 0.03225735 -0.034781802 -0.3530636 0.22345589
-0.29360014 -0.3266701 -0.2598559 -0.09707433 0.0047643185 0.1755459 0.07023245 -0.17433357
-0.09889532 0.10956803 -0.13971393 -0.38347596 0.3424513 0.0075661773 0.16338381 0.6239524
-0.66645116 -0.61676556 -0.14483885 -0.10403706 0.24787614 -0.13874826 -0.34356883 -0.12775715
0.030257436 0.37670335 0.15359831 -0.26351368 -0.086261444 0.25178367 -0.18568105 0.021112205
0.20234598 -0.18123665 -0.34692442 -0.20235129 0.05492822 -0.10102251 0.2746861 -0.17154555
-0.22762577 0.15304188 -0.31028995 0.07376173 0.6085232 0.6168245 0.37666455 -0.10317134
-0.19207886 -0.007258133 0.085240535 -0.23855919 0.70572805 0.45408356 0.4930889 0.26291084
0.012327304 -0.22992429 0.08342292 -0.16686161 -0.15655398 -0.2000049 0.23846884 -0.104192406
-0.3280414 -0.29957616 -0.15347652 -0.12025666 -0.35061058 -0.022477657 -0.13336384 0.63980794
-0.6030525 -0.19066119 -0.28941885 0.04070891 0.19052036 0.049926627 -0.33471504 -0.15453166
-0.11925402 -0.25763667 0.14947242 -0.26619077 0.21316338 -0.08982144 -0.3161893 0.030756548
0.16067459 0.25087333 0.30173117 -0.330188 0.18775868 0.037761196 0.52290463 -0.14997487
-0.024717668 -0.12530127 0.2584793 -0.050361514 0.1478351 -0.26402622 0.047174513 -0.047008246
0.09701803 0.015525281 -0.20610648 -0.08944588 0.27404556 -0.5617683 -0.31275323 0.2767217
0.2470694 0.6520634 -0.72281504 -0.11067533 -0.03863412 0.07918331 0.07123762 0.054095067
-0.60943747 -0.09530558 0.4099978 0.38526875 0.14895985 0.24444784 0.24454439 0.21352942
0.1338367 -0.58075434 0.24450096 -0.2629521 -0.033717513 0.12930432 -0.3724789 0.40192258
0.43221384 0.029281544 0.2344002 -0.08546977 0.005664131 0.051419877 0.24912004 0.5900044
-0.28666303 -0.62336653 0.269911 -0.012784989 -0.30015925 -0.056720864 0.14308672 0.12090632

bias f4 [40]
00000000: 50c8 86be 0324 36be 10d3 a83e 339f d4bd
00000010: d62f 80be 41ee 8cbe 213b 6abd 3e8d cdbb
00000020: 4ea7 963e 16d6 093c 60a1 053e 8703 2fbf
00000030: 91f4 94be f9fc aa3e 1c32 06be b2b9 9fbe
00000040: 49e3 f63c b530 0e3e 1d93 b53d 58b8 8bbe
00000050: 7ece ce3d 2ade 623e 818d f5be 3d55 96be
00000060: c074 9c3d ae51 8b3e aa70 88be 0fcc 2dbd
00000070: 38ad 1abd 7eff b5be 09e7 9c3e 4ada 8f3d
00000080: 2c25 0fbf 0204 293f 597b 8dbc 9262 72be
00000090: 987e 3b3e ac0c a33e 6b9e 4b3e 5bf7 463e
-0.263247 -0.17787175 0.32973528 -0.10381927 -0.25036496 -0.27525523 -0.057185296 -0.006272941
0.29424518 0.0084128585 0.13049841 -0.6836476 -0.2909284 0.33396128 -0.13105053 -0.31196362
0.030137675 0.13885768 0.0886595 -0.2728908 0.10097979 0.22155061 -0.4795952 -0.29361907
0.07639456 0.27210754 -0.26648456 -0.042430934 -0.03776285 -0.35546488 0.30645016 0.07024057
-0.55916095 0.6602174 -0.01727073 -0.23670414 0.1831001 0.31845605 0.1988465 0.19430296

weight f4 [40, 40]
00000000: 4a04 ec3d e426 f5be 157a 2f3e 62f6 7f3d
00000010: 56ce 443e 7cb0 003e 21db e73e 8f45 e13e
00000020: 4961 84bd 417a 76bc 9298 51be b5b7 db3e
00000030: 1cad 823c 4efc c13d c562 3fbd 8c8b 2cbd
00000040: 9061 ec3d 0faa edbd 89d0 cb3d b340 e63d
00000050: 7106 0bbe 02a5 713e 0994 bf3e e1a0 0bbb
00000060: 66b8 09be e493 cabe 5617 603c 3fce f43c
00000070: 62bd a8bd 3fa9 073e 470d 02bd 173e bcbe
00000080: 1da8 853e 9064 ff3a 468d 993e eaf0 a5be
00000090: fb67 e73d 38af fb3c 99bd 6fbc 99bf ddbd
000000a0: 0080 773b 0255 0abe e535 babd e527 e8bd
000000b0: 18b5 a03d 886b 61bd ba6f d13d f030 d9bc
000000c0: 1632 08be 103f 1d3c e159 0e3e cadf e43d
000000d0: c0f7 a23b d616 1cbd cc5b 6e3d 306d 0abc
000000e0: 1c54 c0bd 0838 bcbc aeef f73d 7207 9dbd
000000f0: 5cc8 993d 3b26 1fbe e0bc e7bc 3035 c63c
00000100: 10a4 733c abc0 88bd 74df 243d 3cc8 79bd
00000110: 6b9c 17be e8dc 62bd 01e8 063e b35f 103e
00000120: d28a f7bd d0cf dfbc 9cd2 72bd b057 63bc
00000130: 1f29 a3bd 99c0 023e 84d1 bb3d 47f6 cfbd
00000140: 3eee ec3d 1a97 0dbe 4a40 ad3b 36bf 20bd
00000150: 764f 0b3d 00eb 5dbc e9f1 143e 58ea 86bc
00000160: 657c 923c b6ea c8bc da50 0ebe 2654 07be
00000170: 4138 93bd 9a98 d83d 1310 123d 4226 61bd
00000180: d04f be3c cfd4 c93d 091c 04be e626 75bd
00000190: c124 c53d 0c9c c6bd 1105 64bc 4c9a 97bd
000001a0: 904c 1b3d 3310 6f3d a2fb 5dbd bc4b d93d
000001b0: dbe2 fb3d 40ea bcbc 590a ac3d 5d35 16bd
000001c0: 465d ee3d 3c3e b43c ecba 05be e263 df3c
000001d0: 6845 03be c827 1dbe 90e5 bdbd 68c6 833d
000001e0: 7064 0f3c f7b1 6bbc 3d61 02be 0237 ed3d
000001f0: eaee 2bbe 7b2b 0ebe dee4 0f3e 428b bb3d
00000200: 882a 0e3e 542f 71bc 564b 91bc 96c4 163d
00000210: e6b0 8b3d e58f 4fbd 5161 19be 76eb ec3d
00000220: b5a6 8bbd 4d00 143d 2d62 73bc c89a 093e
00000230: f40b 573d 7d20 5b3c 3f70 27bd 8455 08be
00000240: 92d8 a63d bf43 833d 67c5 213e 0364 c83c
00000250: c747 9bbd 6627 b63d 56a5 02be 85fa 103d
00000260: 69ee 953d 7e19 223e 96f9 88bd 919d b1bd
00000270: 1b3b 8e3c 3b72 68bd d04c f2bd e62f 88bd
00000280: b88b 8dbc 53bc 833d 079c 193e 6c97 7fbd
00000290: 473a 0ebe 31b0 27bc 4986 a63d 8748 14be
000002a0: 29e3 a53d 839c 9abd 1ff1 223d 5d98 583d
000002b0: 079c 3abd 85e7 5abd 3dc2 1d3e 1070 35bc
000002c0: ad9e 883d aa2a 9e3c 4faf 983d 7f51 d5bd
000002d0: 96a6 8c3d f7e5 7cbd c0b8 1dbc 2737 783c
000002e0: 31a7 d23d 4eca 1f3e f2c5 37bc 351d 8dbd
000002f0: 47bf 1f3e a02d 453d 8c66 8cbd 4976 33bd
00000300: 680d 343d 1097 12be 61a9 cbbd 6ca1 2c3e
00000310: 93fe 34bc 37f6 6f3d 200d 293e 71e8 bc3d
00000320: 519e 98bd 4067 4ebd 898a cbbd ec59 903d
00000330: 3554 1abe c782 9cbd 9520 ef3c f7b3 13be
00000340: 7b0f f63c 7a14 23bd cd79 01bc 9322 093e
00000350: 74a1 113d f3b1 433c 986e e7bd 506d 82bd
00000360: 592d eebd 4cde edbd 1e51 be3d cb55 0f3e
00000370: e2dd c3bd 1032 df3d f098 9fbd daa4 0fbe
00000380: e8db a03c 001e 8ebd 2a78 5ebd 9e03 cebd
00000390: c255 4c3d 802a b53a 9e24 a63d 2629 d73d
000003a0: aeff d93d 4e0f 3cbd fcc4 01be 2cae 14be
000003b0: 612b 3abd 8d7f 21be 3023 d83d abe7 1f3e
000003c0: b088 eabc b13a 9cbc 2cc3 a03d 92e7 7abd
000003d0: 279e 18be 2a89 b83d 0d4e 6e3d 1944 a43d
000003e0: b311 02be c65a 9d3d 79ff 893d bb10 623d
000003f0: f5ed a4bc 4efe bcbd 3856 d9bd f8fd 653d
0.115242556 -0.47881234 0.17136414 0.06249083 0.19219336 0.12567323 0.4528437 0.43998381
-0.06463868 -0.015043796 -0.20468357 0.42913595 0.015951686 0.094719514 -0.046725053 -0.04212527
0.11542046 -0.11604702 0.09951884 0.11242809 -0.13576676 0.23598102 0.3741763 -0.0021305608
-0.13449249 -0.39565957 0.013677439 0.029883502 -0.08239247 0.13248156 -0.031750944 -0.3676612
0.26104823 0.0019484926 0.29990596 -0.32410365 0.112991296 0.0307232 -0.014632606 -0.1082756
0.0037765503 -0.1350899 -0.09092311 -0.11335734 0.07847041 -0.05503419 0.10226388 -0.026512593
-0.13300356 0.009597555 0.13901474 0.11175497 0.0049733818 -0.038107716 0.058193013 -0.008448884
-0.093910426 -0.022975937 0.12106262 -0.07667436 0.07508919 -0.15541928 -0.028288305 0.024195284
0.0148706585 -0.066773735 0.040252164 -0.060981974 -0.14805762 -0.055386454 0.1317444 0.14099006
-0.12087025 -0.027320772 -0.059282884 -0.013875887 -0.079668276 0.12768783 0.09170821 -0.101543956
0.115688786 -0.13827172 0.005287205 -0.039244853 0.034011327 -0.013544798 0.14545406 -0.016469166
0.017881582 -0.024525981 -0.1389803 -0.13215694 -0.07188464 0.105759814 0.03565986 -0.054968126
0.023231417 0.09855043 -0.1290132 -0.05985155 0.09626151 -0.09697732 -0.013917224 -0.07402477
0.037914813 0.05836506 -0.054195054 0.10610148 0.122991286 -0.023060918 0.08400411 -0.036671985
0.11638884 0.022002332 -0.13059586 0.027269308 -0.12819445 -0.15347207 -0.09272301 0.06434327
0.0087519735 -0.014385692 -0.12732406 0.115827575 -0.16790357 -0.13883774 0.1405215 0.09157421
0.13883412 -0.014720757 -0.017736118 0.036808573 0.0682085 -0.050674338 -0.1497853 0.11568348
-0.06818906 0.0361331 -0.01485495 0.1343795 0.052501634 0.013374445 -0.04087853 -0.13313872
0.08146776 0.06409406 0.1579796 0.024461752 -0.0758205 0.088942334 -0.12758383 0.035395164
0.07320864 0.15830037 -0.0668823 -0.086726315 0.017362168 -0.056749564 -0.11831057 -0.06649761
-0.017278537 0.06432404 0.15000926 -0.062400267 -0.13889419 -0.010234878 0.081310816 -0.14480792
0.08099968 -0.075493835 0.039780732 0.05287968 -0.045558956 -0.05344345 0.15406127 -0.011074081
0.0667089 0.019307453 0.074553125 -0.10415935 0.06867711 -0.06174275 -0.009626567 0.015149868
0.102857955 0.15604517 -0.011216627 -0.068903364 0.1560031 0.048139215 -0.06855497 -0.043813977
0.043958098 -0.14315438 -0.09944416 0.16858453 -0.011047023 0.05858442 0.16508913 0.09224022
-0.074520715 -0.050391436 -0.09938533 0.07048401 -0.15071185 -0.07642131 0.029190341 -0.1442412
0.030036679 -0.03981445 -0.007902575 0.13392095 0.035554364 0.011944282 -0.11300391 -0.06368506
-0.11629743 -0.116146654 0.092928156 0.13997571 -0.09563805 0.108982205 -0.077928424 -0.1402773
0.01963611 -0.06939316 -0.054313816 -0.10059284 0.049886473 0.001382187 0.08112453 0.10505895
0.1064447 -0.045913033 -0.126728 -0.14519566 -0.045451526 -0.15771313 0.105535865 0.15615718
-0.02862963 -0.019070955 0.07849726 -0.061256 -0.1490408 0.09010537 0.058179904 0.08020801
-0.12702064 0.07683329 0.06738181 0.055191737 -0.020132998 -0.09228192 -0.10612148 0.056150407

bias f4 [40]
00000000: c0d7 10be a0fe 913b 724e fabd 9cce 013e
00000010: e9d2 a63d b6ae ecbd 9577 23be 385a f73c
00000020: 73fb 81bc 8c04 89bd 1e2f eb3d 1fde ac3d
00000030: 667e 783e 9f96 0ebe 9531 bdbd 60b8 433d
00000040: 3c1b 863e 0fe4 f9bd 4d72 0fbe 1d61 0a3d
00000050: ea5e 933c fc73 cfb9 f0cf bd3e 12aa 383e
00000060: 92d3 e2be 3f1f 41bd f310 0fbd 6534 82be
00000070: bba1 99be fef8 b33d bb4c 9b3d df3f 533d
00000080: ce1c 9abd 6fe0 ca3c f706 7d3d dddb 16be
00000090: 6bdf bbbd 72e8 6cbd de2b 36bd 4133 b83d
-0.14144802 0.0044554025 -0.122219935 0.12676471 0.08145697 -0.11556761 -0.15963586 0.030194387
-0.01586697 -0.066903204 0.11483596 0.08440804 0.24266967 -0.13924645 -0.09237973 0.047783256
0.26192653 -0.12201702 -0.14008446 0.03378402 0.017989594 -0.00039568532 0.37072706 0.18033627
-0.4430204 -0.04714894 -0.034928273 -0.254306 -0.30006203 0.08787726 0.075829946 0.051574584
-0.07525025 0.024765221 0.06177422 -0.14732309 -0.09173473 -0.057838865 -0.04447543 0.08994151

weight f4 [1, 40]
00000000: b325 a33f d645 db3d 8233 353d bd99 383e
00000010: b493 39be 57e5 133e add5 8abd 8c86 283c
00000020: 51b5 f4be fd6c 203e 565b 513f 93b3 cf3c
00000030: 87ea ccbe 55c4 9ebd f55b 833b 26db 27bf
00000040: 85f4 85bf c4ed cf3d b362 063e f9b4 efbd
00000050: a1a1 c53d 9569 4bbe bc49 aebf 1f27 acbe
00000060: e0e5 963f 1a8e 19bf 82d9 0c3c 51c5 773f
00000070: 3190 853f 1d1c bbbe c607 b93f eb68 c4be
00000080: 2afd 7e3e 8700 443e 2823 2f3e 96c2 d53d
00000090: 72e1 ef3e d8c3 c03e 62b2 223f 2a4d 0bbf
1.274588 0.107066795 0.044238575 0.18027397 -0.1812275 0.14442955 -0.06779037 0.010285985
-0.47794583 0.15666576 0.8177999 0.025354182 -0.4002268 -0.07752291 0.004008765 -0.6556877
-1.0465246 0.10152772 0.13123588 -0.1170444 0.09649969 -0.19864495 -1.3616252 -0.33623597
1.1788902 -0.59982455 0.00859678 0.96785456 1.0434629 -0.36544886 1.4455497 -0.38361296
0.24901262 0.19140826 0.17103255 0.10437505 0.4685169 0.37649417 0.6355344 -0.5441462
