learning/model/dnn/model_1.pth (torch, 11415 bytes, 5 tensors)

weight f4 [40, 7]
00000000: d065 81be 6e5b e03e 50d7 03bf 3c52 743e
00000010: 971a 153e 3e31 8e3e 286f f1bd a3bf a13e
00000020: eaa1 453e 216a e63d f114 4ebe b3f9 123e
00000030: b0a4 1fbe 5f5c 4dbe ce57 ad3d e197 9dbe
00000040: 199d 8dbe bf4d e4bc d7f4 343e 6dba 803e
00000050: daf2 37bd 5b23 55be d0f3 cabd 452b 1b3d
00000060: 65f7 d83d e9e4 673d f719 213e ffd3 963e
00000070: ca42 613e 9953 85be 7335 79be 2a62 c0be
00000080: 5cf0 97be c2d2 853e 235a cabd f3e2 29bd
00000090: 3fa7 1dbe a9fb d53e 700d e43d 57bc c03e
000000a0: c205 393e 2522 cebd e246 ad3e 04e2 79bd
000000b0: 6843 62be dfab 973d 7c46 99bd 7514 9b3e
000000c0: 67cc 85bc 31b6 7b3d d5e2 753e 7c2c dd3d
000000d0: 536d b73d 2a86 8cbe 458f 9e3e a233 823e
000000e0: dfe2 793d f7ce b3bd 2da9 ef3d 87df 823e
000000f0: 09f3 8abc ae17 75be 0881 99be fc56 b5bd
00000100: 5928 c6bc 4311 093e 12ab 40bd b811 85be
00000110: d723 a8be e609 92bc f336 6dbe 0037 68bb
00000120: b054 46bd c1df 1abe a676 043e f9e0 4fbe
00000130: 8c06 86bd 826b 1ebe 740a dbbd 33de 223e
00000140: 8a29 cabe 1b2d 543e 6252 bfbe e465 393e
00000150: 3e0e 403e 4e88 af3d 1dca 93be d084 153e
00000160: 8ae8 6b3e cd13 d3bd 4fe5 20be 7df1 80bb
00000170: fed5 bd3e aad9 cd3e 297c 1a3e b308 5c3c
00000180: 1f5f 953e 232c 8d3e 5bee 413a 1811 1ebd
00000190: a3f5 13be ebb0 09be e2ad af3e a320 8fbe
000001a0: 9fc9 51be 0464 a2be ce71 c33d 356a 92be
000001b0: 1ea7 2c3e f7f3 afbe d19d 953e 8edc 153e
000001c0: 1aa5 db3e 4d29 f7bc 71ef babe 4936 91bb
000001d0: 4f7b 7abe b6a0 173e ac36 ec3d 7b1f 96be
000001e0: 570c 13be f7e2 463d 2107 413e 0fef 293e
000001f0: 0dff 383d f75d 133c 86bd 6ebe 2e90 913e
00000200: 7cec aabe 1e17 cbbd d39d c0bd 7373 42bc
00000210: cc1f 7f3d ff45 7cbe c309 b3bd aea2 a9be
00000220: af7b 583e a887 b33d 85a7 a03e ad1e 27bc
00000230: e4c8 453e 0485 da3e c167 a03e 4a17 e33e
00000240: 1f40 5c3e f5c9 3a3e f8fd 45be 6f39 6cbe
00000250: 3631 cd3e abbb bdbe b98e c9bd 9550 203e
00000260: 80fb 69be e369 65bd 0553 aabe 8d46 63bd
00000270: 8372 7d3e 5e12 b4be 0b70 c73e ba3a 903e
00000280: f056 fd3d 4d41 b03e 0a6c f2bd 4907 dcbe
00000290: 84d1 43be 6309 3b3e 5c0c 703e a768 463d
000002a0: ba83 603e 1320 8c3e c56f bdbd 5afe 4b3e
000002b0: 769f 5dbe f02e c13e def6 6bbe b102 af3d
000002c0: af04 3ebe b7b0 80bd d34b 753e 9e6b 3e3e
000002d0: f88d 943d 701a f5bd 3520 3fbe 8c4b 993e
000002e0: a233 7f3e 4b08 4b3e 4def 4c3e 7ea0 a1be
000002f0: 10a0 833e 4fb3 95be dfcc 98bd 785a 34bd
00000300: 8a27 763e 638d aa3e 8d59 b13e 1b51 bfbd
00000310: 40b4 d7bc 4023 363c c00c febd a0ff 843d
00000320: 4eb9 9fbe 3ce1 c63d 6cad 83bd d81c 62be
00000330: 6f3e 8bbe 0917 95be d204 683e 743f 063c
00000340: 384f efbd c372 4abe 8163 833e 5d69 79be
00000350: 8094 9ebe 2820 873d b22f 21be eaab 933e
00000360: ed11 9ebe 0c32 ad3e 7ebb a8be 34a3 40be
00000370: 4113 6b3e 138e 0bbe 7dff 983e 48c5 a8bd
00000380: 6491 023e e23c 143e b228 9f3e 4d14 8cbd
00000390: 15fd be3e 2fd9 5fbd 35a3 4abe 3b88 063c
000003a0: ceb5 8d3d 4b56 a33e fc43 3fbe 23b0 5f3c
000003b0: 9106 70be fa7b b6be b9b7 1dbe 7853 9c3e
000003c0: ffb3 debe bec5 0f3e bd80 96be 5f1c 063e
000003d0: 1e00 6a3e 2211 953c 0a39 7ebe 2159 823e
000003e0: 29bb b7be 50eb 013e d040 823e 4142 b93e
000003f0: 5003 e93e 59f2 8ebe 03a2 80bd 73f1 6bbe
-0.2527299 0.43819755 -0.51500416 0.23859495 0.14560924 0.27771944 -0.117887795 0.3159152
0.19300047 0.11250711 -0.20125176 0.14353065 -0.15590167 -0.20054768 0.08464013 -0.30779937
-0.27658918 -0.027869103 0.17671524 0.25142232 -0.044909336 -0.20814268 -0.09909785 0.037883062
0.10594062 0.05661479 0.15732561 0.29458615 0.21998134 -0.26040342 -0.24336796 -0.37574893
-0.29675567 0.26137358 -0.098804735 -0.0414762 -0.1539583 0.41793564 0.111353755 0.37643692
0.18068603 -0.10065106 0.33843142 -0.06100656 -0.22096026 0.07405829 -0.07484147 0.30289045
-0.016332818 0.06145305 0.24012311 0.107995 0.08956399 -0.2744611 0.3096868 0.25430018
0.061007377 -0.0877971 0.117021896 0.25561163 -0.016961591 -0.23934814 -0.29981256 -0.088544816
-0.024189161 0.13385491 -0.047038145 -0.2599008 -0.32839844 -0.017826986 -0.23165493 -0.0035433173
-0.048420608 -0.15124418 0.12935886 -0.20300664 -0.065442175 -0.15470698 -0.10695353 0.15905075
-0.39484817 0.20720331 -0.3736754 0.18105274 0.18755433 0.0857092 -0.28865138 0.14601445
0.23037925 -0.10306511 -0.15712474 -0.0039350376 0.37077326 0.40205127 0.15086426 0.013429808
0.29174134 0.27572736 0.00073978835 -0.03859052 -0.14449172 -0.13446395 0.3431235 -0.27954587
-0.20487069 -0.3171693 0.09543191 -0.28596655 0.16860625 -0.34365818 0.29221967 0.14634916
0.428994 -0.030171061 -0.36510804 -0.00443152 -0.24461101 0.148074 0.11533865 -0.29320893
-0.14360176 0.048556294 0.18850376 0.165951 0.04516511 0.008994571 -0.23314485 0.28430313
-0.33383548 -0.09916519 -0.094051026 -0.011868346 0.062286183 -0.24636076 -0.08742096 -0.33131927
0.21140932 0.08766109 0.31377807 -0.010200185 0.19314915 0.42679608 0.31329158 0.44353706
0.21508835 0.18241103 -0.19335163 -0.23068784 0.40076607 -0.37057242 -0.09841675 0.1565574
-0.22849846 -0.056009185 -0.33266464 -0.055487204 0.24750714 -0.35170263 0.3895267 0.28169805
0.12370098 0.3442482 -0.11837013 -0.42974308 -0.19122893 0.182653 0.23442215 0.048439648
0.2192525 0.2736822 -0.09249834 0.19921246 -0.21642861 0.37731123 -0.23043391 0.08545435
-0.18556474 -0.06283706 0.23954706 0.1859574 0.07253641 -0.11967933 -0.1866463 0.2994045
0.2492204 0.19827382 0.20013161 -0.31567758 0.25708055 -0.29238364 -0.07460951 -0.04403159
0.2403852 0.33310995 0.34638634 -0.093416415 -0.026331067 0.011116803 -0.124047756 0.06494069
-0.31196064 0.09710929 -0.06429562 -0.22081316 -0.2719607 -0.29119137 0.22658089 0.008193839
-0.11685032 -0.1977034 0.25661853 -0.24356599 -0.30972672 0.0659793 -0.1574085 0.28842098
-0.3087305 0.33827245 -0.32955545 -0.18812257 0.22956564 -0.13628416 0.29882422 -0.082407534
0.12750775 0.1447635 0.31085736 -0.068398096 0.3730246 -0.05465048 -0.19788821 0.008211191
0.06919442 0.31901774 -0.18678278 0.013652834 -0.23440005 -0.35641462 -0.15402116 0.30532432
-0.434967 0.14040276 -0.29395095 0.1309676 0.22851607 0.018196646 -0.24826446 0.25458625
-0.3588498 0.12687421 0.25440073 0.3618336 0.4551034 -0.27919272 -0.06280901 -0.23041324

bias f4 [40]
00000000: 60d0 8cbd 9c29 4a3e 0b0a d03e 5ccc c13c
00000010: 9d04 15be 780a 423e 1d59 b33e a70a 6cbe
00000020: cb8a cb3e 074a 38bd 4e85 82be 627b 803e
00000030: 16e6 3b3d 3742 603d 6511 67be 7437 3f3e
00000040: 476f 80be 3cbe c03d 145a a73e 1474 0e3e
00000050: 5de5 163e 007f ae3e 871d 013d 2f08 043f
00000060: b978 40be 59a3 86bd 1e99 8a3e 152c 8f3e
00000070: 115b 73be 19bd 643d 076e 8fbe f1fc 8b3c
00000080: 0715 913e 32c5 07bd 79a7 9c3e b882 39bc
00000090: cef5 4a3e a3e8 31be b093 1ebd d48f 9d3e
-0.06875682 0.19742435 0.40632662 0.023657016 -0.14552541 0.18949306 0.35028926 -0.23050939
0.39754328 -0.044992473 -0.25492328 0.25094134 0.045873724 0.054750647 -0.22565229 0.18673497
-0.25084898 0.09411284 0.32685912 0.13911468 0.14735933 0.34081268 0.0315223 0.5157499
-0.18796052 -0.06574125 0.27069944 0.2796332 -0.23765208 0.0558444 -0.28013632 0.017088385
0.28336355 -0.033147044 0.30596521 -0.01132267 0.1982033 -0.173739 -0.038715065 0.30773795

weight f4 [40, 40]
00000000: acb5 35be fa10 163e 9aeb 453d 6401 fdbd
00000010: a758 233d 93ac b53c c464 edbd 27e6 0c3e
00000020: 52f6 56bd daad d3bd 134f 0d3e d3a1 07bd
00000030: df90 093e 37f0 da3d 80b1 be3c 4d2d 933d
00000040: 3cea 8a3d 62d5 043d e5e1 eb3c 2e27 0bbe
00000050: 0e0c 56bd 523e 90bd a2a3 5e3d 9937 19be
00000060: 9399 113e b5d2 873d ab70 083e 951c c0bb
00000070: c0f8 70bb 075a 063e 2b6f f0bd eb4a e9bd
00000080: 7856 d43d 5a0d 313b f923 c03d ea65 db3d
00000090: 6765 143e 0045 7c3d 149f 4ebd 28e1 ff3d
000000a0: e052 0bbc e2e1 7abd c8aa acbd 07aa 5fba
000000b0: e576 e93d 2c9f d33d 438b 0a3e 02d1 723d
000000c0: 3ca1 1ebe d0a8 1b3d 6934 033e 38ff 73bc
000000d0: e374 a2bb 87c2 e7bd 708e 2bbc 4bf3 9dbc
000000e0: 980f d23d 5617 1ebe 32fe c7bd f0e4 273d
000000f0: 7873 803d 1cf5 6abd 77f7 1b3e f532 c9bd
00000100: 6739 dfbc f07b 253d be06 87bd 615c 1dbe
00000110: 6b5d f5bd 4555 063e 2504 10be b139 bbbd
00000120: 81c0 02be 22ff 14bc 6dc3 a3bd 78d6 283d
00000130: 1635 703d f2eb d8bd aeda 01bd 82ef b53d
00000140: c1e2 8d3d 726c c2ba d63d 8cbc 2f86 a13d
00000150: 7ce0 68bd bfc5 313e a5fa 033e b8c0 963d
00000160: 204a 93bd 59e2 cd3d 86a7 1ebe ad40 8a3c
00000170: 5e94 2f3d 93e4 f33d 6920 d7bc e831 c1bd
00000180: 1d5f 90bd 9e1d 0ebe 2398 13be bd23 b1bd
00000190: 34bd 273e 4176 e438 8879 96bd ac1a b83d
000001a0: ef3e 3fbd f502 44bc f7fe 94bc dadc 66bc
000001b0: f4f2 a1bd fb87 d53d 1eb6 fcbb 5607 a53c
000001c0: df12 cabd 30e5 08be f681 f33c 4281 d2bd
000001d0: b207 c3bd c8b2 7b3d 22d1 283e c75b 233e
000001e0: f1e4 95bd dc23 cbbd 951b 963d 58ba 66bd
000001f0: c696 5dbd b265 f33d 1b82 6abd 51af 14bd
00000200: ac14 0ebe db88 eebd 5857 4b3d 3ea6 1fbe
00000210: 64aa d63d 9886 dfbd c168 c7bd c1a9 dabd
00000220: 1289 bcbc 0143 193e 7c2d 713d f1ea bc3d
00000230: 2696 8a3d 1551 5e3d f1f0 09be 6772 f63c
00000240: 9fc2 b5bd b825 0cbe eb05 b13d 0fde e3bd
00000250: 1ab7 aabd 19af 153e 2a35 d33d ac13 f5bd
00000260: a5ec 70bd eb90 b43d efde 1d3d 4fe4 253a
00000270: e11e 1b3d b05f 07bc e8b3 c8bc 015b 1f3d
00000280: b0ec 35be e614 0b3c 01b2 cabd 4b98 163e
00000290: 2608 9b3d 5da8 183d 8e09 e3bd f122 ddbc
000002a0: e1f6 8b3d 47b5 773d d11a 0b3e 2457 9a3d
000002b0: 357f 8eba 2277 253e fcc7 a03d e499 89bd
000002c0: 7d51 c93c 84d3 33bd d999 b2bd dd81 fd3d
000002d0: 1ee1 163d 8701 ed3d 622b b0bd dd05 a13d
000002e0: 7ff1 7bbd 6a4b 9abd 6998 aa3d 70f0 d23d
000002f0: 42ac 1dbd fb9c 783d 77e0 d9bd 868f 1d3e
00000300: b4f9 e9bd b25a 29bb 00fb a53c ab08 83bd
00000310: cb3c 453c 2f3b 173e 2d51 6fbd 3e3c d93d
00000320: feaa f1bd 0485 b93c 66de 73be 1234 f63d
00000330: eb97 e8bd c0b7 103d 11b2 0ebe 8f5b cfbb
00000340: c1c5 173d dc61 95bd 2139 1f3e 8377 8bbd
00000350: 405e 54bd 893a 3c3e 3794 203d 42e2 f8bc
00000360: b896 0ebe eb80 273e dd33 f1bd 960f c8bd
00000370: 9599 523e 973d 3bbe bf94 313e 7e0e 12be
00000380: ead4 203d ef8b 3bbe 5149 563e 3aeb 4c3e
00000390: a8f9 eb3c c96d 583d 8a7a d7bd 3790 853c
000003a0: 6bed b03d 5991 76bd 1d8e f3bd 2aca f4bb
000003b0: 56a4 81be 9cce 7dbd 7d97 5e3c e4c0 04be
000003c0: 773c cd3c afe3 a0bc 2fa3 98bd 909e 2dbb
000003d0: 2e7f 8fbd 33a8 29be 956d edbd 0377 a9bb
000003e0: c3fa ab3d 08b6 0f3d dbc3 153e 9197 433d
000003f0: 1961 a03d 720c 10be 0f72 bebd 6daa 043e
-0.17745084 0.14654914 0.04832039 -0.12353781 0.039879467 0.022177016 -0.11591485 0.13759671
-0.052481003 -0.10335894 0.13799696 -0.033113312 0.1343417 0.106903486 0.023277998 0.07186375
0.06782958 0.03243006 0.028794238 -0.13589165 -0.05225759 -0.07043137 0.05435527 -0.14962615
0.1421874 0.06631986 0.1332423 -0.0058627822 -0.003676936 0.1312028 -0.117399536 -0.113912426
0.10368055 0.0027016015 0.09381861 0.10712798 0.14491807 0.06158924 -0.050444677 0.12494117
-0.008503646 -0.061250575 -0.084310114 -0.0008532111 0.113996305 0.10333094 0.13529687 0.059281357
-0.15491194 0.03800279 0.12812962 -0.014892392 -0.0049577816 -0.113164 -0.010470971 -0.01928105
0.102568805 -0.1543859 -0.09765281 0.040989816 0.06272024 -0.05736266 0.15231119 -0.098241724
-0.027249051 0.0404014 -0.06593083 -0.15367271 -0.11980709 0.13118465 -0.14064081 -0.09141863
-0.12768747 -0.0090940315 -0.07996259 0.04122016 0.058644377 -0.10591878 -0.03170269 0.08883573
0.069280155 -0.0014833345 -0.01711933 0.078869216 -0.05685471 0.1736059 0.12888582 0.07360977
-0.071918726 0.10052938 -0.15493593 0.016876543 0.042866103 0.119088314 -0.026260572 -0.09433347
-0.070493914 -0.13878486 -0.14413504 -0.08649395 0.16380769 0.00010893914 -0.07347399 0.08989462
-0.046690878 -0.011963596 -0.018187983 -0.014090741 -0.07907668 0.10426327 -0.0077121397 0.0201451
-0.098668806 -0.13368678 0.029725056 -0.1027856 -0.09522952 0.061449796 0.16486028 0.15952979
-0.07319058 -0.09918949 0.073294796 -0.056330055 -0.054098867 0.11884631 -0.057252984 -0.036300007
-0.13875073 -0.11647197 0.049643844 -0.1559076 0.10481718 -0.109143436 -0.09736777 -0.10676909
-0.023014579 0.14966966 0.058881268 0.09224499 0.0676692 0.054276545 -0.13470818 0.030083848
-0.08875012 -0.13686264 0.08643707 -0.11126339 -0.08335705 0.14617576 0.103128746 -0.11966643
-0.05881943 0.088167034 0.038542684 0.0006328271 0.037871245 -0.00826256 -0.024499848 0.038905147
-0.1776607 0.008488869 -0.09897233 0.14706533 0.075699136 0.03726994 -0.11085807 -0.0269942
0.06834198 0.060475614 0.13584448 0.07536152 -0.0010871651 0.16158727 0.07850644 -0.067188054
0.02457499 -0.04390289 -0.0872075 0.12378285 0.036835782 0.11572557 -0.086020246 0.078624465
-0.061509605 -0.07533915 0.08329851 0.10299766 -0.038494356 0.060696583 -0.106385164 0.15386781
-0.1142458 -0.0025841412 0.020261288 -0.06398138 0.01203842 0.1476867 -0.058427025 0.106071934
-0.11800192 0.022646435 -0.23815307 0.120216504 -0.11357101 0.035331488 -0.13935114 -0.0063280533
0.037053827 -0.07294056 0.15549137 -0.068099044 -0.051847696 0.18381704 0.03920385 -0.030381326
-0.13924682 0.16357772 -0.1177747 -0.09768598 0.205664 -0.18285213 0.17341898 -0.14263341
0.03926555 -0.18315099 0.20926405 0.20011607 0.028805569 0.052839074 -0.10521419 0.016304119
0.08639034 -0.060197208 -0.1189234 -0.007470389 -0.2532069 -0.061964616 0.013585922 -0.12964207
0.025053246 -0.019639818 -0.07453 -0.0026492216 -0.070066795 -0.16568069 -0.11593167 -0.005171658
0.083974384 0.035085708 0.14625494 0.047751967 0.0783102 -0.14067248 -0.09299099 0.12955637

bias f4 [40]
00000000: f0fd 973a 0dab ab3c ef2d b5bd d3ce 0e3d
00000010: 3c98 c53d 74be c7bd c5c5 f73d a577 de3d
00000020: 1e18 6c3c 7026 f3bc 5410 4a3e 7440 c23c
00000030: 4787 d1bc 279f fabc a299 b4bc b17b bbbd
00000040: d4f0 ddbc 5bcc 2b3e 38e8 e7bc 1d70 a9bd
00000050: 690c 2fbd 36fe 323d a96e d7bd 31a7 1e3e
00000060: 10d6 ddbd 6778 00bd d3f4 493e 80d6 a9bd
00000070: 4cf3 8b3e 94fa 52bd 3d68 803e 7bf6 25be
00000080: 0762 bebd fc16 643d 3056 e1bd 038b dbbd
00000090: 8b21 c6bd 4250 38be 98ea c3bd b629 bb3d
0.0011596065 0.020955587 -0.08846652 0.03486521 0.09648177 -0.09753123 0.120982684 0.10862664
0.014410047 -0.029681414 0.19732791 0.023712374 -0.0255772 -0.030593468 -0.022045914 -0.09154452
-0.027092375 0.16777174 -0.028308973 -0.08273337 -0.042736445 0.043699466 -0.105191536 0.15493466
-0.10831845 -0.031364825 0.197223 -0.08292866 0.27334058 -0.0515085 0.25079527 -0.16207306
-0.09296041 0.055685982 -0.11002767 -0.10719874 -0.096743666 -0.17999366 -0.095662296 0.09138815

weight f4 [1, 40]
00000000: a805 183e 1dba 6a3b 1acd 153e 8c22 6abd
00000010: 6659 fc3d 0c9e 123f 2db7 67be 9109 d5be
00000020: 6ca3 acbd e11a 053e 1f1b 49be 3acc 61bd
00000030: 4aaf 0ebe 41e7 96bd 1082 8e3e c1b0 8dbd
00000040: e0db ed3d 0277 95bd 071e f6be a749 6abd
00000050: 5b22 4dbe 1bee 8abd 7559 733d 030f f33c
00000060: 84a0 8a3d aa89 073e 0e09 3fbe 78b4 cbbd
00000070: 98e3 e8be f5fb 6bbe 00af 07bf 2363 0a3d
00000080: 2663 313e 07d1 003e ec90 1a3f 406e a5bd
00000090: fbd9 993e 8b33 d73e 76b4 c23d aa57 37be
0.14845908 0.0035816499 0.14629021 -0.057161853 0.12321739 0.5727241 -0.2262847 -0.4160886
-0.08429608 0.12998535 -0.19639252 -0.055126406 -0.13934055 -0.07368327 0.27833605 -0.06918479
0.116142035 -0.072980896 -0.48069784 -0.057199147 -0.20032637 -0.06783696 0.059411485 0.029670244
0.06768897 0.13236108 -0.18655798 -0.09946531 -0.4548614 -0.23045333 -0.53001404 0.03378595
0.17322978 0.12579738 0.60377383 -0.08077669 0.30049118 0.42031512 0.095070764 -0.17904535
