learning/model/dnn/model_2.pth (torch, 11415 bytes, 5 tensors)

weight f4 [40, 7]
0	0x3d77dcf4	0.06051345
1	0xbeb5726d	-0.35438862
2	0x3eabe1cb	0.33570704
3	0xbe2a92cd	-0.16657563
4	0xbea7e78c	-0.32793844
5	0x3d11e2df	0.03561675
6	0xbdec17f0	-0.11528003
7	0x3d47afbf	0.04875159
8	0x3ec83c8e	0.391087
9	0xbe51f633	-0.20504074
10	0x3eb8acc3	0.36069307
11	0x3ed669ac	0.41877496
12	0x3e6ae7f7	0.2294005
13	0x3ed04af3	0.40682182
14	0x3de748ee	0.11293207
15	0x3d411a39	0.04714415
16	0xbd291d43	-0.04128767
17	0xbe926e76	-0.285999
18	0xbdb6e12e	-0.08929668
19	0xbe333712	-0.17501476
20	0x3e08f866	0.13376006
21	0x3d854c63	0.0650871
22	0x3ebb3565	0.36564174
23	0xbf06a6e2	-0.5259839
24	0x3e23605f	0.15954731
25	0x3e6f32f8	0.23359287
26	0x3caf413b	0.021393409
27	0x3cab74e5	0.020929763
28	0xbeaaa198	-0.3332641
29	0x3eae8813	0.3408819
30	0xbea67794	-0.32513106
31	0xbd7cb20c	-0.061693236
32	0xbd8e50ca	-0.06949003
33	0x3c005c34	0.007834483
34	0x3c03441c	0.008011844
35	0xbeb10a04	-0.34577954
36	0x3eed7811	0.46380666
37	0x3e39a9a2	0.18131116
38	0x3e748f37	0.23882757
39	0x3d15be1a	0.036558248
40	0xbd0058d0	-0.0313347
41	0x3d35714e	0.04429751
42	0xbeb01874	-0.34393656
43	0x3e529542	0.2056475
44	0xbe17a0a0	-0.14807367
45	0xbdb77628	-0.089580834
46	0x3e829b27	0.25508997
47	0xbeb013d3	-0.34390125
48	0xbea438bd	-0.32074538
49	0xbdc9c7c0	-0.098525524
50	0xbd714bb3	-0.058910083
51	0xbe9e240c	-0.30886877
52	0x3d9d88db	0.07692119
53	0x3e78672b	0.24258105
54	0x3e5b0c83	0.21391492
55	0xbc215b86	-0.009848481
56	0xbf08ec33	-0.5348541
57	0x3f19cd39	0.6007877
58	0xbf21c18d	-0.6318596
59	0xbc9d891d	-0.01923042
60	0xbd06bdfb	-0.032896023
61	0x3db8bf26	0.09020834
62	0x3db89871	0.09013451
63	0xbe12a348	-0.143201
64	0x3ed13e2f	0.40867755
65	0xbf3f5952	-0.74745667
66	0x3ec929c9	0.39289692
67	0x3ec5c6c6	0.38628215
68	0xbdd8754d	-0.10569248
69	0xbba3a786	-0.0049943356
70	0xbd21296a	-0.039346136
71	0x3e375b73	0.17905979
72	0x3db6a924	0.0891898
73	0x3e66eaa6	0.22550449
74	0xbe04d0ce	-0.12970278
75	0xbe2a5c7e	-0.16636845
76	0x3c10a596	0.008828541
77	0xbeac72af	-0.33681247
78	0xbe8f9afa	-0.28047925
79	0xbcbcd260	-0.023049533
80	0xbeb09408	-0.3448794
81	0xbe5318d2	-0.20614937
82	0x3e033ea0	0.12816858
83	0x3e09f42a	0.13472047
84	0x3f0da643	0.5533182
85	0xbe9f83ad	-0.31155148
86	0xbef5f69d	-0.48039714
87	0xbd6af659	-0.05736384
88	0xbe946568	-0.28983617
89	0x3d44d953	0.04805882
90	0xbe1c227d	-0.15247531
91	0xbc99a44a	-0.018755097
92	0x3ee3c707	0.44487783
93	0xbda6acdc	-0.08138439
94	0xbebe76f5	-0.37200132
95	0xbe89478e	-0.26812404
96	0xbe95c139	-0.2924898
97	0xbdb381af	-0.087649696
98	0xbc483a85	-0.012220983
99	0xbdf84260	-0.12122035
100	0x3e995a82	0.29951864
101	0xbeb5f6a1	-0.35539725
102	0xbecac451	-0.39602903
103	0x3e0cb512	0.13740948
104	0xbe6d02b6	-0.23145565
105	0xbe4023c1	-0.18763639
106	0xbe1f4312	-0.15552929
107	0xbdaad0d9	-0.08340616
108	0xbca3fe4f	-0.020018725
109	0x3c00aa0c	0.007853042
110	0x3eba3c9d	0.3637437
111	0x3de40317	0.11133402
112	0x3e09b696	0.13448557
113	0xbeb3c21b	-0.35109028
114	0x3f093294	0.535928
115	0xbe216988	-0.15762913
116	0xbeb8c6d2	-0.36089188
117	0xbdd615f3	-0.10453405
118	0xbde83ca6	-0.11339693
119	0xbec0f48f	-0.37686583
120	0x3ddedb31	0.10881651
121	0xbec5e546	-0.38651484
122	0x3e9342a8	0.28761792
123	0xbded9d07	-0.11602216
124	0x3c81f43b	0.015863528
125	0x3ded2090	0.115784764
126	0xbef3c2a5	-0.4760944
127	0x3f0c9a92	0.54923356
128	0x3e53019d	0.20606084
129	0x3e4f8f93	0.20269613
130	0x3e5afe01	0.21385957
131	0x3e50a4da	0.20375386
132	0xbc6cb8e4	-0.014448378
133	0x3cb001bf	0.021485208
134	0x3dfca1f5	0.12335578
135	0xbd918e1d	-0.07107184
136	0x3da0a38e	0.078436956
137	0x3e036039	0.12829675
138	0xbdeb5ccb	-0.11492308
139	0xbe77d82d	-0.24203558
140	0xbebb6462	-0.36600024
141	0xbea55dca	-0.32298118
142	0x3e8555ae	0.2604193
143	0x3e50d1e9	0.20392574
144	0x3d8d6d99	0.0690567
145	0xbeae0ef2	-0.33995777
146	0xbafeff82	-0.0019454809
147	0xbde9c818	-0.11415118
148	0xbe692ff0	-0.22772193
149	0xbdbd329d	-0.09238169
150	0x3ea719b4	0.32636797
151	0xbd23f584	-0.040029064
152	0xbeb58d5e	-0.35459417
153	0x3e8b6b83	0.27230462
154	0xbe333f7b	-0.17504685
155	0x3c8f129a	0.017464925
156	0x3f26f54d	0.6521805
157	0x3e4ec8c6	0.20193776
158	0x3e30b0d0	0.17254949
159	0xbb8b9df1	-0.0042607714
160	0xbce50b27	-0.02795942
161	0x3dc4bc81	0.09606267
162	0x3ea3d633	0.3199936
163	0xbe7f7441	-0.24946691
164	0x3e91acc7	0.2845213
165	0x3e49ff02	0.19726184
166	0x3eaf2877	0.3421056
167	0xbe610684	-0.21975142
168	0x3ec185fe	0.3779754
169	0xbeea13f0	-0.45718336
170	0x3e9e41dd	0.30909625
171	0x3dbd49b3	0.09242573
172	0x3d27f982	0.041009434
173	0xbec265b9	-0.37968233
174	0x3d8a1355	0.067419685
175	0xbea06d8e	-0.31333584
176	0xbe3fc50f	-0.18727516
177	0xbd81c842	-0.06337024
178	0x3d5c6ce9	0.053814802
179	0xbea241fb	-0.31690964
180	0xbdff0204	-0.12451556
181	0xbdfe8d79	-0.124293275
182	0xbe8ffe7f	-0.28123853
183	0x3d0a5b70	0.033778608
184	0xbe8835b4	-0.26603472
185	0xbdd37e28	-0.10326797
186	0xbeb6fead	-0.35741177
187	0xbe3a102b	-0.1817023
188	0xbeb972e5	-0.3622047
189	0x3ebaa943	0.3645726
190	0x3e94f580	0.29093552
191	0xbea0cb2e	-0.31405014
192	0x3db05fe0	0.08612037
193	0xbe5ac1c0	-0.21362972
194	0x3e4e0017	0.20117222
195	0xbe227ec5	-0.15868671
196	0xbd902ce5	-0.07039813
197	0xbeaf7f33	-0.34276733
198	0x3ed60aeb	0.41805205
199	0x3dd18991	0.10231317
200	0xbd650ae1	-0.055918578
201	0xbe930e41	-0.28721812
202	0x3eb310b4	0.3497368
203	0x3d5b4323	0.053530823
204	0x3e44f1ac	0.19232816
205	0x3f1d2399	0.6138244
206	0x3e6aca32	0.22928694
207	0x3e7fef33	0.24993591
208	0x3e92b2a2	0.2865191
209	0xbe6712ba	-0.22565737
210	0x3eab14fe	0.33414453
211	0xbea99410	-0.33120775
212	0x3dd821e9	0.10553343
213	0x3e05cd1e	0.13066527
214	0x3ebf38c5	0.37348
215	0x3c19204a	0.009346077
216	0xbe4d295f	-0.20035313
217	0x3ea646ba	0.32475835
218	0x3d880e56	0.06643359
219	0xbe97f841	-0.2968159
220	0xbd94f1aa	-0.07272656
221	0xbe56d712	-0.2098048
222	0xbe3eeff3	-0.18646221
223	0x3eb5b5ac	0.35490167
224	0x3ce3e11f	0.027817307
225	0x3e5eee00	0.21770477
226	0xbed09b72	-0.40743595
227	0x3c085b4a	0.008322546
228	0x3c69fb46	0.0142811
229	0xbd406518	-0.04697141
230	0x3e3d51fd	0.18488307
231	0x3dbed4cd	0.09317932
232	0x3ec1bc42	0.37838942
233	0x3e940fb1	0.28918222
234	0x3d3ae18d	0.04562526
235	0xbe045fde	-0.12927195
236	0xbeba2f0a	-0.36364013
237	0xbe845a1d	-0.2585
238	0x3ed72ffd	0.420288
239	0xbe630c3f	-0.2217264
240	0x3e3de91c	0.18545955
241	0x3da6f007	0.0815125
242	0x3e01e08a	0.12683311
243	0xbea0b4cd	-0.3138794
244	0x3dd9087a	0.1059732
245	0x3f00f17d	0.5036848
246	0xbef6201d	-0.48071375
247	0x3e857150	0.26063013
248	0xbe79f327	-0.24409162
249	0xbe445aca	-0.19175258
250	0x3ad1d811	0.0016009827
251	0x3e57ee2c	0.21086949
252	0x3f07a2b3	0.52982634
253	0xbef83d4f	-0.48484275
254	0xbf0c057b	-0.5469586
255	0xbe33449d	-0.17506643

bias f4 [40]
0	0xbebc9744	-0.36834157
1	0x3ebf1243	0.3731862
2	0xbdc81a5d	-0.097706534
3	0xbe7b96d3	-0.24569254
4	0x3ec1f322	0.37880808
5	0xbda2c620	-0.079479456
6	0x3cffbc77	0.031217797
7	0x3cd4dee8	0.025985196
8	0x3eed3bb2	0.46334606
9	0xbe07b173	-0.13251285
10	0x3d8dfadf	0.069326155
11	0x3e98fa58	0.29878497
12	0x3e1d608a	0.15368858
13	0x3ed72226	0.4201824
14	0x3ea7ac38	0.3274858
15	0xbe823a8a	-0.25435287
16	0x3e942f6c	0.2894243
17	0x3eda56fd	0.42644492
18	0xbe06ef22	-0.1317716
19	0xbe6a265e	-0.22866198
20	0x3ea60963	0.32429036
21	0xbeb44f45	-0.35216728
22	0x3e90fe01	0.2831879
23	0x3e6dd159	0.23224391
24	0x3cf4d66b	0.029887399
25	0x3d929085	0.07156471
26	0xbebd9b5c	-0.37032592
27	0x3eca6717	0.39531776
28	0x3e316f89	0.17327704
29	0x3d2a107a	0.04151962
30	0xbe834980	-0.25642014
31	0xbe8b1cb5	-0.2717034
32	0x3ed7a639	0.42119005
33	0x3eab16cf	0.3341584
34	0x3ebf5e84	0.37376797
35	0x3ed029f4	0.40657008
36	0x3e33266c	0.17495126
37	0xbd7b16a9	-0.061300907
38	0x3e1668b0	0.14688373
39	0x3d501f7f	0.050811287

weight f4 [40, 40]
0	0x3e027ba7	0.12742482
1	0xbe103610	-0.14083123
2	0x3dcff676	0.101544306
3	0xbe113d5e	-0.14183566
4	0xbcf55330	-0.029946893
5	0xbc862eb1	-0.016379686
6	0x3e1e83d1	0.15479971
7	0xbd1682ee	-0.036745958
8	0xbd7bb22c	-0.061449215
9	0x3dc66396	0.09686963
10	0xbdaef101	-0.085420616
11	0xbdefb6ef	-0.11704814
12	0x3d97ee60	0.07418513
13	0x3df7039a	0.12061234
14	0xbdcb5cd3	-0.09929814
15	0xbe1cbe0b	-0.1530687
16	0xbe01aa3a	-0.12662593
17	0xbdf14255	-0.1178023
18	0x3e16c89f	0.14724968
19	0xbc6e9470	-0.014561757
20	0x3dd4c4cf	0.10389101
21	0x3d17bc14	0.0370446
22	0x3d4ae732	0.04953689
23	0xbd290b7e	-0.041270725
24	0xbdde8f35	-0.10867158
25	0x3e1ec29d	0.15503927
26	0xbdb88555	-0.09009806
27	0xbcc41800	-0.023937225
28	0x3e04ccd9	0.12968768
29	0xbd9cbad1	-0.0765282
30	0xbd499f98	-0.049224466
31	0xbd5bb256	-0.05363687
32	0x3d4e720a	0.050401725
33	0xbccf9439	-0.025339233
34	0x3b274658	0.0025524106
35	0x3e0fab01	0.14030077
36	0xbe155faf	-0.14587282
37	0x3d2116f1	0.03932852
38	0xbdb616b1	-0.08891047
39	0xbd1b6db6	-0.037946425
40	0x3dbdecca	0.092736796
41	0xbe1d8f45	-0.15386684
42	0xbce80c80	-0.028326273
43	0xbdd0348e	-0.10166274
44	0x3e291f1f	0.16515778
45	0x3dd7f8d3	0.10545506
46	0x3c96e4d3	0.018419659
47	0xbdc66646	-0.09687476
48	0x3dcd9e3c	0.100399464
49	0xbd89d49b	-0.067300044
50	0x3bee92bd	0.007280676
51	0x3dfa67ba	0.122268155
52	0x3cc275d1	0.02373782
53	0x3e285dc3	0.16442017
54	0xbd9a8da3	-0.07546546
55	0x3e03826c	0.12842721
56	0xbdc296d4	-0.095014244
57	0x3dd0fd5c	0.102045745
58	0x3d918594	0.07105556
59	0x3d33366b	0.04375307
60	0x3e145564	0.14485699
61	0xbd4fb2b1	-0.050707523
62	0xbdcac6b4	-0.09901181
63	0x3dc120db	0.09430095
64	0xbdcb8c76	-0.099389
65	0xbd4dc2e1	-0.05023468
66	0xbd7da5b8	-0.06192562
67	0x3d4bd557	0.049764004
68	0xbd24b647	-0.040212896
69	0xbbebc0a3	-0.007194595
70	0x3d1b2c63	0.037884127
71	0xbd7828a5	-0.060585637
72	0xbd4ae94e	-0.049538903
73	0xbcbc7b9d	-0.023008162
74	0xbdeef340	-0.1166749
75	0x3e1cd67c	0.15316194
76	0xbd5a6f37	-0.05332872
77	0x3e1d5eae	0.15368149
78	0xbd803ddb	-0.06261798
79	0xbc68c3f3	-0.014206874
80	0xbe140125	-0.14453562
81	0xbe0e5a31	-0.13901593
82	0xbe0f37af	-0.13986085
83	0x3cae4d70	0.02127716
84	0xbd11bc2e	-0.035579853
85	0x3bb42480	0.005497515
86	0x3dd1014a	0.10205324
87	0xbe1950e1	-0.14972259
88	0xbdd08dac	-0.10183272
89	0x3cf22bb0	0.029561847
90	0xbe0b8a0c	-0.1362688
91	0xbdebe33a	-0.115179494
92	0xbc5fdd90	-0.013663664
93	0xbda2f744	-0.079573184
94	0x3da8abd2	0.08235897
95	0x3e189cd9	0.14903583
96	0xbd7b8448	-0.06140545
97	0x3d9b6d10	0.075891614
98	0xbb43d580	-0.0029881895
99	0x3e00d64d	0.1258175
100	0xbe11a117	-0.14221607
101	0xbb0c3a80	-0.0021397173
102	0x3e0f55ad	0.13997526
103	0x3d12a140	0.03579831
104	0xb8514000	-4.9889088e-05
105	0xbcb34fb0	-0.021888584
106	0x3e00bbfb	0.12571709
107	0xbe0fdf45	-0.14050014
108	0xbd168c84	-0.0367551
109	0xbdc29ee4	-0.09502962
110	0xbb77f480	-0.0037834942
111	0xbbb239e0	-0.005439028
112	0x3d87097a	0.065936044
113	0xbdd154de	-0.10221265
114	0xbdf473c6	-0.119361445
115	0xbdd7529c	-0.10513803
116	0x3dbf6c52	0.09346832
117	0xbdd42bc6	-0.103599116
118	0x3dc82566	0.09772758
119	0xbce04dd0	-0.027380854
120	0x3de323af	0.110907905
121	0x3e4df7bb	0.20114033
122	0xbdce26da	-0.10066004
123	0xbe18403e	-0.14868256
124	0xbe228f19	-0.158749
125	0xbda8256b	-0.08210262
126	0x3de43b1d	0.111440875
127	0xbdf8d9a1	-0.121508844
128	0xbc82d818	-0.015972182
129	0xbdd7fa33	-0.105457686
130	0x3e1c5149	0.15265383
131	0x3d381753	0.04494412
132	0x3e40cfa4	0.18829209
133	0x3e0db788	0.13839543
134	0xbc9a24dc	-0.018816404
135	0x3da2af56	0.07943599
136	0x3d993b50	0.07482016
137	0xbd99fb7b	-0.07518669
138	0x3d0a0c4a	0.033703126
139	0xbd1f9c22	-0.03896726
140	0xbe0c38e9	-0.13693585
141	0x3d3236d1	0.04350931
142	0xbe4e1b28	-0.20127547
143	0xbcd899ad	-0.026440466
144	0xbe10a23c	-0.14124388
145	0x3d9e8c61	0.07741619
146	0x3deb326e	0.11484228
147	0x3e399803	0.18124394
148	0xbe2a0f6f	-0.1660745
149	0xbe02c29d	-0.12769552
150	0xbce48be1	-0.02789873
151	0xbd89ede8	-0.0673483
152	0xbd09ba9d	-0.033625234
153	0x3d3d4c26	0.0462152
154	0x3e5708db	0.20999472
155	0xbd15e532	-0.03659553
156	0x3e1470ed	0.14496203
157	0xbd387316	-0.04503163
158	0x3d7a0911	0.061043803
159	0x3e02de20	0.12780046
160	0x3de58633	0.11207237
161	0xbd2a0126	-0.041505
162	0x3beee789	0.0072907847
163	0x3ddeb8c7	0.10875087
164	0x3c5569ec	0.013025742
165	0xbddd6b24	-0.10811451
166	0xbe1dad79	-0.15398206
167	0x3dbf6636	0.09345667
168	0xbc8864b1	-0.016649576
169	0xbe1b1089	-0.15143026
170	0x3e0a4917	0.13504444
171	0x3df98555	0.12183634
172	0x3e371015	0.17877229
173	0xbe02ff7b	-0.1279277
174	0x3d5ab823	0.053398263
175	0xbd507465	-0.050892252
176	0xbd88dd0f	-0.066827886
177	0xbd02f540	-0.03197217
178	0xbda5b369	-0.080908604
179	0x3deecf9e	0.116606936
180	0x3dab76d3	0.08372273
181	0xbdc8a982	-0.09797956
182	0xbd7499e7	-0.059717085
183	0x3de54f7b	0.111968
184	0xbe1623ac	-0.14662045
185	0x3e11a79d	0.14224096
186	0xbdb6fcea	-0.08934958
187	0x3de6aa61	0.11262966
188	0x3e0e066e	0.1386964
189	0xbd4d9f2e	-0.050200634
190	0xbbe1fae5	-0.006896364
191	0x3d9ca289	0.076481886
192	0xbde513f0	-0.111854434
193	0xbdb7ece4	-0.0898073
194	0x3db6f859	0.08934087
195	0x3d3df09d	0.046372045
196	0x3dcbf65a	0.09959097
197	0xbde0f076	-0.10983364
198	0xbd1e909a	-0.03871212
199	0x3e2728ca	0.16324154
200	0xbda618b7	-0.08110183
201	0xbc250159	-0.010071122
202	0x39b7a5cf	0.00035028017
203	0x3e169601	0.1470566
204	0x3dddee0f	0.10836422
205	0xbe07776f	-0.13229154
206	0x3db3af44	0.08773664
207	0xbdbefc46	-0.09325461
208	0x3e4d9071	0.20074631
209	0x3e950253	0.29103336
210	0xbd86edfa	-0.06588359
211	0x3e595df1	0.21227242
212	0xbdf23269	-0.11826021
213	0x3b45c8e3	0.0030179552
214	0xbd8b62c1	-0.06805945
215	0x3d62e474	0.05539365
216	0x3e323bce	0.17405626
217	0x3e1b0b27	0.15140973
218	0xbde8adb2	-0.11361255
219	0xbdcb551f	-0.09928345
220	0x3d00b13e	0.03141903
221	0xbe0624d8	-0.13099992
222	0x3cc7a0f3	0.024368739
223	0x3d582579	0.05277011
224	0x3e53101d	0.20611615
225	0xbe023006	-0.12713632
226	0x3d89bfaa	0.0672601
227	0x3da1107b	0.078644715
228	0x3e16ee7f	0.14739417
229	0xbdd6a0e6	-0.10479908
230	0x3dc263ad	0.09491668
231	0xbdca8733	-0.098890685
232	0x3d5a8e58	0.053358406
233	0xbdd6dcda	-0.10491343
234	0xbe05b6c5	-0.13058002
235	0x3df519b0	0.1196779
236	0xbeb4a1c2	-0.3527966
237	0xbda122c1	-0.07867957
238	0x3e5e8073	0.21728687
239	0xbe28c5cd	-0.16481705
240	0x3d38b0ed	0.045090605
241	0xbde82435	-0.11335031
242	0x3ccfdfe0	0.025375307
243	0xbdd811d2	-0.10550274
244	0x3d6425d9	0.055700157
245	0xbb64490b	-0.0034833576
246	0x3bc2cb7c	0.0059446674
247	0xbc2b94d1	-0.010472492
248	0xbdf93152	-0.1216761
249	0x3dfd590f	0.12370502
250	0xbce53b02	-0.027982239
251	0xbe1e8f54	-0.15484363
252	0xbcc75dd0	-0.024336725
253	0x3d52ed49	0.051495824
254	0xbe1d5f59	-0.15368403
255	0x3dd4fd8a	0.10399921

bias f4 [40]
0	0xbd982494	-0.07428852
1	0x3df6feb0	0.120602965
2	0xbd64206e	-0.05569499
3	0x3c77f413	0.015133875
4	0xbda46460	-0.080269575
5	0x3e32cfff	0.17462157
6	0x3e021926	0.12704906
7	0x3e2ce495	0.16884072
8	0xbdc2362a	-0.09482987
9	0xbdc51bc5	-0.09624437
10	0xbd2d0427	-0.042240288
11	0xbe53be55	-0.20678075
12	0x3b89bba3	0.0042032762
13	0x3e022786	0.1271039
14	0xbd4145bf	-0.047185656
15	0x3dc7f800	0.09764099
16	0x3dfde2af	0.12396752
17	0x3e395d2b	0.18101947
18	0xbd5a59d2	-0.053308316
19	0xbbc6a901	-0.0060626273
20	0xbe1e5485	-0.15461929
21	0x3e5ab633	0.21358566
22	0xbdc5c8e5	-0.09657458
23	0x3e1cccd6	0.15312514
24	0xbb6b7b7e	-0.0035931761
25	0x3c8f7280	0.017510653
26	0x3d048099	0.032349203
27	0x3e28110e	0.16412756
28	0x3defa555	0.117014565
29	0x3cf36738	0.029712304
30	0xbd2a262f	-0.04154032
31	0xbd228c71	-0.039684717
32	0xbd8ca757	-0.06867855
33	0x3e2a8958	0.16653955
34	0x3bea21ae	0.007145128
35	0xbe0a31d0	-0.13495564
36	0xbd806130	-0.06268537
37	0x3de61dd1	0.11236156
38	0x3d2d3016	0.042282186
39	0xbccff135	-0.025383571

weight f4 [1, 40]
0	0x3dd7cf6c	0.105376095
1	0xbe145206	-0.14484414
2	0xbc3776b0	-0.011197731
3	0x3ebe22f0	0.3713603
4	0x3e1f1b68	0.15537798
5	0xbf2adec4	-0.66746163
6	0x3e8d88bb	0.2764338
7	0xbf93699f	-1.1516608
8	0xbe6426a7	-0.2228037
9	0x3d835051	0.064118035
10	0x3d42c550	0.047551453
11	0x3ee4175d	0.44549075
12	0xbee63bb2	-0.4496742
13	0x3dbb466a	0.0914429
14	0xbf044bd5	-0.5167821
15	0xbf17bab6	-0.59269273
16	0x3dc966af	0.098340385
17	0xbe6b2ff6	-0.22967514
18	0x3deff104	0.11715892
19	0xbdeace8a	-0.114651754
20	0xbe0e8291	-0.13916995
21	0xbefffc3b	-0.49997124
22	0x3dd5d44f	0.10440885
23	0xbf1262ad	-0.5718182
24	0xbeb95e29	-0.3620465
25	0xbde795b3	-0.1130785
26	0x3ef4883e	0.47760195
27	0x3e1fccc9	0.15605463
28	0x3e15869f	0.14602135
29	0x3e33d16d	0.17560358
30	0x3f8d7433	1.1051086
31	0xbd989066	-0.07449417
32	0x3b29f11a	0.0025931061
33	0xbf4a042a	-0.78912604
34	0xbc973396	-0.018457215
35	0x3e3096cb	0.17245023
36	0x3d44d6a4	0.04805626
37	0x3f466db5	0.7751115
38	0x3e8895e8	0.2667687
39	0xbf2ab82b	-0.6668727
