learning/model/dnn/model_3.pth (torch, 11415 bytes, 5 tensors)

weight f4 [40, 7]
00000000: bee6 683e ec10 c93e 88fa b6bd 6f74 0abe
00000010: 023b 73be 993b fb3d 4a67 5f3c 8ea2 53be
00000020: f2d4 93be d1b6 9c3e 662d 6d3d 5f17 92bd
00000030: 9b99 04be 424d 5f3e af13 f03c 709a fe3c
00000040: ec01 98be dcb5 213e 49ec 54be b07b 433d
00000050: 8a92 f13d e92b febe 534e babe 98b5 f2bd
00000060: 6204 43be 7fe6 45be 1351 a53e 7ee8 7d37
00000070: 14b3 db3e 4e72 803e 3689 b83e 90e1 a5be
00000080: 49d3 71be 875d 133e adb1 8cbe dfd7 793e
00000090: e4fe 8cbe f914 2a3f 5ef1 023e cfee 303e
000000a0: 8159 df3c 8fbf a23d 5c6b 6d3e e302 0dbe
000000b0: 7f8b 913e ec9e dfbd de6f d4bc 3f62 6ebe
000000c0: d253 75bd 17af b93e 955b ef3b b78b b03e
000000d0: 1cbd 84be 9823 3dbe 2ba0 583e ed4c 163e
000000e0: f514 fabe ccf3 e43e a793 94be f5c8 fc3e
000000f0: 59a7 fd3e f98e ae3e 6c41 933e 7cdf 2e3d
00000100: 30d1 c6bd e02b 473e 5581 54be 4981 373e
00000110: 73cf 993e cba7 86be 0ce0 9cbe ca66 33bc
00000120: b277 d53c e09c 9c3c 7dda 4e3e bc85 84be
00000130: 63b3 04be d0b4 023f 0777 b5be 1187 053f
00000140: f2ee 0a3e 3e81 d23e aa16 c73e 0d4b 4ebb
00000150: 6d80 eebe 2897 e8bd 9397 0dbf 357a 123f
00000160: 86d2 223f 2b0b 37be 81a1 c4bd c233 12bf
00000170: d4b8 263f 2106 1f3e 17cf a63e da30 c43e
00000180: 1393 153d a688 d1bd b0a8 98be 9e36 193e
00000190: ebc4 37be c6b7 77bc a47f b03e ac39 1dbe
000001a0: da40 f7bd fdf2 5dbc 455c b7bc 08c5 a73e
000001b0: a0a8 463e 691b 9fbd a0ff 9b3d ebee 2fbe
000001c0: f817 56be 56b5 b5bd e080 c93e ffdc d13e
000001d0: 129f 933d d11f ad3e 9ad0 d63d d74f 8c3e
000001e0: 5dd2 233b 2e49 a63e a5c8 89be 36c1 7f3e
000001f0: 1a94 85bc 4fb5 863e 37df 47be fe29 8dbe
00000200: 9156 cc3b ac31 e9bc e28d 92bd b04b 8cbe
00000210: 134b d0bd 7b7d 44bd 71dd b73e fe02 e3be
00000220: 61ea 42be 2a34 a13e 5efb ff3d f3cc 04be
00000230: 5128 c3bb c49f 263e 27aa 243f 53e6 9cbd
00000240: d8fd b03d 9c21 91bd 0af7 9a3e 1561 4bbf
00000250: 75d8 4e3f a84c b73e 1aa3 a13e 1384 4b3e
00000260: b633 4e3e 084b d33c e451 b23d 3326 083f
00000270: 8725 99be b951 86be 7cef 443e 4fb1 8dbd
00000280: fa6f 463e a581 c6be 6c7e 653e d8b2 bb3e
00000290: 782b 40bf f281 14bf 3e43 973d 7c0a 693e
000002a0: 8394 973e 9c3e afbe c6d5 fd3e f3c5 733e
000002b0: 0b7f 9b3d 2488 99bd fb35 683e d5a8 873d
000002c0: 5c5c dd3e 6bdf 823e 469f 373e 04f4 e9be
000002d0: 40e7 c6be efdf 723e b36b 16be cce5 5a3e
000002e0: 6b38 9cbe e07f a7be bf0f f3bb 5fc9 98be
000002f0: 10b4 3d3e 2775 063f a667 3b3e f38f c5be
00000300: 7a39 dbbd 736b 3a3e 8cf6 393e a00e 1bbe
00000310: 9827 23be 4f97 ea3d f789 acbe 0167 cdbe
00000320: c3d1 343e d06e c3be 4ce4 3c3e e59e 4e3e
00000330: ff06 02bf f355 b23e bdc0 2cbe 76e8 323e
00000340: 0fb5 973e af93 a73d bcfe 97be 08af 1dbe
00000350: bfee 09be 85e6 0fbe 92ee 4d3e 37dc b0be
00000360: 7769 a3be 7e70 4abe d37e 033e 92a6 61bf
00000370: 83b6 b93e af97 073f 15c4 af3e 1608 d43d
00000380: 7c94 063d ed8d cb3e 9a89 f0be ef67 da3e
00000390: 8ab6 63be 1805 a23c 98e0 483e c41e 1fbd
000003a0: 12cc 973e 5a00 a7be d856 bbb9 ba22 43be
000003b0: 115b 12bd 0603 1a3e f8ef f5be 74b8 4b3e
000003c0: e3a7 c33e 604a 833e 6c98 9d3e 32ad 02be
000003d0: fe7d a2be c029 213e da33 813e 1d1a f4be
000003e0: a2d7 763e c183 773e 9091 6f3e 92b2 6fbe
000003f0: 5b2e a83e ffe1 c6be 98a0 033f adc6 503e
0.22744271 0.39270723 -0.08934504 -0.13520978 -0.23752978 0.12267227 0.013635466 -0.20667478
-0.28873402 0.30608228 0.057904623 -0.07133364 -0.12949221 0.21806815 0.02930626 0.0310795
-0.29688966 0.1579203 -0.2079326 0.04772538 0.11795528 -0.49642876 -0.36387882 -0.118510425
-0.1904464 -0.19326209 0.32288417 1.5134106e-05 0.42910063 0.25087208 0.36042184 -0.32398653
-0.23615755 0.14391147 -0.27479306 0.24398755 -0.27538216 0.6643825 0.12787387 0.17278598
0.027264358 0.07946693 0.23185486 -0.13770632 0.2842674 -0.10918984 -0.025932249 -0.23279665
-0.05989439 0.36266395 0.0073046186 0.34481594 -0.2592553 -0.18470609 0.21154849 0.14677782
-0.48844114 0.44717252 -0.290189 0.49372068 0.4954174 0.34093454 0.2876085 0.0426936
-0.09707868 0.1945033 -0.20752461 0.17920412 0.30041084 -0.2629989 -0.30639684 -0.0109498
0.026058052 0.019117773 0.20200534 -0.2588328 -0.12959056 0.5105715 -0.35442373 0.5215922
0.13567713 0.4111423 0.3888448 -0.003147784 -0.46582356 -0.11356956 -0.5530941 0.57217723
0.63602483 -0.17875354 -0.09601117 -0.57110226 0.65125775 0.15529682 0.32579872 0.3831852
0.036517214 -0.10231142 -0.29816198 0.14962241 -0.17946212 -0.015119499 0.34472382 -0.15354031
-0.12072916 -0.013546702 -0.022382865 0.3276751 0.19400263 -0.077689 0.07617116 -0.17180984
-0.20907581 -0.08872478 0.39356136 0.4098892 0.07208075 0.33813336 0.10489006 0.27404663
0.0024997212 0.32477707 -0.26910892 0.24976048 -0.016305972 0.26310202 -0.19518743 -0.275711
0.0062359055 -0.028466068 -0.07155968 -0.27401495 -0.10170569 -0.04797123 0.35911134 -0.4433822
-0.19034721 0.3148511 0.12499116 -0.12968807 -0.005955734 0.16271883 0.6432213 -0.07661118
0.08642167 -0.070864886 0.302666 -0.7944501 0.8079904 0.35800672 0.3156975 0.19874601
0.20136914 0.025792614 0.08707026 0.5318329 -0.29911444 -0.26234224 0.19231981 -0.069185846
0.19378653 -0.38770786 0.22411507 0.36659884 -0.7506633 -0.5801078 0.07385872 0.22757906
0.29605493 -0.34227455 0.4957716 0.2380598 0.07592591 -0.0749667 0.22676842 0.06623999
0.43234527 0.2556108 0.17931852 -0.45693982 -0.38848305 0.23718236 -0.14689521 0.21376723
-0.30511793 -0.32714748 -0.0074176486 -0.29841134 0.1852572 0.5252251 0.18301257 -0.38586387
-0.10704322 0.18205051 0.18160456 -0.15142298 -0.15933073 0.11454641 -0.3369901 -0.40117648
0.17658143 -0.3817048 0.18446463 0.20177801 -0.50791925 0.348312 -0.16870399 0.1747149
0.29630324 0.08182465 -0.29686534 -0.153988 -0.1346998 -0.1405278 0.20110539 -0.3454301
-0.319164 -0.19769475 0.12841348 -0.8814479 0.36272058 0.52965826 0.34329286 0.10353105
0.03285645 0.39756718 -0.46979982 0.4265742 -0.22237602 0.01977782 0.19616926 -0.0388477
0.2964788 -0.32617456 -0.00035732123 -0.19056216 -0.03573138 0.15040216 -0.48034644 0.19894582
0.38214025 0.2564268 0.3078035 -0.12761381 -0.3173675 0.15738583 0.25234872 -0.47676173
0.24105695 0.24171354 0.23395371 -0.23407963 0.32847866 -0.38844296 0.5141692 0.20388289

bias f4 [40]
00000000: 8187 03be 224c 70be 272a 703e 3c51 ba3e
00000010: 2bde 733e dde7 19be 39d2 27be 34f2 073e
00000020: 9e7e 2a3e ffc9 0cbd 2f22 78bc 07a5 2ebe
00000030: fdb3 e83d f66a 523e ba3f 31bd b976 273e
00000040: 15cd d1be 5492 a4bb 93ff 643e 1647 86be
00000050: f728 c03b a978 b6bd 11f6 983e 1c7a c43e
00000060: f601 85bc 467f 973e a596 583d 3c9e 17bd
00000070: 5a2b 1e3e ede2 cc3d 89ac 1d3e 2d4b d6bd
00000080: 3e66 c43e 864c babe 72d3 f53a b7bf 96bc
00000090: 5c4d 59bb ab76 ba3c 806d 723e c303 1fbe
-0.1284466 -0.23466542 0.2345358 0.36390102 0.23815219 -0.15029855 -0.16388787 0.13275987
0.16649863 -0.034372326 -0.015144869 -0.1705514 0.11362455 0.20548615 -0.043273665 0.16353883
-0.40976778 -0.0050223265 0.22363119 -0.2622611 0.0058642584 -0.08909733 0.29875234 0.38374412
-0.016236287 0.2958929 0.05287804 -0.03701614 0.15446225 0.1000422 0.15397848 -0.104635574
0.38359255 -0.36386508 0.0018755032 -0.018401964 -0.0033157682 0.022761663 0.23674583 -0.15528779

weight f4 [40, 40]
00000000: c71e d13d 3d92 1ebe 2548 173d 1cc4 1ebe
00000010: 1700 cabd dee2 853d f85e e0bd 3c30 0e3e
00000020: ff77 12be 3b8d cebc 3edf d2bd 6b29 1cbd
00000030: 8682 90bd c25b 0cbe 1e1c 153e 0888 91bd
00000040: af96 0b3d b84f d8bd 2a4f 293d c3f0 20be
00000050: 93bf 103e c1b6 373d 77c7 de3c 8cd3 913d
00000060: 4aca 083e 9f1e 203e 920d 8a3d c615 623d
00000070: d664 b0bd e9a1 be3d 456c aa3d 1fed 12be
00000080: 5c77 e4bd dc25 9dbd 29b0 533d adf4 6a3d
00000090: 9cf8 aa3d 1604 f33d 36b5 06be 5227 15bd
000000a0: f564 c23d be5b e7bc 282a 54bc 0cbd 89bd
000000b0: e238 4ebd 429b 243e ce79 bdbd 16a9 92bd
000000c0: 3f7a 52bd 8c6f a2bd a9ba 1fbe ab34 54bd
000000d0: f64f 033e 97f9 efbd c05b 853a 7a5e 8ebd
000000e0: da1b f1bc f02f afbd 7cfe aebd 125a eb3d
000000f0: 3b69 893d 0ff5 66bc 6a04 c1bc a4d7 b43d
00000100: 203b 543c 95db dabd e848 02be de44 d9bc
00000110: 304e 0a3d c542 053e 3505 02be 4df7 373d
00000120: c5bd a53d d1ee 173e cae4 1fbc 43bb 9e3c
00000130: 81b9 053e 1e75 1a3e 1560 073e 5ae2 213e
00000140: 352b b83d ab98 15be c23d 35be 1224 413e
00000150: a654 91bc 74d0 283e 118b 303e 2f93 3abd
00000160: 6efd 813d c9fe 85bc bf1b 833d fff0 b53d
00000170: 03ed 343e 72fc 10be f452 ae3d 8041 e23d
00000180: 99bf 7abd 6fbf 1fbd 7025 14bc 4164 d43d
00000190: 4a08 1f3e cf44 10be 6206 08be 2c2b 363e
000001a0: 3181 bf3d 7c32 123d f78d 00be a32f cebd
000001b0: 0757 98bc 145c a7bd bb39 65bc 6865 1a3e
000001c0: 605e d93d 1867 24be 7266 2dbe 1f01 173d
000001d0: 6d6a babd 6be3 d7bc 2609 34bd 9644 bcbd
000001e0: 1f8d adbd d891 e9bc 6e34 0cbe 844c 0c3d
000001f0: 3abe 19be 404c efbb a0c0 c7bc f005 70bd
00000200: ca2c 5fbd 6802 873d 39b3 8ebd f8fd f43c
00000210: c242 26bd 0a9a febd 3e3a 27bd 98ae ecbd
00000220: 3798 133e fdd2 07be 5df2 b2bd a082 b93d
00000230: c19c 213e 0c53 703d 8c0b 90bd e026 8d3c
00000240: c4c1 c4bd 8b28 b2bd eeeb e73d 2ccc 873d
00000250: 38ea b1bc 1454 debd c645 923d 6e02 17be
00000260: 408e aa3b 088e bd3c c20c c8bd 1a39 c43d
00000270: 9a58 3bbd 8117 1f3e 316e 123e 2059 17bc
00000280: d521 b9bb 6331 8abb a657 2ebe ab59 3fbe
00000290: e78f 953c 42a1 c33e 8b69 323e 426f 443e
000002a0: 5197 eabe f6fb 133e 0b6f d73c da48 d73d
000002b0: 4387 d4bd 3cb0 e2bc eb1a cdbd 0ada 693e
000002c0: a43c db3c 1dad d33c 1724 d2bd 43bc bf3c
000002d0: 5360 dc3e c20e 6fbe ea5b fbbd d735 c73e
000002e0: 5339 a33e 6cca 323e a2b1 a13d a301 9fbe
000002f0: d223 25be 545b 0e3e 6eb7 af3d 2215 a4be
00000300: 48fb e0be 22f6 313d 067e 2abe 2683 1bbe
00000310: 00a0 553e 0a0a f53d d647 e83d 5bf3 e93d
00000320: 5141 1abe 0ba5 133e b3b4 f1bd a649 38be
00000330: 51e4 40bd 7e35 f43d c07a d2bd a644 37bd
00000340: 5e28 56bd b5d9 953d bddb b6bd 4b91 9b3d
00000350: f21f 42bd 0014 8e3d f119 dbbd 8e14 08be
00000360: 0467 4f3e 2af0 ac3d 9099 3abb a94e e63d
00000370: 73f6 9c3d 9985 a63e b953 adbd a6bc 65be
00000380: 1de7 e83d e349 1bbe 3323 b73d 81ad 2b3e
00000390: f02d 0e3d b995 a5bb 66ac 11be dab2 2b3d
000003a0: 447c e33d 5f86 fdbd ef0b fd3d bd72 bebd
000003b0: 883c 16bd e721 8abd 235d 30be 227e 0e3e
000003c0: c02a f3ba 3078 1cbe dab5 623d 3274 803d
000003d0: afd4 253e b084 2e3e 5a97 e4bc 405f debc
000003e0: 9c3a 33be 4eb6 50bc df30 babd 89e0 99bc
000003f0: 1b90 14be 8cd7 11be eb20 b6bd 0544 4fbd
0.102109484 -0.15485473 0.036934037 -0.15504497 -0.098632984 0.06537412 -0.10955614 0.13885587
-0.14303587 -0.025213828 -0.10296486 -0.038125437 -0.07056145 -0.13706878 0.14561507 -0.07106024
0.03407925 -0.1056208 0.041335262 -0.15716843 0.1413558 0.044852022 0.027194722 0.071204275
0.13358417 0.15636681 0.067408696 0.055196546 -0.08612983 0.09308226 0.08321432 -0.14348267
-0.111555785 -0.07673237 0.05168167 0.057362247 0.083482 0.11866014 -0.13155064 -0.036414452
0.09491912 -0.028241988 -0.012949504 -0.06725511 -0.050347216 0.16074851 -0.09251748 -0.07161157
-0.051386114 -0.07931432 -0.15598549 -0.05180804 0.12823471 -0.11717527 0.0010174438 -0.06951614
-0.029432226 -0.08554065 -0.08544633 0.11491789 0.06709524 -0.014096512 -0.023561675 0.08830193
0.01295355 -0.10686413 -0.12723124 -0.026522096 0.03376597 0.13013752 -0.12697299 0.04491358
0.08092836 0.14837195 -0.009759137 0.019376403 0.13059045 0.15083739 0.13220246 0.15809003
0.08992616 -0.1460902 -0.1769934 0.18861416 -0.017740559 0.16485769 0.1724055 -0.04555052
0.06347166 -0.016356843 0.064017765 0.08883857 0.17668538 -0.141588 0.08511916 0.110476494
-0.061217878 -0.039000925 -0.009042129 0.103706844 0.15530506 -0.14088748 -0.13283685 0.17789906
0.09350813 0.035692677 -0.12554155 -0.1006768 -0.018596185 -0.081718594 -0.013990815 0.15077746
0.10613704 -0.16054952 -0.16933611 0.036866304 -0.0910233 -0.026353559 -0.043954037 -0.09192769
-0.08474182 -0.028511927 -0.13691875 0.03425266 -0.15013972 -0.007302791 -0.024383843 -0.058599412
-0.054486074 0.06592256 -0.06967778 0.029906258 -0.04059101 -0.12431724 -0.04082703 -0.115567386
0.14413534 -0.1326408 -0.087376334 0.09058118 0.15782453 0.05867295 -0.070334524 0.017230451
-0.0960727 -0.08699139 0.11324297 0.066307396 -0.02171813 -0.108558804 0.071422145 -0.1474702
0.005204946 0.023139015 -0.09768058 0.09581204 -0.045738794 0.1553631 0.14299847 -0.009237558
-0.005649785 -0.004217313 -0.17025623 -0.1868655 0.018257095 0.38208967 0.17423074 0.19183066
-0.4581857 0.14451584 0.026298067 0.10511942 -0.103773616 -0.027671926 -0.100149 0.22837082
0.026762314 0.025839383 -0.1026079 0.0234052 0.4304224 -0.23345473 -0.122733906 0.38908264
0.31879672 0.1746003 0.07895209 -0.31055936 -0.16126946 0.13902026 0.08579908 -0.32047373
-0.43941712 0.04344762 -0.16649637 -0.15186748 0.20861816 0.119648054 0.113418266 0.114233695
-0.15063979 0.14418428 -0.11802044 -0.17996845 -0.04709274 0.11924265 -0.10277319 -0.044743203
-0.05228459 0.07316915 -0.089286305 0.07596072 -0.047393747 0.069374084 -0.10698307 -0.13289091
0.20254141 0.08444245 -0.0028472878 0.11245472 0.07664194 0.32523802 -0.084632345 -0.22435245
0.11372206 -0.15164904 0.089422606 0.16765405 0.03471178 -0.0050532487 -0.14225921 0.041918613
0.11107686 -0.12379145 0.12355792 -0.09299228 -0.03667882 -0.067447476 -0.17223029 0.13915303
-0.0018552169 -0.15280223 0.05534921 0.062721625 0.16194414 0.17042804 -0.027904201 -0.027145028
-0.17502826 -0.012738777 -0.09091353 -0.018783825 -0.14508097 -0.14242381 -0.08892997 -0.050601978

bias f4 [40]
00000000: 94a5 63bb 8834 7dbd ba80 b63d c501 86bd
00000010: c8a7 723b cf70 8bbd 233b 893d 9929 2fbd
00000020: 1488 e5bd 81f5 8dbd 66a4 10be 1ad2 8e3a
00000030: 2350 6a3e ad4c ecbb 1e36 51be a3ca 1bbe
00000040: 4500 0d3e d4b6 033e 8395 acbc e01d 463e
00000050: 6ce6 3dbe b19d 073e be2f 39be 0fc3 59bd
00000060: 5cce 9c3c faa7 cabd d417 10be 1b5d e6bd
00000070: 07b4 5abd 3e41 b83d 3bf0 423c 92a6 403e
00000080: 380d 9abd 2e90 963e 8bf3 5c3e 39bf 32be
00000090: 391e d03d 6deb 683e 1cc7 5b3d e327 6d3d
-0.0034736143 -0.061817676 0.089112714 -0.06543306 0.0037026275 -0.06808626 0.067007326 -0.04276428
-0.112075955 -0.06931592 -0.14125213 0.0010896355 0.22882132 -0.007211289 -0.204308 -0.15214019
0.13769634 0.12862712 -0.021067386 0.19347334 -0.1854493 0.13243748 -0.18084618 -0.053164538
0.019141369 -0.0989532 -0.1407159 -0.11248227 -0.053394344 0.08996819 0.011898096 0.18813542
-0.075220525 0.29406875 0.2157728 -0.17455758 0.101620145 0.22746058 0.053656682 0.057899367

weight f4 [1, 40]
00000000: 2373 42be 9ff7 dfbd 601e fabe 148c af3d
00000010: cb0d 97bf 78c7 e93e cf2a b0be efeb b83c
00000020: 1079 603d d191 50bd 1a36 143d 3c9a ab3d
00000030: 69f0 fc3e 0ae3 46be 25be 8e3f e81c 193e
00000040: a381 bcbf 4a53 2a3f 6ab8 ae3e b5c9 a13e
00000050: d311 123e 0049 a83e cd94 0dbf cf03 67bf
00000060: fee0 c5bd ec51 2d3f d841 31be ea74 e2be
00000070: 0ffc fa3e 787d d63d 2127 ac3d 1301 40bf
00000080: 888b f73d e6da edbe fd2a 8a3e 44d3 6bbf
00000090: 808d 7b3e f0cd 9d3e f487 023e d1ac 09bf
-0.18989234 -0.10935902 -0.488513 0.0857164 -1.1801084 0.45659995 -0.3440766 0.02257344
0.054802954 -0.05092031 0.036184408 0.08379027 0.49402168 -0.19422546 1.1151778 0.14952433
-1.4727062 0.6653334 0.34125072 0.31599203 0.14264612 0.32868195 -0.55305177 -0.90240186
-0.096620545 0.6770313 -0.17310274 -0.44229823 0.4902043 0.1047315 0.08405901 -0.7500164
0.1208716 -0.4645607 0.26985922 -0.9211924 0.24565697 0.3082118 0.12747175 -0.5377932
