learning/model/dnn/model_10.pth (torch, 11415 bytes, 5 tensors)

weight f4 [40, 7]
0.29192492 -0.283686 -0.5665434 0.4664151 0.37836272 -0.2715916 0.067745686 -0.33713448
0.07694024 -0.08659449 -0.18633163 -0.03708276 -0.28828508 -0.30420667 -0.2933767 0.2948251
0.43922275 0.44246456 0.01491901 -0.15481752 0.27012828 -0.1975702 0.2661231 0.16777676
0.3118576 0.018064836 0.046711337 -0.12051836 0.09803555 -0.15479785 -0.38394895 -0.13167278
-0.27584818 -0.20943324 0.14184223 -0.10493612 -0.046463348 0.23807675 0.25839594 0.05376516
-0.10275349 -0.35643363 -0.4511728 0.5423364 -0.115115516 0.42888325 0.49277455 -0.10692881
0.05373894 -0.2029085 0.27097854 -0.13744168 0.5434163 -0.28020468 -0.23688361 0.14622453
-0.19614357 -0.13113438 -0.08917621 0.13257824 -0.013350622 0.004321871 0.25389975 -0.42683432
0.28295955 0.55795604 0.29443535 0.43811285 -0.004161064 -0.16628247 0.40558314 -0.10923465
0.3374984 0.23228504 0.36683726 0.0035136433 0.24004017 -0.31803855 0.5803126 -0.7982772
0.3575785 0.25384054 0.18038768 0.14264692 -0.022414232 -0.0540589 -0.5818848 0.47638974
0.4845644 -0.105295226 0.18736061 -0.3390296 -0.1811434 -0.05370187 0.14627051 0.16245596
0.08859273 0.18767467 -0.044434644 0.1985211 -0.3454736 0.16372778 -0.040325888 -0.04585746
-0.046611782 0.28730026 -0.46305597 -0.1552038 0.044820867 0.29034042 0.14820488 0.029264769
-0.06745243 0.15904517 0.060755257 0.3585332 -0.18583725 -0.32233778 -0.14099713 0.19381274
0.18790329 0.3760679 -0.030179657 0.05468188 -0.05925205 -0.1400431 -0.2981665 0.15934145
-0.23600347 -0.28356856 0.32658613 -0.024020478 -0.17750946 -0.17514467 0.15378587 -0.117280945
0.06313403 -0.16884945 0.27839664 -0.23935604 0.1417007 -0.015333665 0.59650326 -0.048975997
-0.21403538 -0.09351769 0.26269436 -0.5464037 -0.3024957 -0.37879044 0.3722977 0.4044498
-0.1604822 0.12879346 0.07289646 -0.33175287 1.0718259 -0.2274027 -0.4217534 -0.36145237
-0.00801844 -0.46682835 -0.0757477 -0.35473207 -0.1816362 -0.29347935 0.5725249 -0.09817662
-0.029741004 0.40482035 0.14033209 0.14717063 0.2712745 -0.21982516 0.27827874 0.2854927
0.47180972 -0.29918778 0.09238091 0.092286624 0.09411569 -0.09411929 -0.10113619 0.43030697
-0.6174075 0.19285566 0.36714536 0.30938417 -0.2198812 0.31580734 0.029365193 0.20773564
-0.2356472 -0.022707792 -0.35058907 -0.08120361 -0.1041022 0.056538403 0.39419279 -0.055080205
0.30637926 0.13358787 0.12019105 -0.14620447 0.19627395 0.017881304 -0.36326787 -0.07875022
-0.16862558 -0.030265301 -0.1471965 0.39936846 0.33974892 -0.19245511 -0.24708827 -0.12113895
-0.109745815 0.24822992 -0.21887428 -0.18074107 -0.13391995 -0.06014362 -0.17181146 0.24265037
-0.014551014 -0.35175624 0.031546712 0.26789898 -0.31452486 0.40038216 -0.17758486 0.07520113
-0.0797696 0.0009652965 -0.16400683 0.08330378 -0.17002986 0.2809012 -0.036617562 0.32251757
-0.0327872 0.36523467 -0.167911 0.01548585 -0.31967697 -0.12610458 0.047910467 -0.38247892
0.33824137 0.034732323 0.11696276 0.068795 -0.08165629 -0.2183114 -0.09341475 -0.027996015
00000000: 2f77 953e 4b3f 91be fd08 11bf f6cd ee3e
00000010: c2b8 c13e 0e0e 8bbe 40be 8a3d e49c acbe
00000020: d892 9d3d 7458 b1bd b8cd 3ebe 18e4 17bd
00000030: 1a9a 93be fac0 9bbe 7935 96be 51f3 963e
00000040: cee1 e03e b78a e23e dd6e 743c 7c88 1ebe
00000050: 414e 8a3e d84f 4abe 4941 883e accd 2b3e
00000060: cdab 9f3e b5fc 933c 6354 3f3d 54d2 f6bd
00000070: ddc6 c83d 5483 1ebe f594 c4be 3bd5 06be
00000080: f93b 8dbe ab75 56be 173f 113e c0e8 d6bd
00000090: 5a50 3ebd 64ca 733e 794c 843e db38 5c3d
000000a0: 6c70 d2bd 787e b6be 1f00 e7be 8fd6 0a3f
000000b0: afc1 ebbd 9696 db3e f24c fc3e 7efd dabd
000000c0: 5d1d 5c3d 3fc7 4fbe b3bd 8a3e 83bd 0cbe
000000d0: 551d 0b3f fd76 8fbe 9e91 72be e2bb 153e
000000e0: dcd9 48be 1748 06be 04a2 b6bd 97c2 073e
000000f0: 91bc 5abc 7b9e 8d3b 26ff 813e 078a dabe
00000100: 13e0 903e 35d6 0e3f 3bc0 963e 5450 e03e
00000110: 8959 88bb f445 2abe 98a8 cf3e 6bb6 dfbd
00000120: 97cc ac3e 21dc 6d3e 18d2 bb3e 2745 663b
00000130: 17cd 753e f3d5 a2be 5e8f 143f e55b 4cbf
00000140: 8714 b73e 63f7 813e 8cb7 383e 0912 123e
00000150: 0d9e b7bc dd6c 5dbd 67f6 14bf 5be9 f33e
00000160: d318 f83e 06a5 d7bd 76db 3f3e 4a95 adbe
00000170: a87d 39be 7ef6 5bbd f0c7 153e db5a 263e
00000180: 1b70 b53d ca2d 403e 1a01 36bd 1e49 4b3e
00000190: eae1 b0be 41a8 273e c22c 25bd 08d5 3bbd
000001a0: ffeb 3ebd 0519 933e ac15 edbe bfed 1ebe
000001b0: 1696 373d 80a7 943e 05c3 173e abbc ef3c
000001c0: 8024 8abd bddc 223e 81da 783d aa91 b73e
000001d0: 1f4c 3ebe 7509 a5be 8d61 10be d976 463e
000001e0: b869 403e f98b c03e 543b f7bc 1bfa 5f3d
000001f0: 47b2 72bd 7567 0fbe 48a9 98be 682a 233e
00000200: e5aa 71be e62f 91be 4c36 a73e 98c6 c4bc
00000210: 0ac5 35be 2059 33be 0b7a 1d3e fe30 f0bd
00000220: 6a4c 813d dfe6 2cbe 018a 8e3e c019 75be
00000230: fd19 113e 0d3a 7bbc 70b4 183f 0e9b 48bd
00000240: 172c 5bbe 3486 bfbd e07f 863e 1de1 0bbf
00000250: b7e0 9abe d2f0 c1be ce9d be3e 0b14 cf3e
00000260: 7255 24be 6fe2 033e bd4a 953d 83db a9be
00000270: 9731 893f 41dc 68be 10f0 d7be 4910 b9be
00000280: c65f 03bc 2004 efbe 9c21 9bbd 719f b5be
00000290: d7fe 39be ed42 96be fe90 123f d310 c9bd
000002a0: 68a3 f3bc 9d44 cf3e 37b3 0f3e e6b3 163e
000002b0: 7ee4 8a3e d919 61be 8d7a 8e3e 192c 923e
000002c0: 0b91 f13e 242f 99be 3432 bd3d c500 bd3d
000002d0: babf c03d 9dc1 c0bd 7e20 cfbd 3251 dc3e
000002e0: 6b0e 1ebf f47b 453e 7afa bb3e 9a67 9e3e
000002f0: 8a28 61be 80b1 a13e 468f f03c a7b8 543e
00000300: 804d 71be b105 babc 6980 b3be 144e a6bd
00000310: 8933 d5bd d094 673d a3d3 c93e c89b 61bd
00000320: bedd 9c3e 42cb 083e ba26 f63d a0b6 15be
00000330: 0afc 483e d07b 923c 3ffe b9be cc47 a1bd
00000340: 2fac 2cbe f0ee f7bc aeba 16be 067a cc3e
00000350: 92f3 ad3e f412 45be b504 7dbe b317 f8bd
00000360: 6ac2 e0bd fc2f 7e3e 9420 60be 3014 39be
00000370: 5022 09be 2859 76bd 58ef 2fbe 5779 783e
00000380: 6067 6ebc 6519 b4be 2037 013d 0e2a 893e
00000390: 6709 a1be e4fe cc3e ced8 35be 0d03 9a3d
000003a0: 3e5e a3bd f40b 7d3a 68f1 27be 2c9b aa3d
000003b0: 4f1c 2ebe 48d2 8f3e 4cfc 15bd 0621 a53e
000003c0: df4b 06bd 0a00 bb3e dcf0 2bbe 5db8 7d3c
000003d0: b3ac a3be 8f21 01be c43d 443d 47d4 c3be
000003e0: f92d ad3e 7b43 0e3d 2c8a ef3d 65e4 8c3d
000003f0: 6a3b a7bd 068d 5fbe 3c50 bfbd e657 e5bc

bias f4 [40]
0.30364963 -0.09572631 -0.26841044 0.32656077 0.39702237 -0.08887677 0.17678872 -0.042360794
-0.1946797 -0.42103702 -0.2323193 -0.040306624 0.05407383 -0.006512145 -0.07245925 0.14637332
-0.020754514 0.3567468 0.0035464766 0.065543436 0.34880283 0.17361344 0.3317209 0.17363696
0.07557922 -0.37789512 0.13410437 0.0077983076 0.10021177 -0.32037532 -0.28985602 0.29831618
0.28048632 -0.27633473 0.09039353 0.34772134 0.33168066 -0.09949329 0.07869716 0.31240708
00000000: f777 9b3e 280c c4bd 186d 89be f932 a73e
00000010: 8446 cb3e 0605 b6bd 1a08 353e 8382 2dbd
00000020: 1e5a 47be 2a92 d7be 1ce5 6dbe 8f18 25bd
00000030: 857c 5d3d d563 d5bb 8465 94bd e3e2 153e
00000040: 5f05 aabc 84a7 b63e 016c 683b a33b 863d
00000050: 4996 b23e b9c7 313e 52d7 a93e e3cd 313e
00000060: 47c9 9a3d 787b c1be a852 093e f288 ff3b
00000070: d43b cd3d 3c08 a4be 0268 94be e6bc 983e
00000080: e79b 8f3e bf7b 8dbe 3e20 b93d 8808 b23e
00000090: 0cd2 a93e 23c3 cbbd fa2b a13d d2f3 9f3e

weight f4 [40, 40]
0.20585108 -0.09305259 -0.019984603 0.08029125 -0.17555112 -0.018761849 0.25788945 0.0725696
0.13464025 -0.12309585 -0.07976881 0.443578 0.265056 0.09872882 -0.06696633 -0.2271971
-0.11278678 -0.21507819 0.08637631 -0.058166653 -0.16141787 0.3562744 -0.00073991506 0.21731026
-0.02658796 0.29525545 0.3579676 -0.02329258 -0.20809327 0.026805952 -0.098561406 0.050981995
0.005867286 -0.02154258 0.009042203 0.041436773 -0.110135905 0.2495529 0.06453 -0.050943278
-0.16134334 -0.09095136 -0.04603988 0.028924333 0.0025776238 0.12017392 0.13758363 0.082931854
0.1237607 0.017937927 0.11803316 0.13958429 -0.09986746 -0.02200242 -0.046339937 0.032684274
0.1286757 0.11231168 -0.05085447 -0.11133753 0.066539824 -0.13966602 -0.064405635 0.032316558
-0.1026061 -0.043560743 -0.1535652 0.0891465 0.10575586 -0.035286732 -0.045799263 -0.09961075
0.07143606 -0.014032402 0.029820593 -0.11839267 -0.124896295 -0.026294008 0.02921946 -0.13661659
0.16988221 -0.13916886 0.014468124 -0.045897666 0.12454146 0.17889929 0.05361801 0.19812731
0.07264337 0.080721624 0.24058416 -0.1141204 0.067998946 0.03786273 -0.15658697 0.14844796
0.053585496 0.0972556 0.02099584 0.03206522 0.050593354 -0.23321164 -0.36406988 -0.19745526
0.18217221 -0.07088767 0.11492881 -0.0677944 0.09172105 -0.11232972 -0.14288822 0.08435006
0.13005295 0.1631541 5.6293134e-06 0.08386173 -0.03277311 0.08418633 -0.12489107 0.037753634
-0.013475552 0.042933553 -0.06624418 -0.15306133 -0.15462258 -0.03944827 0.06125462 0.028095767
-0.060508803 -0.025937393 -0.08414966 -0.09130984 -0.089517675 0.055781737 -0.082711294 -0.041736305
0.03957352 -0.010242999 -0.14433323 0.007742867 -0.15650283 -0.109735616 -0.14029956 0.095788226
-0.07578212 -0.11971469 0.04054928 -0.116121665 0.0030740798 -0.1264469 0.07740794 0.122048244
0.00799714 0.15384762 -0.041759096 -0.009912357 0.05246274 -0.14096332 0.05928822 -0.009503961
-0.096397094 0.05730474 -0.02349143 -0.053455103 -0.17378521 0.084647976 -0.10523651 0.009517012
-0.030487958 -0.15701763 0.13884433 0.1536642 -0.09331995 -0.0021438738 0.079144426 -0.007586099
-0.047236573 0.123764075 -0.0990878 0.12718146 0.09782273 0.10593167 0.21387035 -0.14730152
0.015156486 0.1054159 0.10235834 0.010674126 -0.044152256 -0.09556707 0.099255025 0.10573726
-0.15343189 -0.08843517 -0.14475624 -0.056815885 0.11779195 0.03917561 -0.015733106 -0.036345065
-0.0488224 -0.054874413 -0.015530742 -0.11533735 0.08788732 -0.11011152 -0.03982228 0.14688848
-0.047367193 -0.03304462 0.073075466 -0.061257817 -0.030336622 -0.056317214 0.14706224 0.12465291
-0.036817156 0.053603563 0.053640086 -0.042817242 -0.07962528 0.103511415 0.08245495 0.010191369
-0.08446517 -0.077674836 -0.08121928 0.07795931 -0.17955045 0.059118897 0.092512675 0.082159325
-0.012014011 0.016651083 0.105823085 0.14918496 0.10277327 -0.07021292 0.12759043 0.15627147
0.11633761 0.09808488 -0.03438961 0.007445386 0.06967541 -0.1530983 -0.15970889 -0.10039599
0.14759445 -0.1257688 0.14783593 0.005049444 0.15372008 0.010097272 -0.09281184 -0.1501074
00000000: a0ca 523e 5b92 bebd c0b6 a3bc bd6f a43d
00000010: acc3 33be 73b2 99bc 160a 843e 5f9f 943d
00000020: 22df 093e ad19 fcbd d45d a3bd a81c e33e
00000030: 6cb5 873e 5632 ca3d a525 89bd 5ba6 68be
00000040: c1fc e6bd 753d 5cbe 10e6 b03d 2840 6ebd
00000050: ba4a 25be 9969 b63e dcf6 41ba 9586 5e3e
00000060: fece d9bc b92b 973e 8747 b73e 15d0 bebc
00000070: 6716 55be 2898 db3c 90da c9bd 7fd2 503d
00000080: 5d42 c03b 117a b0bc c025 143c 9bb9 293d
00000090: ef8e e1bd cc8a 7f3e 4e28 843d e6a9 50bd
000000a0: 3037 25be b544 babd 5094 3cbd b9f2 ec3c
000000b0: 5aed 283b bf1d f63d b9e2 0c3e 2dd8 a93d
000000c0: 4076 fd3d 8ff2 923c 5fbb f13d 2fef 0e3e
000000d0: 5087 ccbd 6b3e b4bc f2ce 3dbd f2df 053d
000000e0: 90c3 033e ab03 e63d c74c 50bd ee04 e4bd
000000f0: 0846 883d 9c04 0fbe 1ae7 83bd 5e5e 043d
00000100: 2623 d2bd c06c 32bd 3240 1dbe 7192 b63d
00000110: 8796 d83d d288 10bd 0298 3bbd b900 ccbd
00000120: 124d 923d 29e8 65bc 514a f43c db77 f2bd
00000130: a1c9 ffbd 8866 d7bc a65d ef3c 38e5 0bbe
00000140: 9af5 2d3e 4882 0ebe b60b 6d3c 31ff 3bbd
00000150: 980f ff3d 6031 373e 8f9e 5b3d e3e1 4a3e
00000160: 0cc6 943d 6151 a53d b25b 763e f5b7 e9bd
00000170: 0843 8b3d f315 1b3d 5658 20be be02 183e
00000180: 777c 5b3d f22d c73d 78ff ab3c d256 033d
00000190: fa3a 4f3d 08cf 6ebe 5e67 babe b631 4abe
000001a0: 5a8b 3a3e 8e2d 91bd cc5f eb3d cad7 8abd
000001b0: 3fd8 bb3d 200d e6bd 4a51 12be b9bf ac3d
000001c0: 9a2c 053e de11 273e 6fe3 bc36 b3bf ab3d
000001d0: 193d 06bd e269 ac3d e4c6 ffbd 8ea3 1a3d
000001e0: 90c8 5cbc 18db 2f3d 07ab 87bd 1cbc 1cbe
000001f0: 6255 1ebe 8294 21bd 20e6 7a3d 1829 e63c
00000200: 14d8 77bd a87a d4bc a856 acbd a700 bbbd
00000210: 0b55 b7bd 647b 643d 8a64 a9bd b0f3 2abd
00000220: d817 223d 40d2 27bc 17cc 13be e0b7 fd3b
00000230: 4742 20be 11bd e0bd b0aa 0fbe 9e2c c43d
00000240: a833 9bbd fa2c f5bd 0017 263d 32d1 edbd
00000250: 8076 493b 4c7b 01be 0e88 9e3d 6ef4 f93d
00000260: 7006 033c 3b8a 1d3e 960b 2bbd 7067 22bc
00000270: 2ce3 563d b058 10be 34d8 723d 80b6 1bbc
00000280: d76b c5bd 60b8 6a3d 1971 c0bc bdf3 5abd
00000290: c0f4 31be eb5b ad3d 3d86 d7bd 3eed 1b3c
000002a0: e2c1 f9bc 3bc9 20be 352d 0e3e 265a 1d3e
000002b0: 881e bfbd 3c80 0cbb 7916 a23d d094 f8bb
000002c0: 237b 41bd 0578 fd3d 8bee cabd db3b 023e
000002d0: 4957 c83d b4f2 d83d d400 5b3e 36d6 16be
000002e0: e952 783c 4be4 d73d 40a1 d13d 88e2 2e3c
000002f0: ffd8 34bd abb8 c3bd 3846 cb3d c78c d83d
00000300: 401d 1dbe 801d b5bd fb3a 14be c6b7 68bd
00000310: e83c f13d 9b76 203d b7e2 80bc 90de 14bd
00000320: fff9 47bd fec3 60bd a774 7ebc fd35 ecbd
00000330: 44fe b33d 2682 e1bd b01c 23bd ef69 163e
00000340: 1a04 42bd cc59 07bd 97a8 953d 7ae9 7abd
00000350: 8284 f8bc e1ac 66bd 7c97 163e 064a ff3d
00000360: 96cd 16bd 698f 5b3d b5b5 5b3d 2261 2fbd
00000370: 9412 a3bd cbfd d33d 24de a83d b3f9 263c
00000380: 13fc acbd fc13 9fbd 4b56 a6bd 21a9 9f3d
00000390: 13dc 37be a826 723d 4977 bd3d 2643 a83d
000003a0: 6ad6 44bc da67 883c c6b9 d83d f1c3 183e
000003b0: cb7a d23d cbcb 8fbd 11a7 023e a105 203e
000003c0: 6a42 ee3d bae0 c83d 1fdc 0cbd 6df8 f33b
000003d0: fbb1 8e3d cdc5 1cbe ba8a 23be 6a9c cdbd
000003e0: 0023 173e 89c9 00be 4d62 173e ce75 a53b
000003f0: cc68 1d3e 076f 253c 2214 bebd c1b5 19be

bias f4 [40]
-0.103131026 -0.1445998 0.124098375 -0.11990557 0.09808267 -0.012765139 0.17295398 0.02475922
0.13849203 0.020927537 0.01981223 -0.14815137 -0.10927531 0.10202556 0.0783888 -0.024324467
0.15146947 0.019047862 -0.14002654 -0.1370727 -0.042432174 -0.17204836 -0.08297699 0.12344664
-0.09844254 0.14425148 0.058411796 0.15590402 -0.12066599 0.12197086 0.094229415 -0.18207115
-0.12424036 0.10711453 0.05877506 -0.10680301 -0.07128554 -0.08298038 -0.10911594 -0.048109896
00000000: 5c36 d3bd f811 14be 4a27 fe3d 0d91 f5bd
00000010: 91df c83d e024 51bc d91a 313e d9d3 ca3c
00000020: dbd0 0d3e 3a70 ab3c 424d a23c feb4 17be
00000030: bccb dfbd c7f2 d03d 4f8a a03d 1b44 c7bc
00000040: d01a 1b3e 430a 9c3c 1e63 0fbe c95c 0cbe
00000050: 5ccd 2dbd 722d 30be d7ef a9bd 98d1 fc3d
00000060: 3e9c c9bd a9b6 133e 3541 6f3d 4ea5 1f3e
00000070: bb1f f7bd dccb f93d 5afb c03d dc70 3abe
00000080: bb71 febd dd5e db3d 1ebe 703d 89bb dabd
00000090: 27fe 91bd 9ef1 a9bd 2e78 dfbd e20e 45bd

weight f4 [1, 40]
-0.93522304 0.067304805 0.5905972 -0.10640599 -0.2672198 0.10459853 -0.38068396 -0.111618966
0.03548684 0.109611765 -0.84433764 -0.30397967 -0.09361788 0.8170744 -0.69469464 -0.052494537
0.35108486 0.23584685 0.11213809 -0.3583126 -0.8310537 1.0298352 0.5903415 0.09884918
0.01488421 0.30496594 -0.698713 -1.0265664 0.22630686 -0.32627064 -0.07149454 -0.13263872
0.037509874 0.31531852 0.1031431 0.25847593 -0.08858967 -0.47504836 -0.50649464 -0.014432296
00000000: c76a 6fbf 1ad7 893d 6131 173f 62eb d9bd
00000010: 09d1 88be c137 d63d 02e9 c2be 7c98 e4bd
00000020: a65a 113d 227c e03d 8326 58bf 39a3 9bbe
00000030: bbba bfbd ca2b 513f 82d7 31bf 8304 57bd
00000040: 65c1 b33e d681 713e a8a8 e53d c074 b7be
00000050: efbf 54bf a4d1 833f 9f20 173f 7071 ca3d
00000060: e7dc 733c 7f24 9c3e dbde 32bf 8766 83bf
00000070: fcbc 673e f20c a7be bb6b 92bd 72d2 07be
00000080: f4a3 193d 6e71 a13e b13c d33d f556 843e
00000090: 806e b5bd 8a39 f3be a2a9 01bf 7075 6cbc
