learning/model/dnn/model_5.pth (torch, 11415 bytes, 5 tensors)

weight f4 [40, 7]
00000000: 95e7 2cbe b564 a83e 53b7 c13e 5815 21be
00000010: a6f4 b53e 027e 19bd 03e3 6abd 7736 683e
00000020: 88cd 03be 5c82 19bf 5700 cb3e 417a c83e
00000030: 1553 29be c353 893e 1347 95be 2fbc f03e
00000040: 033a 55bf f4c4 e63e 00aa e63e 0173 263b
00000050: 4cee b9ba c12b c93d 8284 a43e bf13 233f
00000060: 96b8 81be 5f23 693e bc7d 473e c4af 443d
00000070: e06f a33e 1354 3c3c 93c4 2dbe ac57 913b
00000080: 6720 5fbe 281c ab3e 68c3 ec3c 172b 82bd
00000090: 5035 9c3e 96e5 67be 257f 1abe 2f3a 1b3e
000000a0: db86 98bd 9ad2 163e 41f2 793e 0a02 223d
000000b0: 1ba8 fcbd ced5 40be 1a39 e5be bf1c 293e
000000c0: d414 d03d 9a5a f6be 20be c2be ac20 763e
000000d0: e2f0 d83d abf1 acbb e170 b5bd 8870 b53d
000000e0: ab1e 153f 7e23 23bf 05a6 20bf 6aec 33bd
000000f0: 9487 bdbd 94a5 04bb b77b 733d 1e52 bd3e
00000100: 5643 cabe 58ea 16bf 0a7b 613e f755 943e
00000110: f2a0 c83c 7d5a 2c3d 6148 db3e bf1e 82bc
00000120: 493e aabe 6749 4fbe 1943 373e 9cfd c8bc
00000130: 027b b0be 35ed 5d3e f6e2 9b3d 35ac 4f3e
00000140: 655a 143d 7fd6 c93e f426 65be 84c8 b3be
00000150: ef42 153e 55ad db3d 6028 97be c56c d93d
00000160: cc6a febd 847e 91be 8013 90bd 58ca 8f3d
00000170: b139 a3be 9e03 e03e a96e 96be 53f3 d33d
00000180: 972c fbbe 6a00 9abe 34aa 2c3e 1510 2e3d
00000190: cd21 e13c 5d00 1ebe aadc a7be 8b21 a5be
000001a0: b343 13be f6ba d63e 7bf8 85be 307f 81be
000001b0: cd6f 2f3e f590 81be 87a5 68be 596e b5bd
000001c0: b36e 88bd 767f f43e ab2e 853e 8bf9 2e3f
000001d0: b669 0f3f 8e0b 1b3d 7b21 9e3e 5542 2cbe
000001e0: 7684 95be 98ac 32bd dd10 14be 761a 293e
000001f0: 16f2 46be 44f2 82be 740c d53d d168 c23d
00000200: be9a 753d 2fab 59be 51b8 62be ef11 0ebe
00000210: 2247 f1bd 7778 00be 69ae 1f3e 908e e13e
00000220: 60d9 933e 43a0 923e fd80 cd3d 88b8 993d
00000230: 625e 39be 2444 ccbd 3c14 7bbe 01a2 3cbe
00000240: 3050 763d cdfd aabe dc00 bdbd f5d6 a73e
00000250: ddea 633e 0f9b e03e 32a0 f53d f683 e5bb
00000260: cf14 983e 42d8 133e 0b0b d3be 3061 e6bd
00000270: 69ea b83e 554f 6f3b 3c2e b63e 75f8 993e
00000280: d05a ba3e 86de da3e 5c73 cabd 3720 c9bd
00000290: 7da6 883e a061 0b3e 120f 79be 86d9 b13c
000002a0: 8bad cfbd 4a4d ce3e 2959 453e 1786 ba3e
000002b0: 0738 37be 797c 6d3e 1b9c bd3e 3ed4 90bc
000002c0: 5475 54be 9db5 743e 2d26 05bf ef52 02bf
000002d0: 3094 c23e 5689 273e 91f5 2b3f 9eac 11bf
000002e0: 0052 cbbe 1d1a 1f3e 86ba 6a3e 7aa8 86be
000002f0: b8f4 9e3d 85aa efbd 10e1 493e a408 e43d
00000300: cbbc b0bd c03c aabe 1898 dc3e f97e 8fbe
00000310: ee49 473d 2f5a 1c3e bce3 c33c 8cdc 943d
00000320: 1a11 4cbd 9cc3 b03d b753 58be c78a 283e
00000330: 2933 11be c821 19be 4440 11be 92a6 81be
00000340: e246 a13e 9240 113d c8dd 113d a262 84be
00000350: f7bc 90be c7b9 26be 080c 8b3e 23ef 473d
00000360: de08 563e 595d 87be d802 91bd dcd3 95be
00000370: bae5 89be befe 8f3e ff5b 9dbe e618 8c3e
00000380: a2c4 973d ef8c b83e 33df e5be 1091 8e3e
00000390: a3d6 d13e 28bf 41be bfbd 93be 6f27 8bbe
000003a0: f06c c93e fd6e ca3e cfc3 e73e e456 383e
000003b0: 9bf7 63be 0d51 cd3d 33ed b6be 8833 89be
000003c0: c64e 753e 1b30 05be 763d 02be 6033 d0bd
000003d0: 749b 72be ff49 50be 2222 87be be0a a03d
000003e0: 1874 9abd 17b1 0b3e dfae ac3e 459a 493b
000003f0: 0239 afbe 7053 673e c5bc 02bd 95dc 553d
-0.16885217 0.32889333 0.37835178 -0.15730798 0.35538214 -0.037473686 -0.0573454 0.22677027
-0.12871373 -0.5996454 0.39648697 0.39155772 -0.165356 0.26821718 -0.29155788 0.47018573
-0.83291644 0.45072138 0.45051575 0.0025398138 -0.0014185398 0.098227985 0.32132345 0.63702005
-0.2533614 0.22767399 0.19481558 0.048019186 0.3192129 0.011494654 -0.16969518 0.0044355
-0.21789704 0.3341992 0.02890177 -0.06355875 0.30509424 -0.22646174 -0.15087564 0.15158914
-0.07447597 0.14728776 0.24408819 0.039552726 -0.12336751 -0.1883156 -0.44770128 0.16514872
0.10160223 -0.48115999 -0.3803568 0.24035901 0.1059282 -0.0052778325 -0.088594206 0.08859354
0.5824992 -0.6372603 -0.62753326 -0.043926634 -0.09254375 -0.0020240294 0.059444156 0.36976713
-0.39504498 -0.5895133 0.22019592 0.28971836 0.024490807 0.042078484 0.42828658 -0.015883802
-0.33250645 -0.20242845 0.1789669 -0.024534993 -0.34468848 0.21672519 0.07611649 0.20280536
0.03621902 0.3942146 -0.2237814 -0.3511392 0.14576314 0.1072642 -0.2952299 0.10616449
-0.12422714 -0.28416836 -0.07034969 0.07021016 -0.31879953 0.4375276 -0.29381302 0.10349145
-0.49057457 -0.3007844 0.16861802 0.042495806 0.027481938 -0.15429826 -0.3278554 -0.32252154
-0.14381294 0.41939515 -0.26166138 -0.2529235 0.17132492 -0.25305906 -0.22719394 -0.08858938
-0.06661739 0.47753495 0.26012167 0.6834952 0.5602068 0.037852816 0.3088492 -0.16822179
-0.29202622 -0.04362163 -0.14459558 0.16514 -0.19428286 -0.2557546 0.10402766 0.094926484
0.059962027 -0.21256708 -0.22140624 -0.13874029 -0.11781146 -0.12545954 0.15593876 0.4405408
0.2887678 0.28637895 0.10034368 0.075059 -0.1810241 -0.09973934 -0.24519438 -0.18421175
0.060135067 -0.3339676 -0.092286795 0.32781187 0.22257562 0.438683 0.119934455 -0.0070042564
0.29703376 0.14437965 -0.41219363 -0.11249006 0.3611634 0.0036515791 0.3558215 0.3007237
0.3639741 0.42747897 -0.09885284 -0.098205976 0.2668952 0.1361146 -0.24322155 0.021710169
-0.101405226 0.40293342 0.19272293 0.36430427 -0.17892466 0.23192014 0.37033162 -0.01767933
-0.20747882 0.23897405 -0.52011377 -0.50907797 0.38003683 0.16360983 0.6717158 -0.5690402
-0.39711 0.15537305 0.22922716 -0.26300412 0.0776152 -0.11702446 0.19714761 0.111344606
-0.086297594 -0.33249474 0.43084788 -0.2802656 0.04865449 0.15268777 0.023912303 0.072686285
-0.049820997 0.086310595 -0.21125685 0.1645919 -0.14179672 -0.14954293 -0.14184672 -0.25322396
0.31499392 0.03546197 0.035611898 -0.258565 -0.2826917 -0.16281806 0.27157617 0.048812043
0.2090182 -0.26438406 -0.070806205 -0.29263198 -0.2693308 0.2812404 -0.3073425 0.27362746
0.074105516 0.36045024 -0.4489685 0.2784505 0.40984067 -0.18920577 -0.28855702 -0.27178523
0.39340925 0.39537802 0.45266578 0.18001896 -0.22262423 0.10025225 -0.35727844 -0.26797128
0.23955831 -0.13006632 -0.12718758 -0.10166049 -0.23692113 -0.20340727 -0.2639323 0.07814549
-0.075416744 0.13641773 0.33727166 0.0030762118 -0.3422318 0.22590423 -0.031918306 0.052212317

bias f4 [40]
00000000: 5bbb 2d3d bc02 d73d 251d 23be bbb8 393e
00000010: 0fb6 b23e 4d0d 943e 1dbd d63e 2b2b 0f3e
00000020: 20b0 9a3d f1d8 b43e 2994 95be 46e2 57be
00000030: b2a5 a3be 3267 803e 5985 33be b63e 1b3d
00000040: 385b 99be 39e7 98be b69d cfbd d60f 0cbf
00000050: 25df 77be 2752 10be 962d e63d 92c8 58be
00000060: fe0d d63d 3c5f 343d 73a5 dc3e b5f7 68be
00000070: ca0d bfbd b95f 98be 0109 18be 6bba 94be
00000080: ca03 b13e 7584 35be 2722 b5be 58b6 aabe
00000090: 898b 0dbe 80c5 4dbe 90e2 b8be 0d32 8dba
0.042415004 0.104985684 -0.15929087 0.18136875 0.34904525 0.28916398 0.41941157 0.13981311
0.075531244 0.35321763 -0.292146 -0.2108241 -0.31962353 0.25078732 -0.17531337 0.037901603
-0.29952407 -0.2986391 -0.10137503 -0.54711664 -0.24206217 -0.14093839 0.112391636 -0.21170262
0.104518875 0.044036135 0.43094978 -0.22750743 -0.09328802 -0.2976053 -0.14847185 -0.29048476
0.34573203 -0.1772631 -0.3537762 -0.33342242 -0.1382276 -0.20094872 -0.36110353 -0.0010772363

weight f4 [40, 40]
00000000: e285 bebd 0b9b 983c 4280 40bd 87fe d0bd
00000010: 129e 01be 828e 753d f3da 863d 8fcb 21be
00000020: 93b0 173e 61f5 183e 449a cf3d 8643 c1bd
00000030: 791e f9bd 660a 0ebd 2f7c 1f3e 641e 943d
00000040: 51a2 173e b2f5 0cbe 5508 0c3e 5f04 a8bd
00000050: bb11 84bd 5d2d 773d 62e9 043e 41dd fcbc
00000060: adad 37bd 376c 99bd 75cd a7bc 0a04 093c
00000070: 3e60 d43d 19aa 10be 19af 08be 6c7f c13d
00000080: 9e93 e7bd a366 e63d 204f 60bd 27e3 4bbd
00000090: 1ecd 9f3c b2d0 e73d cece fdbd 42de 75bc
000000a0: 57ee a8bc 8b14 883e 1c4f 4f3e 15df 23be
000000b0: 2f97 2cbc 623f 4a3e 09fa 483c 1192 ca3d
000000c0: 0efc 12be 99f7 463e e41a a1bd c475 2fbe
000000d0: 6cbd 093d 8c5c 80bc 1bcb ea3d e34d 81bd
000000e0: ebea 7b3e fdec 1e3e d723 a9bb 9839 b43d
000000f0: 6dbe 0abe cedb ed3b a993 ef3b 16ac a0bd
00000100: d5e0 abbd 70fc 10be 0140 b2bd a600 1b3e
00000110: 9430 c33d 1234 b13d 3366 083e 8ffd 5e3d
00000120: 1f3c 4a3e 198a b7bd f900 0a3e 7eea da3d
00000130: 97af 873d 8fa6 1f3e 3b2c 13bd a929 7abe
00000140: a9ae 71bd 3ed9 fc3d a940 77ba b747 9e3d
00000150: 92a2 ab3c fe8b 093e 99df 49bb 4f46 f3ba
00000160: cd38 55bd 1821 99bd 2c07 7f3d e45d 033d
00000170: e02d 4f3d 1eaa 4b3c 6831 dcbc 98df d8bd
00000180: b30b 09be 685a 10be e4fc 72bd 4637 823d
00000190: 09ed 8bbd 069a 19be 5017 c33d 80c9 fd3b
000001a0: 3f27 063d 6529 133d a9b4 223d e309 213e
000001b0: 25bb a8bb 9130 05be 13d2 bc3b 03bd d63d
000001c0: e2a2 a0bd 08d8 833d c861 913d 0eda 18be
000001d0: e3ea 813c 5cb5 08bd 4cb4 c03d c229 4abd
000001e0: 82b8 ec3d 29b9 6ebd 5eca ec3d e76f 24be
000001f0: 5a95 1a3c 55bc dbbd 7858 1c3e 80af 60bd
00000200: 5d35 fabd c730 f9bd 6057 1bbe 157c 003d
00000210: 0e7f d1bd 5e19 d63c 5d4c 88bd a878 c73d
00000220: 6757 433d 7418 7c3d c13b debd 4d1e 083e
00000230: 9037 55bd 909b 14bd fba1 07be b292 0f3e
00000240: 88de f1bd f1a3 1f3c 1c49 f6bd 1a58 f2bd
00000250: 7aa9 e93d 6e43 f63d 7fe5 90bd c037 11be
00000260: 3c3e c1bd 0212 39bd e2d2 1ebe 25d6 87bd
00000270: f69f d3bd 6839 cbbd 352d cfbd 9b44 553d
00000280: af80 18be 0112 cc3d 9011 98bd c249 83bd
00000290: ad5d 00be b647 073c 180d 06be eedf 51bd
000002a0: ca19 f0bd 6b69 83bd 96c1 b23d 6949 db3d
000002b0: 3024 3ebd 122f 183e 6716 bcbd 9b95 333d
000002c0: 7bab ac3c fa59 a23d 84e0 743d 130e d13d
000002d0: 0068 ba3b 4ce8 e43d be52 49bd a507 41bb
000002e0: 137f f1bd 6e12 96bd 059f 253e 04f8 953d
000002f0: 6d74 103e d697 3cbd df25 bf3c 8e24 083e
00000300: 9037 6a3c 7777 12be 4825 0cbe 00fa d6bc
00000310: f70d 073e 6c30 133d cb81 163e 0261 023e
00000320: ab9d fd3d 407a 053d 3818 873e 65fe 83bd
00000330: 6711 7fbd 4555 313e 9734 083e 8ee2 b43d
00000340: e5a0 b5bd 5c50 57bd 9779 ecbd f4ab 63bd
00000350: bf1a 8e3d 8e63 263d 8cbd 023d 8ba3 c4bd
00000360: 00ff 02be e820 d9bd ca3d 483d 4b0b 59be
00000370: 510d 123e 9897 f53d b557 d2bc 2124 f1bd
00000380: 06e8 973c c27a b5bc ed3d b8bc 593a e23d
00000390: 4bec b33d 17cd cb3d 4dac 08be e733 b2bd
000003a0: 4801 47bd 77e5 423d cf00 083e 06c8 aa3d
000003b0: d5bd c4bc 8a7e 8a3d a389 24bd 838d abbb
000003c0: be13 31be 24a8 553e afae cabc 1da8 20be
000003d0: dc5d d3bc cf6a 983d 4da9 193e 77e7 013e
000003e0: bd4b d53d 2316 873d d009 67bd 560c f93d
000003f0: 4b76 7f3d 14ba 0a3d 7265 bebc 522d 5e3e
-0.0930288 0.018628618 -0.046997316 -0.10204797 -0.12657955 0.05995036 0.0658473 -0.15800308
0.14813451 0.14937355 0.10136846 -0.09436707 -0.12164015 -0.034677885 0.15574716 0.07232359
0.14808013 -0.137656 0.13675053 -0.08203959 -0.06448694 0.060345996 0.12979653 -0.03086722
-0.044843365 -0.074913435 -0.020483712 0.008362779 0.10369919 -0.14127387 -0.13348044 0.09448132
-0.113074526 0.11250045 -0.05476296 -0.049777176 0.019506987 0.11319102 -0.123929605 -0.015006604
-0.020621462 0.26578173 0.20245022 -0.16003068 -0.010534092 0.19750741 0.012266644 0.09891141
-0.14353964 0.19430389 -0.07866457 -0.17134768 0.033627912 -0.01566913 0.114645205 -0.06313684
0.24601333 0.15520091 -0.005161743 0.08800048 -0.13549204 0.007258869 0.0073113036 -0.07845323
-0.08392493 -0.14158797 -0.08703614 0.15136966 0.0953075 0.0865251 0.13320236 0.05444103
0.19749497 -0.08961887 0.13476934 0.10689257 0.06625288 0.15590881 -0.035930853 -0.24429955
-0.05900446 0.12346123 -0.00094319374 0.07728522 0.020951543 0.13432309 -0.003080344 -0.0018560382
-0.052056123 -0.07477015 0.0622627 0.032071963 0.05058086 0.012430696 -0.026879027 -0.10589522
-0.13383369 -0.14096987 -0.059323207 0.06358199 -0.0683232 -0.15000162 0.09525931 0.007744968
0.03275227 0.03592815 0.039723072 0.15726428 -0.0051492625 -0.13006808 0.0057623475 0.1048527
-0.078435674 0.06437689 0.070987284 -0.14926931 0.015859073 -0.033376083 0.09409389 -0.04935623
0.115586296 -0.05828205 0.11562036 -0.16058312 0.009435022 -0.10729281 0.15268123 -0.05485487
-0.122172095 -0.12167507 -0.1517005 0.031368334 -0.10229312 0.026135143 -0.0665519 0.0973981
0.047690775 0.061546758 -0.10851241 0.13292809 -0.05205494 -0.03628117 -0.13245384 0.14020804
-0.118100226 0.0097436765 -0.12025663 -0.1183321 0.11409278 0.1202458 -0.07075023 -0.14181423
-0.094356984 -0.04518319 -0.15510133 -0.06632642 -0.103332445 -0.09923059 -0.101160444 0.05206738
-0.14892839 0.099643715 -0.07425225 -0.064105526 -0.12535734 0.008256843 -0.13090932 -0.051238947
-0.11723669 -0.06416591 0.0872833 0.10707361 -0.04642123 0.14861706 -0.091839604 0.043843847
0.021077862 0.07927318 0.059784427 0.102077626 0.0056886673 0.111771196 -0.049151175 -0.002945402
-0.117918156 -0.07327734 0.16173942 0.07322696 0.14106913 -0.04604324 0.023333488 0.13295195
0.014295474 -0.14303385 -0.13686097 -0.026242256 0.13188921 0.03593485 0.1469795 0.12732318
0.123835884 0.03258729 0.26385665 -0.06445006 -0.062272456 0.17317684 0.13301311 0.088322744
-0.08868579 -0.05256687 -0.11546629 -0.05558391 0.06938695 0.040622286 0.031919047 -0.09601506
-0.12792587 -0.106019795 0.04888705 -0.21195714 0.14262892 0.11991805 -0.025676588 -0.11774469
0.018543255 -0.022153262 -0.022490466 0.11046285 0.08785304 0.09951227 -0.13346978 -0.08701306
-0.048585206 0.047582116 0.13281558 0.08338933 -0.0240163 0.06762417 -0.040170323 -0.0052353754
-0.17292687 0.20864922 -0.024741499 -0.1568913 -0.025801592 0.07442247 0.1500599 0.12685953
0.104148366 0.06596019 -0.056405842 0.12160556 0.062368672 0.033868864 -0.023241732 0.21696976

bias f4 [40]
00000000: 8feb 12be ea74 ebbd b80e 0ebe c4d7 0e3e
00000010: 816d 5e3c 8977 333e 6a8f 333c 246d c7bb
00000020: 3688 babc 0bed a23d 219f 73bd a0ab 80bd
00000030: 8da4 1bbe fa4f c43d 6b2e 9c3e 5732 ee3d
00000040: 6a79 623e dbf4 2e3d 3309 343e 7f71 08bd
00000050: e00a 1c3d a576 523e b096 eebc ce79 87be
00000060: 6127 5e3e 3c27 b33d 2266 013e 2790 04be
00000070: 6030 bbbd b3d5 f93d 1eb9 073e a6a0 d7bc
00000080: cec5 aebd d383 45bd 45ae ff3d dca0 303e
00000090: d657 483e 0fc8 d7bc e039 0bbe 5f2c ee3d
-0.14347671 -0.11496909 -0.13872802 0.13949496 0.013575912 0.17526068 0.010959486 -0.0060860086
-0.022770029 0.079553686 -0.05947793 -0.06282735 -0.1519949 0.09585567 0.30504164 0.11630695
0.22116628 0.04271398 0.17581634 -0.033311363 0.03809631 0.20553072 -0.029124588 -0.26460117
0.2169471 0.08747718 0.12636617 -0.12945615 -0.09140086 0.12198963 0.1325421 -0.02632172
-0.08533822 -0.04822142 0.12484411 0.17248863 0.19564757 -0.026340513 -0.13596296 0.11629557

weight f4 [1, 40]
00000000: 41aa 8ebd a477 0dbf 14a0 1dbe aa0e 6e3d
00000010: 9a89 0d3d 12f8 98be 3b74 d63e 1a2b b93d
00000020: 17e6 e0be c9d1 bd3e 40fe 08bc 31bf c33d
00000030: 65cd 393f 6bcb f03e 3cb5 48bf dece d7be
00000040: 04aa 6dbf dabc a93e 37b3 01bf 172d 303f
00000050: 3b43 adbe 89be 02bf 7697 29bd 3ac2 d93f
00000060: 9f75 fabe f16a e63d 8c71 973e 102d ddbd
00000070: e8f3 f03d 70ce c83e 193e ddbe efc9 8bbe
00000080: 9627 9cbe 6b26 d43e 5e30 23bf d67e 71bd
00000090: 9d0b 14bf d903 de3e 9a78 c1bc ade6 06bf
-0.06966067 -0.5526068 -0.15393096 0.058119453 0.034555055 -0.29876763 0.41885552 0.09041424
-0.43925545 0.37074116 -0.008361399 0.09557951 0.7257903 0.47030196 -0.7840154 -0.42150015
-0.9283755 0.33151895 -0.50664085 0.688188 -0.33840355 -0.51071984 -0.04140421 1.7012398
-0.48917863 0.11250866 0.29578817 -0.107996106 0.117652714 0.3922 -0.4321144 -0.273025
-0.30498952 0.4143556 -0.6374568 -0.05895885 -0.5783022 0.4336231 -0.023617078 -0.52695733
